checkpoint_critic1.pth (torch, 161055 bytes, 5 tensors)

fc1.weight f4 [256, 24]
-0.013769357 -0.011617333 0.04246601 -0.013329941 -0.13261215 -0.11504365 -0.0053021437 0.054264337
-0.032327425 0.012676635 -0.0528126 0.0703878 -0.00038654718 -0.021342382 0.047027424 0.078629605
-0.003863421 -0.07276984 0.05740622 0.027287474 0.02740984 0.08238511 -0.037929807 0.05473397
0.08180128 0.056112148 0.009172083 0.05063264 0.020211017 -0.026039748 0.053850017 0.029388815
0.01231337 0.022841137 0.017047042 0.05304325 0.017228711 0.00062522484 -0.018997597 0.050989892
0.024683397 0.008051865 -0.030701824 -0.03503128 0.017481875 -0.05837971 0.011714859 -0.007119876
0.0147446245 -0.09167335 0.00018702832 -0.04318111 -0.06943133 -0.12022404 0.021492658 -0.029769236
-0.016676594 -0.060539484 0.007891791 -0.0039217235 -0.0073374524 -0.1352565 0.0222383 0.07262542
0.005087615 -0.12689632 0.035589524 0.07333039 0.066300124 -0.055063862 -0.02366516 0.07578434
0.032929122 0.007343366 0.016095418 0.010331076 -0.07794086 0.042115837 0.027177801 0.030544864
-0.008893326 0.04613614 -0.012557046 0.025251113 0.001891013 -0.008992073 0.051407363 -0.05243077
-0.06418771 0.01061032 0.021718962 -0.027691921 0.065467745 -0.09591406 0.036749035 -0.03586695
0.0532626 -0.029315874 -0.0067035453 -0.009480748 -0.017975682 -0.07938241 0.053991605 -0.054749586
-0.065050274 0.03633692 -0.009689262 -0.071343064 0.049873352 -0.016644098 -0.031504333 0.025610203
0.020838011 -0.026002623 0.008997919 -0.029605087 0.035625845 0.04227122 0.050360344 -0.071983434
0.06444942 -0.004031539 0.019540096 0.04071471 -0.0060247434 -0.04145714 -0.021299684 -0.00064961315
0.060016338 -0.06704737 0.036259618 -0.0010337996 0.005356536 0.038053345 0.011525627 -0.024619814
0.022802912 0.0019266849 2.2386186e-05 0.08885153 -0.037232313 0.015019345 0.015637854 0.015828053
0.068270676 0.12772506 -0.04156628 -0.0026891404 -0.029457364 0.055383533 -0.0009371241 0.05081902
0.048246097 0.10603497 0.056887697 0.04532262 -0.08031673 -0.0013229663 -0.024647776 -0.0014993266
0.06481727 0.11987141 -0.01998619 -0.05626367 -0.042305525 -0.026145248 -0.022606239 -0.014954082
-0.011009858 0.0781572 -8.0274534e-05 0.022241766 -0.11190124 0.008356263 0.03378589 0.04487137
0.0019037861 0.039673332 -0.04417992 -0.04143918 -0.063335285 -0.0485633 0.02738677 0.028355861
-0.046363674 -0.044529356 -0.01102423 0.01070603 0.025884144 0.052321218 0.010592018 -0.024843734
0.013817969 -0.028671134 -0.028191134 0.06448274 0.12985428 0.06291038 -0.0070744664 0.04023585
-0.0635116 -0.009320914 0.016574228 0.03956177 0.036259513 0.08692289 -0.067144126 -0.039177768
-0.0057326 -0.06693542 -0.027549054 -0.024182541 -0.009830662 0.10974518 -0.025645662 -0.04866346
-0.006330726 0.024276486 -0.029505216 0.015827218 -0.096552834 -0.1580098 0.038461797 0.007856647
0.07998428 -0.033614997 0.032142874 -0.05029615 -0.10060512 -0.094777025 -0.03608827 -0.060788635
-0.021404512 0.041698847 -0.053528495 0.03476122 -0.08332312 0.017922718 0.027222922 -0.0012718358
-0.06219295 -0.025025534 0.03140892 -0.06719391 0.060689785 0.08650341 0.018277684 -0.018037545
-0.051853023 -0.06804651 0.027657334 -0.0127600515 0.072705075 -0.020276833 -0.056789063 0.0002519064
00000000: df98 61bc a056 3ebc d7f0 2d3d d365 5abc
00000010: 7bcb 07be 019c ebbd 9bbd adbb 4844 5e3d
00000020: c369 04bd a9b1 4f3c 0652 58bd 7b27 903d
00000030: 7ca9 cab9 38d6 aebc d49f 403d 8f08 a13d
00000040: 7331 7dbb 5b08 95bd c922 6b3d fb89 df3c
00000050: 9a8a e03c 86b9 a83d 495c 1bbd ba30 603d
00000060: 6e87 a73d dad5 653d 8146 163c 2c64 4f3d
00000070: 9391 a53c 4f51 d5bc d691 5c3d d0c0 f03c
00000080: 04be 493c 561d bb3c 3da6 8b3c e143 593d
00000090: 3a23 8d3c 21e6 233a d9a0 9bbc c7da 503d
000000a0: d634 ca3c f8eb 033c 6482 fbbc f67c 0fbd
000000b0: 2636 8f3c 901f 6fbd aeef 3f3c d94d e9bb
000000c0: 7093 713c 3dbf bbbd 081d 4439 adde 30bd
000000d0: 0332 8ebd 0538 f6bd 5f11 b03c 9dde f3bc
000000e0: 5a9d 88bc 40f8 77bd 924c 013c cd81 80bb
000000f0: 036f f0bb ae80 0abe 182d b63c a3bc 943d
00000100: 02b6 a63b 1cf1 01be 52c6 113d 3e2e 963d
00000110: 5cc8 873d a58a 61bd 70dd c1bc d234 9b3d
00000120: b0e0 063d 9ea0 f03b 8ada 833c ac43 293c
00000130: 759f 9fbd a881 2c3d fba3 de3c 3939 fa3c
00000140: 50b5 11bc 40f9 3c3d 11bc 4dbc 6cdb ce3c
00000150: dedb f73a 7d53 13bc 8790 523d a6c1 56bd
00000160: d974 83bd e8d6 2d3c f7eb b13c 2bda e2bc
00000170: f413 863d 976e c4bd 2886 163d 39e9 12bd
00000180: e229 5a3d d827 f0bc 6aa9 dbbb 2455 1bbc
00000190: bd41 93bc 3f93 a2bd 4d26 5d3d 1a41 60bd
000001a0: 1439 85bd 06d6 143d b6bf 1ebc 501c 92bd
000001b0: 0048 4c3d 3459 88bc b00a 01bd 7dcc d13c
000001c0: 7ab4 aa3c 7403 d5bc 026c 133c 5e86 f2bc
000001d0: 68ec 113d 9624 2d3d a646 4e3d 0d6c 93bd
000001e0: 0ffe 833d 001b 84bb 8d12 a03c 78c4 263d
000001f0: 366b c5bb f6ce 29bd ad7c aebc cd4a 2aba
00000200: b1d3 753d 2250 89bd f784 143d 8f80 87ba
00000210: e185 af3b d3dd 1b3d fcd5 3c3c 7eaf c9bc
00000220: 2ccd ba3c d188 fc3a f8c9 bb37 caf7 b53d
00000230: e980 18bd b313 763c f51a 803c d5a9 813c
00000240: 7fd1 8b3d 5cca 023e 6741 2abd 4a3c 30bb
00000250: 9250 f1bc d8d9 623d 55a9 75ba 9b27 503d
00000260: b39d 453d dd28 d93d 1303 693d 36a4 393d
00000270: 197d a4bd 6267 adba 22ea c9bc 0d85 c4ba
00000280: ebbe 843d 247f f53d 14ba a3bc bc74 66bd
00000290: 8f48 2dbd 8f2e d6bc b830 b9bc f701 75bc
000002a0: b162 34bc e210 a03d 1059 a8b8 5d34 b63c
000002b0: 7a2c e5bd b5e8 083c 1363 0a3d 0bcb 373d
000002c0: 7688 f93a 8180 223d 01f6 34bd 21bc 29bd
000002d0: eeb5 81bd 50ea 46bd 385a e03c 8d4a e83c
000002e0: d6e7 3dbd 6a64 36bd f99e 34bc 5868 2f3c
000002f0: fc0a d43c c64e 563d 258a 2d3c 1685 cbbc
00000300: c364 623c badf eabc 18f1 e6bc 870f 843d
00000310: 85f8 043e 28d7 803d edd0 e7bb 59ce 243d
00000320: 5f12 82bd bfb6 18bc adc6 873c 860b 223d
00000330: db84 143d a104 b23d dc82 89bd de78 20bd
00000340: 89d8 bbbb 7015 89bd 8eae e1bc 771a c6bc
00000350: c910 21bc 15c2 e03d da16 d2bc 5653 47bd
00000360: fb71 cfbb 7bdf c63c ecb4 f1bc 15a8 813c
00000370: 7ebd c5bd 52cd 21be 1e8a 1d3d 2ab9 003c
00000380: ccce a33d e1af 09bd 3fa8 033d 5603 4ebd
00000390: 0f0a cebd 751a c2bd 4bd1 13bd 81fd 78bd
000003a0: 8458 afbc 69cc 2a3d b240 5bbd c861 0e3d
000003b0: 50a5 aabd aad2 923c 9b02 df3c bab3 a6ba
000003c0: 09be 7ebd 5902 cdbc a4a6 003d f69c 89bd
000003d0: da95 783d b328 b13d 15bb 953c 79c3 93bc
000003e0: d663 54bd f85b 8bbd a291 e23c 890f 51bc
000003f0: 66e6 943d 9a1b a6bc a69b 68bd 4e12 8439

fc1.bias f4 [256]
-0.013959408 -0.02046219 0.056658585 -0.0058960095 0.046247166 -0.04557834 0.032636836 0.062398233
-0.073704764 -0.013301803 0.002318858 -0.064384595 -0.051800996 -0.011931787 0.011782737 0.020745842
-0.06473722 -0.017676476 -0.033070516 0.0067706564 -0.020249978 -0.06681987 -0.019850248 0.054428898
-0.07213267 -0.046995573 -0.057171863 0.031311497 -0.01855716 -0.010367212 0.01448172 0.013138229
0.04505483 0.020764396 -0.031582568 0.040465187 0.0013306787 0.042917278 -0.052041903 -0.053381894
-0.0010563225 -0.035827026 0.007942433 -0.06897692 -0.048435777 -0.09808859 -0.031537026 -0.023129709
-0.033550173 0.015160754 -0.014669108 -0.0026737638 0.05609607 0.05543837 -0.034104142 0.052767485
-0.031860203 -5.0726983e-05 -0.014313978 0.035483047 -0.02252175 0.019228976 0.05454471 -0.06790284
-0.017964091 -0.104235165 -0.048053328 -0.014490729 -0.0062868902 -0.05519103 -0.02000284 0.030993924
-0.013044441 0.018345242 -0.026313737 0.017166838 0.03518434 0.018049743 0.039440226 -0.084069856
0.025717095 -0.021408236 0.016491208 0.01997616 0.025274169 0.047605567 0.05784179 0.034856707
-0.046261545 -0.0001654643 0.039343804 -0.029857693 -0.074156485 -0.022215901 0.045386165 -0.030925535
0.027084667 -0.023098962 -0.04371848 -0.060689762 0.07805035 -0.05279676 -0.0821236 0.024161357
-0.009066247 -0.0499096 0.016089346 -0.07270438 0.0018014789 0.0015710084 0.012901082 0.022561632
-0.046046987 -0.0133610135 -0.035752945 0.035152234 -0.0606504 -0.031742144 0.062955 0.051170737
-0.070666455 0.033150323 -0.011814091 0.00369167 -0.025700899 -0.0531548 -0.040221326 -0.014530245
-0.060592346 -0.032984376 -0.058596175 -0.038120363 0.0011978803 0.009184371 0.051841978 -0.018247606
0.03258339 -0.005296126 0.025246542 0.03799372 -0.022152396 0.019303419 0.040631495 0.015835699
0.021627866 0.005647928 -0.042445913 -0.037911527 0.0607372 0.020800043 -0.076116614 0.017640397
0.044008143 0.052337117 -0.065964535 -0.03281453 0.043945417 0.03009666 -0.00012982448 0.04281963
-0.0458502 -0.0063909804 0.011026212 -0.06467694 -0.04924972 -0.02764289 -0.041302595 0.0013464547
0.023205413 -0.021820845 -0.02623607 -0.025164213 0.061501708 -0.03225787 -0.042170294 0.00919927
0.010822636 -0.009952883 0.030078288 -0.06968008 -0.016432427 -0.01933136 -0.0012100273 -0.07738274
-0.04596424 -0.009315921 0.068636894 0.021510601 -0.050693747 0.011938084 -0.022836339 0.02330192
-0.020824673 -0.041981414 0.0029802271 -0.01614858 0.008891796 0.010296472 0.0072186124 -0.07093937
0.038785916 -0.0118329795 0.019861288 -0.025871193 0.017662864 -0.0045763804 0.052495837 -0.03139294
-0.0047972864 -0.082582295 -0.001040854 -0.065785006 0.02590044 -0.018018212 -0.005500914 0.03609141
0.021673428 -0.0120902825 0.020684678 0.03277959 -0.020002045 -0.050440025 0.037978303 -0.0036496671
-0.02466764 -0.07996557 -0.039799117 -0.0048124036 -0.058395833 -0.03398128 -0.031518962 -0.04067665
0.021285981 -0.0087274425 0.036893472 0.027456515 -0.03788532 -0.0090058865 0.014310595 0.044207305
-0.040083982 -0.03469321 0.0075777993 -0.030467747 0.024571752 -0.018499704 -0.048237544 0.016842902
-0.007770188 -0.032099847 0.016541459 -0.038134556 -0.04786666 0.03406046 0.009832966 0.06436488
00000000: 00b6 64bc 53a0 a7bc d512 683d 5033 c1bb
00000010: ab6d 3d3d 5ab0 3abd 34ae 053d 4a95 7f3d
00000020: 86f2 96bd ceef 59bc fbf7 173b 12dc 83bd
00000030: 482d 54bd 8b7d 43bc 620c 413c 2ff3 a93c
00000040: f394 84bd 42ce 90bc f374 07bd 62dc dd3b
00000050: 48e3 a5bc dbd8 88bd fd9c a2bc d6f0 5e3d
00000060: 4bba 93bd 6e7e 40bd 0b2d 6abd 7c40 003d
00000070: 2f05 98bc 3ddb 29bc bc44 6d3c ba41 573c
00000080: 6a8b 383d 181a aa3c b95c 01bd d3be 253d
00000090: 2b6a ae3a 07ca 2f3d e429 55bd f9a6 5abd
000000a0: 4d74 8aba 5cbf 12bd fa20 023c c543 8dbd
000000b0: 9864 46bd ace2 c8bd f82c 01bd 847a bdbc
000000c0: e86b 09bd d064 783c b356 70bc 503a 2fbb
000000d0: fec4 653d 5813 633d c9b0 0bbd b822 583d
000000e0: d87f 02bd afc3 54b8 2d85 6abc ac56 113d
000000f0: 887f b8bc 1686 9d3c 466a 5f3d a510 8bbd
00000100: 6e29 93bc 3f79 d5bd 91d3 44bd 866a 6dbc
00000110: 4202 cebb fd0f 62bd ffdc a3bc f8e6 fd3c
00000120: 5ab8 55bc c348 963c e88f d7bc 78a1 8c3c
00000130: 741d 103d 0edd 933c 138c 213d d12c acbd
00000140: a8ac d23c 5360 afbc 9218 873c 0ba5 a33c
00000150: c60b cf3c 0efe 423d 83eb 6c3d e8c5 0e3d
00000160: bf7c 3dbd 7c80 2db9 f826 213d 1f98 f4bc
00000170: 5bdf 97bd 1ffe b5bc d8e6 393d 8c57 fdbc
00000180: aae0 dd3c 093a bdbc 2612 33bd d495 78bd
00000190: ddd8 9f3d 6a41 58bd 6b30 a8bd 0aee c53c
000001a0: 998a 14bc 026e 4cbd cecd 833c 09e6 94bd
000001b0: 9a1f ec3a 4bea cd3a 0f5f 533c 2cd3 b83c
000001c0: c49b 3cbd 27e8 5abc ae71 12bd cafb 0f3d
000001d0: 8e6c 78bd 0d04 02bd 8dee 803d 6898 513d
000001e0: 93b9 90bd a2c8 073d e48f 41bc f2ef 713b
000001f0: b18a d2bc d9b8 59bd 1ebf 24bd 4410 6ebc
00000200: ae2f 78bd a01a 07bd 8b02 70bd 1924 1cbd
00000210: 3102 9d3a 0b7a 163c 4158 543d 017c 95bc
00000220: 2976 053d 208b adbb d6d1 ce3c 4e9f 1b3d
00000230: f178 b5bc 3422 9e3c 366d 263d deb9 813c
00000240: ec2c b13c 4112 b93b c4db 2dbd 1e49 1bbd
00000250: 92c7 783d da64 aa3c 07e3 9bbd 9882 903c
00000260: e241 343d 725f 563d 6a18 87bd 8768 06bd
00000270: 1c00 343d 458d f63c 7e21 08b9 a363 2f3d
00000280: 6bcd 3bbd 6e6b d1bb 49a7 343c 5875 84bd
00000290: 13ba 49bd 5873 e2bc e92c 29bd 867b b03a
000002a0: 4719 be3c a1c1 b2bc 07ed d6bc 2e25 cebc
000002b0: 37e9 7b3d d420 04bd c2ba 2cbd 89b8 163c
000002c0: 6d51 313c 6b11 23bc be66 f63c 6eb4 8ebd
000002d0: 4c9d 86bc cd5c 9ebc c799 9eba d87a 9ebd
000002e0: 0045 3cbd cea1 18bc 8091 8c3d 0037 b03c
000002f0: 3fa4 4fbd f497 433c 4613 bbbc abe3 be3c
00000300: 8198 aabc b4f4 2bbd ea4f 433b 074a 84bc
00000310: e5ae 113c 89b2 283c 1c8a ec3b a948 91bd
00000320: fbdd 1e3d 1ddf 41bc 24b4 a23c d3ef d3bc
00000330: b6b1 903c 76f5 95bb e005 573d e295 00bd
00000340: 8e32 9dbb e820 a9bd 446d 88ba 4aba 86bd
00000350: 292d d43c ee9a 93bc 0341 b4bb 96d4 133d
00000360: 798c b13c 5216 46bc ea72 a93c e443 063d
00000370: 54db a3bc 339a 4ebd 238f 1b3d 412f 6fbb
00000380: ca13 cabc fdc4 a3bd 6604 23bd 5eb1 9dbb
00000390: 7830 6fbd f42f 0bbd 071a 01bd 8f9c 26bd
000003a0: f05f ae3c 8cfd 0ebc 9c1d 173d 7cec e03c
000003b0: a32d 1bbd 6d8d 13bc fc76 6a3c b812 353d
000003c0: 1a2f 24bd 781a 0ebd 304f f83b 7f97 f9bc
000003d0: b34a c93c b18c 97bc bb94 45bd 20fa 893c
000003e0: 109d febb 217b 03bd f481 873c fb32 1cbd
000003f0: d50f 44bd fb82 0b3d 731a 213c bcd1 833d

fc2.weight f4 [128, 258]
0.060480785 -0.028077334 0.010093516 0.039939694 -0.02362744 0.009646272 -0.035235327 0.08980091
-0.03909242 0.024293851 -0.09833627 0.021798939 -0.014916121 0.053548846 0.040190704 -0.12919804
0.03619321 -0.08945363 -0.0090138335 0.029668301 -0.046750758 0.07358516 0.06078038 -0.07507537
0.08655878 0.084928535 0.05300098 0.07574036 -0.0900559 -0.023025759 0.017098907 0.07748144
-0.00899244 0.044584144 0.06810718 0.008766606 -0.09393774 0.04642139 0.042416494 0.079313084
-0.04577348 0.013709647 -0.040447656 -0.047995877 -0.06961508 0.079840034 -0.07189204 0.065583706
0.011741381 -0.033774268 -0.090516634 -0.066394486 -0.054937005 -0.015501434 -0.069684274 0.037147053
0.072711885 0.053589627 -0.05998158 -0.007849014 -0.01161818 -0.012898796 -0.077625796 0.03386614
-0.019959657 -0.0028099373 0.021713844 0.09304068 0.047444712 -0.07712801 0.03117962 -0.028720386
-0.055214126 -0.035561286 0.09486889 -0.13756403 -0.05255816 0.011902465 0.025975512 -0.061028697
0.032136135 -0.080152534 0.0011888756 0.0011343098 -0.047086652 0.048541002 0.038227655 -0.044762548
0.046836898 0.027624259 0.06142568 -0.48413798 -0.04811189 0.023215422 -0.0019303844 -0.098850116
-0.043770656 0.029331919 0.02149401 -0.14162126 -0.13780732 -0.0657988 0.0010072257 0.06880801
0.09224729 0.06594985 -0.058637604 -0.10391083 -0.03834094 -0.017760899 0.06894368 0.0046768156
0.065564305 -0.076803274 -0.054286003 -0.09971302 -0.08068693 -0.0052350643 0.037289668 0.07666453
0.06313931 0.049913477 -0.082819864 0.04457447 0.06929267 -0.05703378 0.02186887 -0.0672988
-0.06760278 -0.025184544 0.00820872 -0.041988373 0.04002214 -0.026192896 -0.27508017 -0.0077809556
-0.083217055 -0.16715819 -0.032619603 -0.014002847 0.03709778 0.042550698 -0.01240032 0.08852717
0.02497004 -0.5390264 -0.01652774 0.007883011 0.026124721 0.080717444 -0.055700403 0.005411329
0.05412853 -0.39102703 -0.0339775 0.060052745 0.028250467 -0.06076438 0.057229817 -0.07638086
-0.051565677 -0.027679723 -0.025579588 -0.05662804 0.028278515 -0.07693371 -0.11061026 0.011371766
0.046650965 0.047136445 0.05098031 -0.042659212 -0.07626913 -0.040793955 0.044954643 0.06141099
-0.09202304 -0.07055912 0.08817208 0.03204275 -0.035386536 -0.0017449316 -0.06009684 -0.00804783
0.035961516 -0.060822934 0.07608008 -0.14370309 -0.014959984 -0.08406502 0.031588394 -0.03469356
-0.018619346 0.008399199 0.07830667 -0.0072042644 0.038620844 -0.039223313 -0.03557557 -0.057831883
0.05998038 -0.00466224 -0.06725097 -0.06309346 0.044158377 0.024284864 -0.023036202 0.02862349
0.008213703 0.022337908 -0.07628462 -0.024506727 -0.019489605 0.009840315 0.009163534 0.008480259
0.05765508 -0.46079406 -0.013120046 -0.0152098145 -0.09344633 0.047708876 0.0038557479 0.023076143
0.018259808 -0.008241178 -0.087769344 -0.058095876 0.047128875 -0.0539507 0.07294196 0.056007247
0.008979257 0.05386959 -0.027062524 -0.0067248144 0.0137056215 -0.1407421 0.061813354 -0.04891859
-0.013338835 0.053247657 -0.04499058 -0.019489635 -0.008925322 0.05986913 -0.011044447 0.0755232
0.0408427 -0.010558098 0.022255313 0.016276097 -0.08390237 -0.058741633 0.01903259 0.051727068
00000000: b3ba 773d 7002 e6bc 465f 253c ce97 233d
00000010: 558e c1bc 660b 1e3c eb52 10bd 8ae9 b73d
00000020: 601f 20bd e603 c73c 8764 c9bd b093 b23c
00000030: bf62 74bc 0956 5b3d 029f 243d 7e4c 04be
00000040: 553f 143d 7733 b7bd c2ae 13bc f00a f33c
00000050: b97d 3fbd d1b3 963d d9f4 783d 1ec1 99bd
00000060: bb45 b13d 03ef ad3d 8e17 593d c31d 9b3d
00000070: 3a6f b8bd 84a0 bcbc 0213 8c3c 97ae 9e3d
00000080: 0755 13bc dd9d 363d c77b 8b3d d0a1 0f3c
00000090: 6e62 c0bd 5b24 3e3d ebbc 2d3d e66e a23d
000000a0: f97c 3bbd 6d9e 603c 71ac 25bd 5397 44bd
000000b0: 5a92 8ebd 2c83 a33d 223c 93bd c050 863d
000000c0: ec5e 403c e356 0abd c960 b9bd d5f9 87bd
000000d0: a005 61bd baf9 7dbc a1b6 8ebd 8227 183d
000000e0: f8e9 943d cc80 5b3d 3faf 75bd 2799 00bc
000000f0: 2e5a 3ebc 7955 53bc 46fa 9ebd 39b7 0a3d
00000100: 6f82 a3bc ed26 38bb 3be1 b13c 1d8c be3d
00000110: 6355 423d 4af5 9dbd 676c ff3c 0447 ebbc
00000120: 3528 62bd b6a8 11bd 9f4a c23d 96dd 0cbe
00000130: 3a47 57bd 8e02 433c 99ca d43c 3af9 79bd
00000140: 2ea1 033d 0327 a4bd 0cd4 9b3a 1fad 943a
00000150: efdd 40bd eed2 463d 9a94 1c3d ef58 37bd
00000160: 0cd8 3f3d 454c e23c 7e99 7b3d efe0 f7be
00000170: f910 45bd 452e be3c f404 fdba ee71 cabd
00000180: dc48 33bd 7e49 f03c 3514 b03c 2a05 11be
00000190: 5d1d 0dbe 85c1 86bd e304 843a 37eb 8c3d
000001a0: 26ec bc3d b710 873d fc2d 70bd 34cf d4bd
000001b0: 640b 1dbd 4e7f 91bc 5832 8d3d f93f 993b
000001c0: 9446 863d 094b 9dbd 005b 5ebd 5736 ccbd
000001d0: 303f a5bd e78a abbb 0dbd 183d 4b02 9d3d
000001e0: 2f4f 813d 1372 4c3d 769d a9bd b893 363d
000001f0: 51e9 8d3d 419c 69bd 5826 b33c f4d3 89bd
00000200: 5473 8abd d14f cebc de7d 063c 00fc 2bbd
00000210: 41ee 233d 7c92 d6bc 4fd7 8cbe 63f7 febb
00000220: b46d aabd 842b 2bbe 229c 05bd 326c 65bc
00000230: d7f3 173d a449 2e3d b62a 4bbc bc4d b53d
00000240: f88d cc3c a2fd 09bf 2f65 87bc bf27 013c
00000250: 8303 d63c 304f a53d 1b26 64bd 8551 b13b
00000260: e1b5 5d3d b234 c8be fe2b 0bbd def9 753d
00000270: 866d e73c 12e4 78bd d069 6a3d 916d 9cbd
00000280: 8836 53bd 96c0 e2bc 498c d1bc cef2 67bd
00000290: 58a8 e73c 6c8f 9dbd a287 e2bd a550 3a3c
000002a0: 1515 3f3d 2512 413d bbd0 503d 6dbb 2ebd
000002b0: fd32 9cbd 9017 27bd 5c22 383d 178a 7b3d
000002c0: 9376 bcbd 4d81 90bd 9093 b43d 423f 033d
000002d0: 79f1 10bd 30b6 e4ba 1b28 76bd 0cdb 03bc
000002e0: 624c 133d 7821 79bd dfcf 9b3d e726 13be
000002f0: b91a 75bc 482a acbd d562 013d d61a 0ebd
00000300: 9987 98bc cb9c 093c 3f5f a03d c011 ecbb
00000310: e430 1e3d a0a8 20bd b0b7 11bd 20e1 6cbd
00000320: fdad 753d b4c5 98bb e0ba 89bd 2537 81bd
00000330: 6adf 343d 0df1 c63c 6bb6 bcbc cf7b ea3c
00000340: c492 063c fdfd b63c 1c3b 9cbd 55c2 c8bc
00000350: aaa8 9fbc 4639 213c a622 163c c9f0 0a3c
00000360: bc27 6c3d 33ed ebbe 76f5 56bc 9632 79bc
00000370: ca60 bfbd 626a 433d b7b0 7c3b 2e0a bd3c
00000380: 9895 953c 0106 07bc 6ac0 b3bd f1f5 6dbd
00000390: 350a 413d 69fb 5cbd 9862 953d db67 653d
000003a0: bc1d 133c 5ca6 5c3d 3ab2 ddbc d55b dcbb
000003b0: 8b8d 603c b21e 10be 0030 7d3d dc5e 48bd
000003c0: 218b 5abc 371a 5a3d 0b48 38bd baa8 9fbc
000003d0: 843b 12bc 5539 753d c5f3 34bc e8ab 9a3d
000003e0: ad4a 273d dffb 2cbc c650 b63c 7355 853c
000003f0: 01d5 abbd 119b 70bd 3cea 9b3c c3df 533d

fc2.bias f4 [128]
0.023795078 -0.016834082 0.06756915 -0.0064103003 0.052697886 0.07320669 0.020273251 -0.033222053
0.029938424 -0.029803736 -0.024193319 -0.07663958 0.030542837 -0.024998808 0.012799042 0.013934327
-0.030714734 0.0014715563 0.070303194 -0.026398024 0.06424666 -0.082642935 0.06319106 -0.061288323
-0.07276674 -0.07603237 0.029490879 -0.07099466 -0.038934506 -0.0766462 -0.03552353 0.058630265
0.07652321 0.03817835 0.033131715 -0.07774184 0.036644626 0.05167637 -0.05551618 -0.052437987
0.040830325 -0.050975636 -0.021413444 -0.0033004961 0.08530447 0.059370473 0.05343452 -0.023063235
-0.082199015 -0.0006815515 0.019921582 -0.058245424 -0.0056193033 0.027702495 -0.06933036 0.06572524
0.031204317 -0.036939092 -0.03499912 0.022193821 -0.07739539 0.03639014 -0.07540298 -0.083038725
0.03492998 0.040974393 0.05340551 0.008301548 -0.051309425 -0.10281628 0.06155001 -0.031310517
0.06449823 0.013060044 -0.04379983 -0.053584803 -0.006071158 0.05618955 -0.04796386 0.05656223
-0.039141957 -0.058148023 0.058722496 0.021373563 -0.014516335 0.047776215 0.052749798 0.0250668
0.08058179 0.08782568 -0.06677156 -0.101007394 0.07062131 -0.08192424 -0.031920154 -0.04012162
-0.049153354 -0.024282625 -0.070220485 0.021012586 0.027652021 0.012635369 0.050326988 -0.10402559
0.05182307 -0.04522637 -0.0003238244 -0.020553917 0.00013193091 -0.022411797 -0.06392049 -0.00951805
0.04285051 0.038954705 -0.04174549 0.010386522 -0.08577088 0.015030296 -0.06110858 0.034449533
-0.0102778645 0.014855613 0.011583703 0.07674464 -0.079275824 0.03304419 -0.062245823 0.015382916
00000000: e5ed c23c a1e7 89bc b261 8a3d 7f0d d2bb
00000010: bdd9 573d 64ed 953d 1714 a63c d913 08bd
00000020: 6d41 f53c f726 f4bc 1131 c6bc 36f5 9cbd
00000030: f934 fa3c 4dca ccbc 13b3 513c ce4c 643c
00000040: 779d fbbc 3ce1 c03a 1ffb 8f3d ab40 d8bc
00000050: c193 833d b340 a9bd 516a 813d 7709 7bbd
00000060: bb06 95bd dcb6 9bbd db96 f13c a665 91bd
00000070: ca79 1fbd aff8 9cbd 1f81 11bd 4a26 703d
00000080: 33b8 9c3d e760 1c3d 1fb5 073d 1d37 9fbd
00000090: ad18 163d 9aaa 533d ef64 63bd 37c9 56bd
000000a0: b33d 273d d4cb 50bd 3f6b afbc 234d 58bb
000000b0: 1cb4 ae3d 742e 733d 28de 5a3d 1cef bcbc
000000c0: f557 a8bd 26aa 32ba 9632 a33c c192 6ebd
000000d0: 2222 b8bb 58f0 e23c 13fd 8dbd f49a 863d
000000e0: 32a0 ff3c 724d 17bd 3d5b 0fbd d1cf b53c
000000f0: 7981 9ebd d40d 153d e16c 9abd 3510 aabd
00000100: bd12 0f3d c4d4 273d bcbf 5a3d 3703 083c
00000110: d529 52bd 5891 d2bd dd1b 7c3d 753f 00bd
00000120: a617 843d cbf9 553c 7367 33bd bd7b 5bbd
00000130: 91f0 c6bb 0327 663d c175 44bd ccad 673d
00000140: 5153 20bd 9f2c 6ebd 0087 703d 9c17 af3c
00000150: ecd5 6dbc feb0 433d 2c10 583d e458 cd3c
00000160: 1108 a53d f3dd b33d 87bf 88bd f7dc cebd
00000170: e8a1 903d e5c7 a7bd b5be 02bd 9156 24bd
00000180: 0755 49bd 5bec c6bc c2cf 8fbd 9622 ac3c
00000190: 7e86 e23c 9404 4f3c ac23 4e3d 5e0b d5bd
000001a0: 6d44 543d 493f 39bd fac6 a9b9 b060 a8bc
000001b0: ef56 0a39 f298 b7bc bfe8 82bd 98f1 1bbc
000001c0: 0484 2f3d f88e 1f3d 52fd 2abd 3b2c 2a3c
000001d0: a5a8 afbd a141 763c fe4c 7abd f41a 0d3d
000001e0: 7d64 28bc f564 733c 92c9 3d3c 4b2c 9d3d
000001f0: 5d5b a2bd 5859 073d 7af5 7ebd a008 7c3c

fc3.weight f4 [1, 128]
0.043175966 0.006145603 -0.027403234 0.035934333 0.0634083 0.018031338 0.01772317 -0.018319605
-0.013258767 0.06884318 0.011175863 0.015330455 0.026757913 -0.0358307 -0.006720792 0.024369529
0.027554236 -0.04100498 -0.048268717 -0.014100197 0.017718932 -0.014053356 -0.01025349 -0.003103866
-0.02579249 0.04312776 -0.011333282 0.043743856 -0.0315748 -0.028206224 0.016536776 -0.081480056
0.03743425 0.104775496 -0.02757535 0.007421015 0.028860455 -0.021425443 0.04170834 -0.019977352
-0.04908558 -0.00027679052 -0.025117707 0.0039556143 0.028948223 0.03318638 -0.1030151 -0.013024537
0.027176911 0.029387325 0.014881217 -0.015324242 -0.03361286 -0.08940624 0.024110094 0.009251643
0.033722002 -0.02366491 0.0005541029 0.023497952 0.1000457 0.041446295 -0.020068271 0.019811518
0.084991775 -0.023865579 -0.006838506 0.0062135337 -0.053083353 -0.014224134 -0.01568564 -0.048602954
-0.0068917833 0.06574447 -0.060987268 -0.010953555 -0.025224788 -0.012686504 0.026130864 0.061774578
0.02150482 0.057110723 -0.020179091 -0.023203524 0.026598888 -0.01359305 0.037290744 -0.018745985
0.048230853 0.06270197 0.06229312 -0.070296384 0.025877772 0.016720716 -0.044722248 0.046128754
-0.011719726 0.06706519 -0.015370878 -0.044187628 0.005094038 -0.03443455 -0.004423137 -0.0587206
0.062098186 0.044594046 -0.013936363 -0.00013786844 -0.022855582 0.023553101 -0.0135110775 0.0017264507
0.02891776 -0.015758999 -0.012787122 0.044199795 0.0412224 -0.03528657 -0.011431395 0.03026068
-0.06228889 0.016904753 0.02143561 0.030793265 0.023381133 -0.03589944 -0.03112764 -0.03130001
00000000: 48d9 303d 0e61 c93b bf7c e0bc e12f 133d
00000010: 36dc 813d 75b6 933c 2e30 913c ff12 96bc
00000020: 4d3b 59bc a7fd 8c3d f81a 373c 972c 7b3c
00000030: 6933 db3c 36c3 12bd 173a dcbb 9ba2 c73c
00000040: 6cb9 e13c d7f4 27bd 6bb5 45bd 8304 67bc
00000050: 4b27 913c 0c40 66bc 41fe 27bc 3b6a 4bbb
00000060: c64a d3bc bca6 303d 3baf 39bc c22c 333d
00000070: 9454 01bd bd10 e7bc 2278 873c 04df a6bd
00000080: a854 193d 8994 d63d b3e5 e1bc fc2b f33b
00000090: c36c ec3c 6984 afbc 5dd6 2a3d 8ba7 a3bc
000000a0: f60d 49bd 321e 91b9 a6c3 cdbc 199e 813b
000000b0: d324 ed3c 71ee 073d 95f9 d2bd de64 55bc
000000c0: 1da2 de3c b0bd f03c 59d0 733c 8812 7bbc
000000d0: a3ad 09bd 9e1a b7bd 8882 c53c 3494 173c
000000e0: 1520 0a3d eadc c1bc 3741 113a c77e c03c
000000f0: c3e4 cc3d 97c3 293d 3766 a4bc c44b a23c
00000100: 2b10 ae3d bf81 c3bc 8c15 e0bb e69a cb3b
00000110: ee6d 59bd 580c 69bc 2c7f 80bc e413 47bd
00000120: 78d4 e1bb 09a5 863d c9cd 79bd 8a76 33bc
00000130: 37a4 cebc 0edb 4fbc 6510 d63c 5707 7d3d
00000140: e02a b03c efec 693d 9f4e a5bc 5115 bebc
00000150: e9e5 d93c 62b5 5ebc 2ebe 183d 2e91 99bc
00000160: b78d 453d e469 803d 1227 7f3d 8df7 8fbd
00000170: 9ffd d33c e2f9 883c ad2e 37bd 81f1 3c3d
00000180: 1804 40bc 7959 893d 23d6 7bbc 16fe 34bd
00000190: e3eb a63b 3e0b 0dbd f6ef 90bb 0385 70bd
000001a0: ab5a 7e3d 3fa8 363d 5855 64bc c790 10b9
000001b0: a13b bbbc 6ff2 c03c 915d 5dbc 134a e23a
000001c0: f0e4 ec3c 0419 81bc 1481 51bc d80a 353d
000001d0: d2d8 283d a788 10bd bf4a 3bbc 3fe5 f73c
000001e0: a322 7fbd d67b 8a3c bb99 af3c 2842 fc3c
000001f0: ca89 bf3c 4b0b 13bd 64ff febc 7034 00bd
