checkpoint_critic1.pth (torch, 161055 bytes, 5 tensors)

fc1.weight f4 [256, 24]
-0.016857086 -0.009624132 0.054753654 -0.019336177 -0.12474277 -0.11392068 0.0069850804 0.048258685
-0.027063198 0.038047403 -0.05791633 0.06117834 0.056532577 -0.036341544 0.041923158 0.06941934
0.0022605488 -0.033345386 0.049403563 0.052193742 0.050322954 0.120780215 -0.045932464 0.0796407
0.08690671 0.044203945 0.009807073 -0.0011077389 -0.029997485 -0.18962432 0.054485817 -0.02235171
0.032164983 0.0022212528 -0.0017942042 0.0010428943 0.074060746 0.0032003017 -0.03783928 -0.0010106427
0.043020133 -0.009473553 -0.031068347 -0.074382804 0.17237732 0.09010601 0.01134828 -0.0464714
0.0013187826 -0.07388318 0.019249804 -0.07699349 -0.049275838 -0.052384846 0.040555317 -0.06358217
-0.019216659 -0.044738382 -0.015708784 -0.06685775 0.024455791 -0.087431565 -0.0013619079 0.009689068
0.013212226 -0.105280906 0.026854755 0.02655287 0.06426749 0.0303845 -0.032400176 0.029006902
0.014378352 0.005991697 0.002226722 0.011503324 -0.07398091 0.023323024 0.013308923 0.031717453
-0.0211307 0.048601035 -0.000790027 0.054561395 -0.010250885 -0.028472135 0.06317433 -0.023121018
-0.06771808 0.018596794 0.02797125 -0.009596849 0.084748395 -0.060378008 0.043001585 -0.017771596
0.06028362 -0.08901986 -0.0035362926 0.050490655 0.041289516 0.0642482 0.05715899 0.0052224584
-0.0533265 -0.012508713 -0.016115798 -0.035533205 0.059754457 0.010172076 -0.037931327 0.061419327
0.034546986 -0.06320964 0.018744465 0.014278993 -0.073845014 -0.17256409 0.060106706 -0.028099263
0.06959262 0.0736718 -0.0032304914 -0.00965726 0.082555026 0.096687175 -0.044070397 -0.051020876
0.035743173 -0.06146417 0.034060642 -0.05024791 0.008245052 0.102827534 0.009326437 -0.07383358
0.0010562004 -0.0036514322 -0.016213264 -0.055210903 -0.029450437 0.036357746 -0.00059788645 -0.12823322
0.07270801 0.068217956 -0.057912968 0.01502718 0.0203703 0.018092375 -0.017283332 0.06853467
0.025550734 0.025202813 0.0618941 0.09330841 -0.02003522 -0.10480353 -0.019640666 0.046486817
0.045020998 0.07159443 -0.01881033 -0.0038906394 -0.016702022 -0.18166813 -0.021430405 0.037419472
-0.0007740442 0.012847913 -0.010169403 0.013480994 0.025705608 0.050837696 0.023696994 0.036110766
0.013002812 0.009383289 -0.05590135 -0.027732681 -0.011552219 -0.06638549 0.015665453 0.042062584
-0.028082794 -0.06629553 -0.008898348 -0.017650744 -0.09270416 0.02220819 0.012718022 -0.053200472
0.056436367 0.08415399 -0.04691601 0.013020142 0.011908484 -0.021219447 -0.025799805 -0.011226843
-0.028017031 0.071259804 0.030807264 0.0411961 -0.015550506 0.060165405 -0.05291125 -0.03754346
0.0033538777 -0.024111161 -0.013374058 0.075980626 0.031826176 0.108990744 -0.011470784 0.051500425
-0.040898964 0.024685292 0.002625567 0.007948773 -0.10572363 -0.09800915 0.07059347 -2.1810536e-05
0.074888185 -0.009490398 0.049805775 0.0037768495 -0.08205065 -0.07133982 -0.018425558 -0.0067161075
-0.017545706 0.06165055 -0.03818373 0.055046268 -0.012582916 0.08869096 0.042567756 0.01901306
-0.06553327 0.045394417 0.021943104 -0.09447342 -0.022018345 0.008294117 0.0088114245 -0.045317616
-0.054238517 0.0027512338 0.038475536 0.017566448 0.042699866 -0.1848025 -0.04597018 0.030578429
00000000: df17 8abc 89ae 1dbc 5e45 603d e766 9ebc
00000010: 2379 ffbd 3f4f e9bd 1ae3 e43b e6aa 453d
00000020: a4b3 ddbc 98d7 1b3d ac39 6dbd 2496 7a3d
00000030: b48e 673d dfda 14bd 9eb7 2b3d ba2b 8e3d
00000040: b725 143b 2c95 08bd 645b 4a3d 1bc9 553d
00000050: 711f 4e3d 9e5b f73d ae23 3cbd aa1a a33d
00000060: 25fc b13d 320f 353d d8ad 203c 8d31 91ba
00000070: 49bd f5bc e12c 42be 852c 5f3d ef1a b7bc
00000080: 6ebf 033d 7092 113b 812b ebba bab1 883a
00000090: 29ad 973d 27bc 513b 5cfd 1abd 8b77 84ba
000000a0: e135 303d f636 1bbc 0c83 febc 0356 98bd
000000b0: ae83 303e 8089 b83d 23ee 393c cb58 3ebd
000000c0: 00db ac3a 1150 97bd c4b1 9d3c c3ae 9dbd
000000d0: 76d5 49bd 7e91 56bd 551d 263d 5e37 82bd
000000e0: 416c 9dbc 983f 37bd b5af 80bc b7ec 88bd
000000f0: 8357 c83c 520f b3bd 0c82 b2ba e6be 1e3c
00000100: 1878 583c 849d d7bd 81fe db3c 6885 d93c
00000110: ac9e 833d eae8 f83c 0cb6 04bd e29f ed3c
00000120: 2e93 6b3c ff55 c43b 32ee 113b 7078 3c3c
00000130: 4e83 97bd ed0f bf3c ab0d 5a3c 29ea 013d
00000140: 4a1a adbc e111 473d d119 4fba c57b 5f3d
00000150: 54f3 27bc 653e e9bc 8b61 813d 4a68 bdbc
00000160: c7af 8abd 4e58 983c f623 e53c 1a3c 1dbc
00000170: 9190 ad3d ee4e 77bd 6e22 303d bd95 91bc
00000180: f5eb 763d 0b50 b6bd 25c1 67bb 4acf 4e3d
00000190: 321f 293d 8f94 833d 8c1f 6a3d 2821 ab3b
000001a0: e36c 5abd 58f1 4cbc 4705 84bc 448b 11bd
000001b0: 17c1 743d c7a8 263c e15d 1bbd d592 7b3d
000001c0: 2481 0d3d 0e74 81bd fe8d 993c 70f2 693c
000001d0: 0e3c 97bd a4b4 30be 7332 763d 6d30 e6bc
000001e0: 9386 8e3d 3ee1 963d a7b6 53bb 7c39 1ebc
000001f0: 9c12 a93d ed03 c63d 2983 34bd 44fb 50bd
00000200: 6f67 123d dbc1 7bbd 2c83 0b3d c1d0 4dbd
00000210: 4116 073c 3e97 d23d e9cd 183c 0f36 97bd
00000220: 3470 8a3a de4c 6fbb aed1 84bc d424 62bd
00000230: 0b42 f1bc dceb 143d 7bbb 1cba 924f 03be
00000240: f0e7 943d dbb5 8b3d 2636 6dbd 9034 763c
00000250: 9edf a63c 7636 943c c695 8dbc e85b 8c3d
00000260: c64f d13c 2176 ce3c ab84 7d3d 7b18 bf3d
00000270: e720 a4bc 3ca3 d6bd 76e5 a0bc f668 3e3d
00000280: f067 383d 1aa0 923d 1f18 9abc 19fa 7ebb
00000290: aed2 88bc 3607 3abe d18e afbc 2945 193d
000002a0: 3ae9 4aba 0e80 523c 919d 26bc 63df 5c3c
000002b0: 9194 d23c 303b 503d 3320 c23c e2e8 133d
000002c0: bf09 553c 5ebc 193c d0f8 64bd a62f e3bc
000002d0: 8545 3dbc 1ef5 87bd d654 803c d149 2c3d
000002e0: e30d e6bc f3c5 87bd 60ca 11bc 4b98 90bc
000002f0: aedb bdbd f3ed b53c 405f 503c bde8 59bd
00000300: d229 673d ed58 ac3d 012b 40bd 6f52 553c
00000310: cd1b 433c 68d4 adbc 1d5a d3bc cbf0 37bc
00000320: f983 e5bc a9f0 913d 845f fc3c 3ebd 283d
00000330: 8dc7 7ebc 0070 763d 78b9 58bd 2cc7 19bd
00000340: bbcc 5b3b c584 c5bc dd1e 5bbc bb9b 9b3d
00000350: 2a5c 023d 8a36 df3d f5ef 3bbc 1cf2 523d
00000360: ac85 27bd cf38 ca3c b411 2c3b 923b 023c
00000370: a185 d8bd 05b9 c8bd 4f93 903d c5f5 b6b7
00000380: fa5e 993d 9d7d 1bbc 2401 4c3d 0585 773b
00000390: 2c0a a8bd 9d1a 92bd 32f1 96bc cb12 dcbb
000003a0: 03bc 8fbc 4a85 7c3d 8b66 1cbd 3278 613d
000003b0: 9328 4ebc 9ba3 b53d 875b 2e3d 47c1 9b3c
000003c0: 4f36 86bd 7fef 393d 06c2 b33c 487b c1bd
000003d0: d15f b4bc 0ce4 073c cb5d 103c f79e 39bd
000003e0: 3529 5ebd 0b4e 343b 8698 1d3d 83e7 8f3c
000003f0: 0ee6 2e3d de3c 3dbe 3a4b 3cbd 9d7f fa3c

fc1.bias f4 [256]
-0.027451925 0.02033283 0.08613404 0.0045888973 0.03456553 -0.02759667 0.05918092 0.033246607
-0.066724315 -0.0003369289 0.02808401 -0.07589664 -0.006659946 -0.004151341 0.0032082587 0.04381414
-0.05344669 -0.050642636 -0.040379386 -0.067166224 -0.0031448265 -0.106929004 0.021918368 0.013071845
-0.06622804 -0.06963207 -0.11881338 0.04750519 -0.038473975 -0.038148426 -0.015425906 0.0449724
0.018566964 0.016314674 -0.059848808 0.05078549 -0.027449224 0.0049881674 -0.07627763 -0.032219976
0.018386036 -0.025059752 -0.013974391 -0.066712506 -0.05420596 -0.10555406 -0.052834075 -0.043238454
-0.027929367 0.0049183723 -0.008779237 0.0072320662 0.019586181 0.010086252 -0.08522311 0.036173705
-0.040574815 -0.014734275 0.0036441376 0.035912532 -0.01371452 0.026249534 0.039037503 -0.09544242
-0.045225285 -0.1103912 -0.06980682 -0.025270035 -0.00982736 -0.08025051 -0.037351444 -0.054294717
-0.016140023 0.0030422504 -0.06005482 0.0068685533 0.0358288 0.0526948 0.0020950346 -0.14183362
0.059440233 -0.0013559749 0.06340197 -0.034891594 -0.011035093 0.08232422 0.03827207 0.046129975
-0.01996236 -0.051014476 0.027259992 -0.074862875 -0.06904503 -0.030693576 0.08110255 -0.05062712
0.08185189 -0.04149907 -0.017823586 -0.09515512 0.10846889 -0.09218885 -0.022928113 -0.024329018
-0.040045787 -0.024405863 -0.022418585 -0.08014132 -0.010077385 0.0134123415 0.0704865 0.025746435
-0.10004747 0.008775092 -0.046409488 0.057038397 -0.08609625 0.0069841975 0.050290536 0.04381151
-0.080483325 0.029724363 -0.0744321 0.026565773 -0.02726906 -0.06704014 -0.0456617 -0.011532305
-0.021334713 -0.04591279 -0.06412604 -0.0641146 0.02120062 -0.018024385 0.041894667 -0.065461
0.08618534 -0.036210414 0.01463165 0.04504559 -0.033825204 -0.034648802 0.08634843 0.03690238
0.01580451 -0.0868625 -0.025062328 -0.03756454 -0.01272375 0.033464324 -0.008104212 0.029518588
0.006549213 0.03252883 -0.048754748 -0.11134599 -0.01647559 0.061705656 -0.05124649 0.091603056
-0.016169721 0.023872918 0.026685596 -0.021731475 -0.033068538 -0.0028241521 -0.04677718 -0.007880288
0.024518477 -0.021111095 -0.01605663 -0.011286242 0.047630332 0.00022089647 -0.032859266 0.009021787
0.027654909 -0.030798333 -0.045024958 -0.020744784 0.007266745 -0.059619915 0.019515255 -0.037801918
-0.024330033 -0.0022401267 0.04855092 0.014575924 -0.062060393 -0.0074536675 -0.012836993 0.009528404
-0.041573204 -0.029010477 0.03185976 -0.02563969 0.0025323706 0.052767944 0.05059555 -0.02091858
0.071999356 -0.023779891 0.016941713 -0.03270973 0.0173812 -0.041952632 0.03894914 -0.0026275243
-0.057834 -0.021181677 0.015690804 -0.028271046 0.021870106 -0.054028075 -0.073304646 0.047189895
0.0065249708 -0.052990295 0.014294111 0.025389913 -0.0042272564 -0.0018055519 0.11764184 -0.024414869
-0.010173804 -0.052695032 -0.03358113 -0.005710244 -0.043768074 -0.053952828 -0.043932162 -0.05367429
0.0388805 -0.017810656 0.03714612 0.034721486 -0.073832065 0.037421096 0.0061606322 0.010345982
0.024181357 -0.097389385 0.00030639823 0.014719973 0.0635137 0.013219827 -0.034580845 -0.022119036
0.020187253 -0.06848497 0.06242238 -0.063253194 -0.09334224 0.10531607 0.0023529204 0.04050313
00000000: dce2 e0bc 0991 a63c 0b67 b03d 765e 963b
00000010: 9694 0d3d 6912 e2bc b167 723d 982d 083d
00000020: c2a6 88bd d5a5 b0b9 7010 e63c b36f 9bbd
00000030: ad3b dabb f907 88bb a641 523b 7576 333d
00000040: ebea 5abd a76e 4fbd db64 25bd 728e 89bd
00000050: 6f19 4ebb 98fd dabd 268e b33c 4b2b 563c
00000060: 91a2 87bd 429b 8ebd 6e54 f3bd cd94 423d
00000070: e396 1dbd 8641 1cbd f0bc 7cbc fb34 383d
00000080: bf19 983c 5aa6 853c 0624 75bd 7204 503d
00000090: 32dd e0bc c873 a33b 7237 9cbd 18f9 03bd
000000a0: 509e 963c 1c4a cdbc d8f4 64bc 91a0 88bd
000000b0: 1207 5ebd ba2c d8bd 8b68 58bd ce1a 31bd
000000c0: 21cc e4bc 4c2a a13b cad6 0fbc f8fa ec3b
000000d0: 3373 a03c cf40 253c 7489 aebd e12a 143d
000000e0: c731 26bd 0768 71bc 7cd2 6e3b 0519 133d
000000f0: deb2 60bc 4309 d73c cae5 1f3d 5177 c3bd
00000100: 263e 39bd c814 e2bd e1f6 8ebd 1b03 cfbc
00000110: ef02 21bc 615a a4bd d4fd 18bd 2364 5ebd
00000120: 1538 84bc 7e60 473b 0bfc 75bd 9a11 e13b
00000130: 38c1 123d 81d6 573d d94c 093b d53c 11be
00000140: 9a77 733d f8ba b1ba e4d8 813d 7dea 0ebd
00000150: 89cc 34bc 9a99 a83d 2dc3 1c3d c9f2 3c3d
00000160: 1a88 a3bc 8ef4 50bd 5950 df3c b551 99bd
00000170: 7b67 8dbd 1871 fbbc 1819 a63d 625e 4fbd
00000180: f7a1 a73d eefa 29bd c502 92bc b0e0 c2bd
00000190: f024 de3d 82cd bcbd bdd3 bbbc a64d c7bc
000001a0: 0d07 24bd ceee c7bc 2ea7 b7bc 2221 a4bd
000001b0: 9e1b 25bc 70bf 5b3c 3a5b 903d 30ea d23c
000001c0: b0e5 ccbd 67c5 0f3c e017 3ebd 18a1 693d
000001d0: 3b53 b0bd b2db e43b 73fd 4d3d b373 333d
000001e0: 71d4 a4bd 8280 f33c db6f 98bd 77a0 d93c
000001f0: 5d63 dfbc 574c 89bd c307 3bbd fef1 3cbc
00000200: 23c6 aebc 0d0f 3cbd 8354 83bd 844e 83bd
00000210: ecac ad3c e0a7 93bc be99 2b3d 6b10 86bd
00000220: f181 b03d 5f51 14bd 97b9 6f3c b981 383d
00000230: 4c8c 0abd e7eb 0dbd 72d7 b03d f326 173d
00000240: 7678 813c f7e4 b1bd 834f cdbc 46dd 19bd
00000250: 4777 50bc e311 093d 87c7 04bc f7d0 f13c
00000260: c89a d63b f33c 053d 0fb3 47bd 5e09 e4bd
00000270: d1f7 86bc 12bf 7c3d d7e7 51bd 629a bb3d
00000280: 5d76 84bc 2391 c33c c09b da3c 3506 b2bc
00000290: e072 07bd 6915 39bb 6e99 3fbd 531c 01bc
000002a0: f9da c83c 2df1 acbc 3289 83bc eee9 38bc
000002b0: 0618 433d 72a0 6739 7097 06bd 1ed0 133c
000002c0: 8c8c e23c c94c fcbc 176c 38bd f7f0 a9bc
000002d0: e01d ee3b 0334 74bd 75de 9f3c 2fd6 1abd
000002e0: c74f c7bc 17cf 12bb 54dd 463d dbcf 6e3c
000002f0: 0a33 7ebd e53d f4bb 4052 52bc 061d 1c3c
00000300: aa48 2abd 61a7 edbc 617f 023d 540a d2bc
00000310: 21f6 253b 3323 583d 483d 4f3d 715d abbc
00000320: 6674 933d 0cce c2bc 59c9 8a3c a3fa 05bd
00000330: 0563 8e3c 86d6 2bbd 2289 1f3d 8b32 2cbb
00000340: 58e3 6cbd 3285 adbc 008a 803c ae98 e7bc
00000350: f028 b33c 8b4c 5dbd bf20 96bd 314a 413d
00000360: 6ccf d53b 5a0c 59bd d931 6a3c 82fe cf3c
00000370: cc84 8abb 45a8 ecba 34ee f03d b101 c8bc
00000380: 07b0 26bc bfd6 57bd 5e8c 09bd 001d bbbb
00000390: 2746 33bd a4fd 5cbd 36f2 33bd 93d9 5bbd
000003a0: 2941 1f3d a7e7 91bc 8826 183d 1e38 0e3d
000003b0: 4435 97bd dd46 193d 21df c93b 3282 293c
000003c0: fb17 c63c 1674 c7bd 13a4 a039 0b2c 713c
000003d0: 7913 823d f997 583c a5a4 0dbd fb32 b5bc
000003e0: bd5f a53c d941 8cbd 9cae 7f3d e48a 81bd
000003f0: 372a bfbd f4af d73d 7433 1a3b 9ce6 253d

fc2.weight f4 [128, 258]
0.03721855 0.100742154 0.010957153 0.008013983 0.00760466 0.033754516 -0.07295243 0.07965953
-0.06306247 -0.025997506 -0.12786816 0.015002019 0.016562996 0.040029205 0.025589678 -0.013982242
-0.0038527611 -0.078347124 0.06285557 0.06364282 -0.032260988 0.07430449 0.09702517 -0.13670985
0.1360253 0.059115753 0.05822667 0.033615757 -0.064008035 -0.039003216 -0.008249987 0.073034674
-0.016889222 0.057178974 0.046025537 -0.0026982229 -0.10624334 0.12947531 0.050903514 0.0666935
-0.099886395 0.03827262 -0.0829436 -0.05027236 -0.064441174 0.09699815 -0.04324874 0.053063583
0.021821506 -0.07200416 -0.15139858 -0.045305155 -0.07940076 0.0061230827 -0.067898035 0.03648085
0.07787906 0.07083419 -0.054305524 0.04431536 -0.0415236 0.002424378 -0.08215638 0.053685088
-0.03909639 -0.034870517 0.011554556 0.08180913 0.049373586 -0.09976992 -0.01048721 -0.022590142
-0.012014525 -0.022254966 0.059721433 -0.13080388 -0.077825405 0.07926087 0.02686348 -0.09439482
0.045135878 -0.17729007 0.06328511 -0.004395537 -0.11916725 0.09119856 -0.010768535 -0.048462007
0.034672517 -0.009481324 0.05335684 -0.11105934 -0.025921116 0.013909955 -0.033921145 -0.001716664
-0.13579105 -0.0056128064 -0.013643226 -0.11348992 -0.16334826 -0.12223073 -0.015655492 0.10158688
0.06405987 0.078293756 -0.061045468 -0.00690049 -0.05242285 0.020979755 0.061508607 0.13660093
0.12291126 -0.07622978 -0.051130325 -0.07118116 -0.0517511 -0.009650891 0.06625558 0.06155909
0.094713904 0.049892407 -0.11608137 0.015886575 0.055293877 -0.088519305 0.003910668 -0.104938105
-0.10014883 0.004141324 -0.016802289 -0.0686335 0.06432372 0.01263381 -0.0340555 0.00045773658
-0.0633669 -0.13203731 -0.040959205 -0.05999847 0.0595423 0.03042993 -0.013062569 0.07648938
0.024439696 -0.12023676 -0.024055617 -0.01532555 -0.0010462006 -0.1739287 -0.037318364 0.086968586
0.033470336 -0.2746105 -0.037386045 0.07623204 0.05007039 -0.04719391 0.06793117 -0.08205019
0.00048374178 0.028290577 0.003174808 -0.094106756 0.032871466 -0.057504844 -0.059561543 0.0011331153
0.034682132 0.08532282 0.04549474 -0.035876915 -0.079572625 -0.06701134 0.0541576 0.07533505
-0.042712018 -0.047949538 0.102019355 -0.014895693 -0.049896713 -0.052766893 -0.11202667 -0.031994898
0.058934577 -0.07003826 -0.03484931 -0.017977213 -0.023162263 -0.07691345 0.029811755 0.062353607
-0.01964494 0.013760025 0.07741955 -0.038918424 0.05165632 -0.05902696 -0.0904722 -0.054558907
0.049524978 0.023900094 -0.025028253 -0.066991545 0.08923608 0.040383924 -0.13068411 0.0919661
-0.021900091 0.040114004 -0.07284083 -0.003643301 0.052759986 0.025743159 -0.011131834 0.0043310886
0.0051802164 -0.10315831 0.0041253385 -0.0030090192 -0.08276593 0.061041996 0.008294328 0.06436905
-0.004614354 -0.20510861 -0.017848337 -0.10551894 -1.9053216e-05 0.013534012 0.07807103 0.06670566
0.017124757 0.024639808 -0.059688773 0.0352456 0.044674445 -0.13311231 -0.019066118 -0.09152191
-0.019092215 0.04475754 0.035064735 -0.075066864 -0.022785349 -0.017324865 -0.019771399 0.07056812
0.084775604 -0.014503706 0.033829365 0.053506356 -0.08352848 -0.03049529 0.081747614 0.07262473
00000000: 7a72 183d e751 ce3d a185 333c 154d 033c
00000010: 8330 f93b 2d42 0a3d 1568 95bd 8924 a33d
00000020: e526 81bd b9f8 d4bc dfef 02be 07cb 753c
00000030: 1faf 873c aaf5 233d 72a1 d13c c615 65bc
00000040: 9b7e 7cbb 7574 a0bd 6cba 803d 2b57 823d
00000050: 1924 04bd f42c 983d 22b5 c63d abfd 0bbe
00000060: 374a 0b3e 5c23 723d 177f 6e3d adb0 093d
00000070: a516 83bd d6c1 1fbd f42a 07bc 3493 953d
00000080: 445b 8abc 8034 6a3d 4685 3c3d abd4 30bb
00000090: 1c96 d9bd 2d95 043e 3480 503d 9a96 883d
000000a0: 3d91 ccbd c0c3 1c3d 56de a9bd 64ea 4dbd
000000b0: bcf9 83bd f7a6 c63d 9725 31bd 3359 593d
000000c0: 04c3 b23c eb76 93bd 3b08 1bbe e691 39bd
000000d0: de9c a2bd 24a4 c83b 200e 8bbd f26c 153d
000000e0: 0e7f 9f3d 8411 913d 786f 5ebd 0684 353d
000000f0: a714 2abd 50e2 1e3b 9b41 a8bd e5e4 5b3d
00000100: 8923 20bd 63d4 0ebd 524f 3d3c 8c8b a73d
00000110: f53b 4a3d 2c54 ccbd 8cd2 2bbc f60e b9bc
00000120: 92d8 44bc 0c50 b6bc 769e 743d 74f1 05be
00000130: ed62 9fbd 8653 a23d cd10 dc3c 1252 c1bd
00000140: 66e0 383d 878b 35be a09b 813d 7008 90bb
00000150: f60d f4bd 50c6 ba3d 826e 30bc 1980 46bd
00000160: c504 0e3d 8e57 1bbc b48c 5a3d 1473 e3bd
00000170: 8558 d4bc 94e6 633c e6f0 0abd af01 e1ba
00000180: cf0c 0bbe a2eb b7bb d687 5fbc 676d e8bd
00000190: c444 27be 1b54 fabd f23f 80bc c80c d03d
000001a0: d231 833d 7a58 a03d d00a 7abd 811d e2bb
000001b0: 58b9 56bd bcdd ab3c 73f0 7b3d 1de1 0b3e
000001c0: e6b8 fb3d 5c1e 9cbd 086e 51bd 6ec7 91bd
000001d0: f6f8 53bd c51e 1ebc 01b1 873d 6225 7c3d
000001e0: 5df9 c13d fb5b 4c3d 12bc edbd 9024 823c
000001f0: d57b 623d 9c49 b5bd 1025 803b cae9 d6bd
00000200: d41a cdbd f2b3 873b f4a4 89bc b88f 8cbd
00000210: 28bc 833d 0afe 4e3c c87d 0bbd 5dfc ef39
00000220: 81c6 81bd ca34 07be d7c4 27bd f5c0 75bd
00000230: a0e2 733d 3048 f93c 6304 56bc 77a6 9c3d
00000240: c235 c83c b13e f6bd 4910 c5bc 0418 7bbc
00000250: ab20 89ba 5d1a 32be 24db 18bd 961c b23d
00000260: 3118 093d bf99 8cbe 1c22 19bd 8b1f 9c3d
00000270: 9c16 4d3d 674e 41bd 7f1f 8b3d ee09 a8bd
00000280: b99e fd39 a4c1 e73c 7110 503b 0bbb c0bd
00000290: 3ba4 063d 338a 6bbd cef6 73bd 0a85 943a
000002a0: da0e 0e3d bbbd ae3d b158 3a3d acf3 12bd
000002b0: f9f6 a2bd 3e3d 89bd 5cd4 5d3d 4349 9a3d
000002c0: ccf2 2ebd bc66 44bd 86ef d03d 110d 74bc
000002d0: 7f60 4cbd 1922 58bd 3d6e e5bd 150d 03bd
000002e0: 6265 713d 3870 8fbd 26be 0ebd f344 93bc
000002f0: c9be bdbc cd84 9dbd c837 f43c 7f66 7f3d
00000300: 6dee a0bc ba71 613c 248e 9e3d ed68 1fbd
00000310: 9495 533d 41c6 71bd 7d49 b9bd 2979 5fbd
00000320: b4da 4a3d 21ca c33c 0d08 cdbc dd32 89bd
00000330: 68c1 b63d 9d69 253d 0ed2 05be b958 bc3d
00000340: d267 b3bc 954e 243d 932d 95bd 73c4 6ebb
00000350: db1a 583d 51e3 d23c 4c62 36bc ceeb 8d3b
00000360: cebe a93b aa44 d3bd d92d 873b f732 45bb
00000370: 2f81 a9bd 2c07 7a3d efe4 073c ecd3 833d
00000380: 0234 97bb fe07 52be ad36 92bc 501a d8bd
00000390: 78d4 9fb7 c3bd 5d3c b4e3 9f3d fa9c 883d
000003a0: 3849 8c3c 6cd9 c93c 377c 74bd b15d 103d
000003b0: 8dfc 363d 984e 08be 8c30 9cbc d76f bbbd
000003c0: 4767 9cbc af53 373d 0aa0 0f3d a8bc 99bd
000003d0: 57a8 babc e0ec 8dbc a1f7 a1bc 0586 903d
000003e0: d59e ad3d f4a0 6dbc a990 0a3d 7b29 5b3d
000003f0: fb10 abbd 42d1 f9bc 4b6b a73d 46bc 943d

fc2.bias f4 [128]
0.03690539 -0.00899818 0.05296604 -0.011542904 0.0633437 0.08461148 -0.014660598 -0.06422395
-0.014644061 -0.06467588 -0.004642211 -0.061060622 0.086358614 -0.029697029 0.005912049 -0.0010787912
-0.03679316 0.033554994 0.08995735 0.009422577 0.038545366 -0.07677035 0.07559518 -0.09632416
-0.09473824 -0.051274486 -0.010129296 -0.04554375 -0.043017004 -0.10326662 0.028068513 0.016946012
0.07623611 0.015698658 0.08915041 -0.09291311 0.05834072 0.061716385 -0.05407378 -0.041982956
0.005731676 -0.059629545 -0.011267365 -0.036405414 0.07850675 0.11367504 0.024085239 -0.031148393
-0.088035926 0.009231965 -0.026228052 -0.051662996 -0.0020928124 0.09101805 -0.03317487 0.06961064
0.0378684 0.009687859 -0.04745229 0.05365106 -0.07480309 0.038253985 -0.02679421 -0.103520356
0.045186043 0.057627726 0.06899303 0.02901379 -0.024183301 -0.064497486 0.06491204 -0.044854697
0.109213464 0.02341932 -0.050032083 -0.098479725 -0.036805525 0.02335187 -0.027612532 0.05259671
-0.044271313 -0.08853835 0.038033802 0.059189923 -0.07239258 0.0071724956 0.05618495 0.0208269
0.06718488 0.095133334 -0.08825189 -0.109649494 0.045851756 -0.105603635 -0.0333679 -0.046867933
-0.04605058 -0.027607257 -0.107357755 0.06056669 0.066352166 0.013650466 0.07140916 -0.0784785
0.03933845 -0.06626645 0.04112898 0.018333357 -0.040484376 -0.089250095 -0.041600388 0.012643595
0.07442811 0.08837773 -0.06464057 -0.021893058 -0.10235625 0.049583074 -0.04583943 0.04086131
0.003055565 -0.009883078 0.045197785 0.10264858 -0.048489083 0.07128329 -0.04744376 0.04019087
00000000: 1b2a 173d 1a6d 13bc ebf2 583d 731e 3dbc
00000010: 57ba 813d c948 ad3d 0133 70bc d987 83bd
00000020: a5ed 6fbc ca74 84bd b01d 98bb b41a 7abd
00000030: c9dc b03d 2f47 f3bc ddb9 c13b 3a66 8dba
00000040: 6db4 16bd f670 093d 8f3b b83d 2761 1a3c
00000050: bfe1 1d3d c639 9dbd a5d1 9a3d 9a45 c5bd
00000060: 1f06 c2bd 3205 52bd 59f5 25bc 158c 3abd
00000070: 9932 30bd 737d d3bd f0ef e53c 5dd2 8a3c
00000080: ad21 9c3d 799a 803c 7d94 b63d 3b49 bebd
00000090: aef6 6e3d 52ca 7c3d 787c 5dbd 52f6 2bbd
000000a0: c8d0 bb3b 1c3e 74bd c19a 38bc d81d 15bd
000000b0: 26c8 a03d 76ce e83d 684e c53c ea2a ffbc
000000c0: 2e4c b4bd ab41 173c 36dc d6bc 949c 53bd
000000d0: 9127 09bb ac67 ba3d 5fe2 07bd 0690 8e3d
000000e0: e51b 1b3d d3b9 1e3c 555d 42bd 37c1 5b3d
000000f0: 5d32 99bd 36b0 1c3d 887f dbbc 7b02 d4bd
00000100: 0015 393d 0d0b 6c3d 384c 8d3d 54ae ed3c
00000110: 0f1c c6bc 4217 84bd 9bf0 843d 8fb9 37bd
00000120: 4fab df3d e0d9 bf3c 71ee 4cbd bdaf c9bd
00000130: 64c1 16bd 6c4c bf3c ad33 e2bc a66f 573d
00000140: d655 35bd 9853 b5bd 55c9 1b3d 2271 723d
00000150: 9042 94bd 4107 eb3b 3122 663d 2d9d aa3c
00000160: 3a98 893d 44d5 c23d 68bd b4bd ea8f e0bd
00000170: 0dcf 3b3d b846 d8bd c7ac 08bd 97f8 3fbd
00000180: 889f 3cbd 9d28 e2bc 62de dbbd c714 783d
00000190: a5e3 873d 34a6 5f3c f73e 923d 56b9 a0bd
000001a0: 5b21 213d b4b6 87bd dd76 283d d62f 963c
000001b0: f2d2 25bd c1c8 b6bd 2b65 2abd 1527 4f3c
000001c0: c46d 983d 62ff b43d 4662 84bd 1259 b3bc
000001d0: 27a0 d1bd 9f17 4b3d 20c2 3bbd 305e 273d
000001e0: e03f 483b a2ec 21bc 5021 393d 6b39 d23d
000001f0: 7d9c 46bd f9fc 913d 6354 42bd 2f9f 243d

fc3.weight f4 [1, 128]
0.02227889 -0.19379216 -0.017911239 -0.0009646251 -0.0323419 0.032832008 -0.02163205 -0.023219243
-0.027927676 0.009217047 0.029590985 -0.16787885 0.20043631 -0.06605959 0.028709024 0.057148978
-0.047967996 0.14097956 0.05788798 0.06183382 -0.32962993 0.116365865 -0.15814959 -0.00053995743
-0.026913948 0.03188294 -0.03276746 0.053730525 -0.06262931 -0.18656428 0.022863526 -0.039809216
0.031569622 0.0640809 0.024919257 -0.018442912 0.030801957 0.035074815 0.069628015 0.058825612
-0.0852519 -0.002514419 -0.09505409 -0.0053090593 -0.028567757 0.10730074 -0.10426014 -0.098921604
-0.048815306 0.06928808 -0.03423161 -0.05205088 0.12198299 0.008702332 0.02309018 -0.1960716
-0.029822057 0.10516699 -0.024410084 0.020910216 -0.08813656 0.024833405 0.014518167 -0.18393777
0.06078672 -0.079545215 -0.026414549 -0.038304675 0.06671791 0.11461276 -0.021430563 -0.08506269
0.16191769 0.017910311 -0.05744423 -0.11539616 -0.014188179 -0.042336784 0.029436806 -0.102112345
0.09247158 -0.03168013 -0.04122112 0.033908788 -0.023195773 -0.0085429 -0.01856372 0.04067728
-0.022692 0.021229578 -0.009650922 -0.026325678 -0.03082678 -0.090155706 0.043571133 0.045709938
-0.009594853 0.026210554 -0.035579365 0.08611241 -0.047464326 -0.023742536 -0.04273297 -0.11882241
0.038141415 -0.09148228 0.043612037 0.021914607 -0.023598343 -0.052736744 0.018692458 0.056047693
0.083577424 0.1872673 -0.057936594 -0.14601393 -0.019514099 0.06328798 0.02194402 0.069664985
0.059708033 -0.019839434 0.043879345 0.0385255 0.14155805 0.055870857 -0.021221664 0.069932535
00000000: 3882 b63c 7471 46be 97ba 92bc e5de 7cba
00000010: f178 04bd db7a 063d b235 b1bc 4836 bebc
00000020: 95c8 e4bc 1903 173c cb68 f23c 6fe8 2bbe
00000030: 2d3f 4d3e 404a 87bd 302f eb3c 0c15 6a3d
00000040: 177a 44bd f25c 103e f21b 6d3d 7645 7d3d
00000050: 41c5 a8be 3a51 ee3d f7f1 21be ee8b 0dba
00000060: a47a dcbc b097 023d 2c37 06bd 8a14 5c3d
00000070: cc43 80bd b50a 3fbe 4a4c bb3c fd0e 23bd
00000080: 264f 013d d93c 833d 7823 cc3c 9715 97bc
00000090: 6354 fc3c 9caa 0f3d 2299 8e3d 20f3 703d
000000a0: 8c98 aebd f3c8 24bb b8ab c2bd 9ef7 adbb
000000b0: ee06 eabc 7ec0 db3d 5786 d5bd 6997 cabd
000000c0: 8ff2 47bd e9e6 8d3d 7236 0cbd 4e33 55bd
000000d0: 38d2 f93d 3a94 0e3c 9e27 bd3c fec6 48be
000000e0: 634d f4bc ca61 d73d a8f7 c7bc e74b ab3c
000000f0: f180 b4bd 6d6f cb3c 9bdd 6d3c 2f5a 3cbe
00000100: 7ffb 783d 9ae8 a2bd 5363 d8bc 5de5 1cbd
00000110: 66a3 883d 18ba ea3d 268f afbc 5935 aebd
00000120: c0cd 253e a5b8 923c a44a 6bbd d254 ecbd
00000130: 8975 68bc 5669 2dbd 7525 f13c 4720 d1bd
00000140: bd61 bd3d 06c3 01bd 7ad7 28bd f1e3 0a3d
00000150: 1005 bebc 85f7 0bbc f112 98bc 389d 263d
00000160: 93e4 b9bc a7e9 ad3c e71e 1ebc f3a8 d7bc
00000170: 7188 fcbc 8ea3 b8bd a577 323d 583a 3b3d
00000180: bb33 1dbc 84b7 d63c abbb 11bd b45b b03d
00000190: f469 42bd b57f c2bc c408 2fbd 2a59 f3bd
000001a0: 2c3a 1c3d 105b bbbd 89a2 323d 4386 b33c
000001b0: 5051 c1bc 7c02 58bd ed20 993c 4492 653d
000001c0: a42a ab3d 00c3 3f3e ec4e 6dbd ad84 15be
000001d0: 08dc 9fbc 219d 813d f2c3 b33c 84ac 8e3d
000001e0: 6990 743d 4f86 a2bc d4ba 333d eacc 1d3d
000001f0: 98f4 103e d7d8 643d 0ed9 adbc ca38 8f3d
