checkpoint_actor1.pth (torch, 160543 bytes, 6 tensors)

fc1.weight f4 [256, 24]
000000 fb 10 ba bc bc 6e c0 bd eb b4 6b bc ba a6 9b bd
       -0.022713175 -0.09396121 -0.014386396 -0.0760016
000010 14 5d ed bd 61 1f fe 3d 0b 40 21 bc a5 26 84 3a
       -0.11590019 0.12408329 -0.009841929 0.0010082318
000020 0a 18 1c bd b2 92 5d bd d8 20 36 ba 6c c1 07 bd
       -0.038108863 -0.054094978 -0.0006947643 -0.033143446
000030 7c 28 f9 bc 23 ff b7 3d d2 54 7b 3d ed 47 a4 3c
       -0.030414812 0.0898421 0.061360188 0.020053828
000040 c3 22 5d bd 28 ca 02 be 0e 41 6e bc bf 74 93 bc
       -0.05398823 -0.12772429 -0.014541877 -0.018000005
000050 06 9f bf 3c c7 bd a5 3d dd 54 50 3d 13 5e 81 bd
       0.023391258 0.08092838 0.050862182 -0.06316771
000060 8c 77 40 3c 3f 20 18 bd cb 01 7e bd ed ba e3 3c
       0.011747252 -0.037140127 -0.06201343 0.027799094
000070 af b2 83 3d f8 79 88 be 04 1e 5b bd 76 08 85 bd
       0.064305656 -0.26655555 -0.053495422 -0.064957544
000080 29 91 87 3d ab 8f 66 bd 33 b3 c6 3d 38 5f ab bd
       0.06619484 -0.056289356 0.09702148 -0.08367771
000090 f5 36 0a 3d 73 5c 2f be a0 29 4b 3d 48 c4 96 bd
       0.033743817 -0.1712511 0.049600244 -0.073616564
0000a0 e6 a3 48 3c 53 65 f4 bd e6 2e 85 3c 24 87 73 3d
       0.012246108 -0.119333886 0.016257714 0.059455052
0000b0 5b 39 47 3e 91 b5 36 3e d8 c9 7b 3d e2 2a ad 3c
       0.19455473 0.178427 0.06147179 0.021138612
0000c0 83 88 9d bd 4b dc 10 3e fc f5 23 bd 2b 9a e0 bb
       -0.07692053 0.14146535 -0.04002951 -0.0068543158
0000d0 82 ce 5a 3d 48 c0 17 3e 66 7b fb bd 21 16 79 bd
       0.053419597 0.14819443 -0.12279396 -0.06081212
0000e0 43 92 c5 3c 7c ed 17 3e 0d 2c d2 3b 03 76 46 be
       0.024117595 0.14836687 0.0064139427 -0.19380955
0000f0 df 90 9b 3c 94 94 05 3e 73 b2 d1 3c 2b 26 32 be
       0.018989978 0.1304496 0.025597787 -0.17397372
000100 e3 14 06 3d 45 3c 12 3e ff 3e 78 bc 5e 23 51 be
       0.032734763 0.14280804 -0.015151738 -0.20423648
000110 2b af a3 bc 5d c3 1b 3e e7 d1 ff 3c fe 35 04 be
       -0.019980988 0.15211244 0.031228019 -0.12911221
000120 ca dd b1 bc 08 4e 96 3d 73 d1 4c 3c 8e 66 49 3d
       -0.021712203 0.07339102 0.012501108 0.04917007
000130 c4 e7 a3 3d 6f f5 05 bd 34 c6 14 3d f0 e3 2c 3d
       0.0800319 -0.032704767 0.036321834 0.042209566
000140 32 c5 36 bd fc c9 b5 3d 76 b3 2a bd d3 d6 a5 3d
       -0.044621654 0.08876416 -0.041675054 0.08097615
000150 79 ec b1 3d 2a 8d 08 bd d0 74 53 bb 9e 7d 1c 3e
       0.08687682 -0.03333775 -0.003226567 0.15282294
000160 2c ba a7 3c a5 fb 17 3e d5 a5 53 3d 64 6f 10 3e
       0.020474516 0.14842089 0.05167182 0.14104992
000170 b0 b2 8a 3d a5 24 a3 3d 66 b5 17 3e e5 b3 2e 3e
       0.06772363 0.07965974 0.14815292 0.17060812
000180 3a 0c 18 bd fe 0c 10 3e 4a 95 d4 bb 30 0b 30 3d
       -0.037121035 0.14067456 -0.006487523 0.04297942
000190 fd f3 e8 3d a9 34 99 bc 04 da e5 bd b6 ab ef bc
       0.11374662 -0.018701868 -0.11223224 -0.029256683
0001a0 2d 84 c0 bc a8 36 2e 3e a8 4c 5d bd 0d ee 36 be
       -0.023500526 0.17013037 -0.054028183 -0.17864247
0001b0 c5 7a 33 3e 85 0b e4 3a d3 40 03 bd 8e 00 e4 bd
       0.17527302 0.0017398453 -0.032044243 -0.11132918
0001c0 5d ce 77 3d 4f d6 52 3e e9 a5 93 bc 87 78 81 be
       0.060499538 0.20589565 -0.018023448 -0.25287268
0001d0 a1 ee f2 3d 06 ac 3a bd 7c e8 a8 3c c5 0c 3d be
       0.11861921 -0.04557421 0.02061867 -0.18461902
0001e0 72 12 2a bc c8 51 4f ba 52 02 7f bc 55 6a c1 bd
       -0.010380374 -0.00079086097 -0.015564518 -0.09444109
0001f0 a7 08 f5 3d a8 9a ea 3d 75 4e 80 3d 5f 15 9c bd
       0.11964541 0.114552796 0.062649645 -0.07621264
000200 23 75 11 bd ea dc b0 3c 52 3f 02 bc c1 dd 45 bd
       -0.0355121 0.021589715 -0.007949667 -0.048307184
000210 ce f4 03 bd d4 b0 e4 3d 2d 4f 74 3d a5 f2 b6 bc
       -0.032215886 0.1116654 0.05964582 -0.022332499
000220 c8 0e 9c bc b9 d8 d3 bd 28 77 a2 bb 9e 26 a0 bc
       -0.019050017 -0.10344071 -0.004958052 -0.019549664
000230 cb 6d 97 bd d4 c2 42 3e ed 31 57 3b fb 5f 3b bd
       -0.07393988 0.19019634 0.0032836155 -0.04574583
000240 be 9b e7 bd 1f 3d b1 3b b4 65 d5 3d 05 b5 1a bd
       -0.11309002 0.0054088975 0.10419789 -0.03777029
000250 85 1c 66 3e ac a2 a3 bd 37 ce 06 3e ef 09 54 3d
       0.22471817 -0.079900116 0.13164602 0.051767286
000260 fc c1 93 bc 5b 99 eb bc dd 3d 76 3d 6d d4 a0 bc
       -0.018036835 -0.028759649 0.06011759 -0.019632543
000270 b2 c8 1a 3d 70 62 80 3d ab 38 1f 3d 14 b9 3a bc
       0.037789054 0.062687755 0.038872402 -0.011396665
000280 f7 09 6c bd fb e2 f1 bb 5e fb 70 3d ae a3 03 bd
       -0.05762669 -0.0073817945 0.058833472 -0.03213852
000290 78 1e e6 bc 69 fc e0 bc 54 92 68 3d ad f5 b3 ba
       -0.0280907 -0.027464109 0.056780174 -0.0013729833
0002a0 00 9f 8d bd 96 15 ef 3c f3 53 45 be 91 62 d6 3d
       -0.069150925 0.029185098 -0.19270305 0.10468019
0002b0 90 2c 4f ba 3d 7b 96 3d 0f bf 28 be d1 1d 71 3d
       -0.00079030637 0.073477246 -0.16479133 0.058866326
0002c0 e5 a3 82 bd de 5c af 3d 95 cd e4 bd 52 95 5f 3b
       -0.06378917 0.08562635 -0.11172024 0.0034116101
0002d0 e1 00 26 b8 77 f9 96 3d ff 55 c9 bd 44 e5 32 3c
       -3.9578303e-05 0.073718004 -0.098308556 0.010918919
0002e0 ba 7b a0 bc ff f2 72 3d 2d ff 62 bc 88 c3 a5 bb
       -0.019590247 0.05931377 -0.013854784 -0.0050587095
0002f0 23 28 1a bc 42 fb 37 3d bf 64 80 3d 14 16 c9 bc
       -0.009408983 0.044917352 0.06269216 -0.02454666
000300 a4 05 b1 bd 6f 6b 0c 3e 36 7e ec 3a 38 0a 85 3d
       -0.08643654 0.13712858 0.0018042985 0.0649609
000310 ce c2 89 3d b6 0b 9f 3d a8 88 8b 3b ff 30 22 3d
       0.06726609 0.077659056 0.004258234 0.039597508
000320 57 37 88 bb 84 f3 fe 3d f4 42 85 bc 1a 39 c0 bc
       -0.0041569876 0.12448791 -0.016267277 -0.023464728
000330 aa 9b 33 3c 18 5b ee 3d d2 4f 81 3b fd 74 a7 3a
       0.010962406 0.116384685 0.003946283 0.0012775954
000340 e8 7b 7e 3d cc 3b e2 3d 38 e1 16 3d 9d c6 11 be
       0.062129885 0.110465616 0.03683588 -0.14235921
000350 fc 81 68 bd 76 ef 9e 3d 80 4d 27 bd 29 a4 55 be
       -0.056764588 0.07760517 -0.040845394 -0.20863403
000360 23 4a 60 3b 81 36 5e 3d 08 3f 99 3d 26 cf ad 3d
       0.0034223876 0.054251198 0.074827254 0.08486776
000370 32 5c 33 bd ad 3e f8 3d a6 80 88 3d ee d5 d1 3d
       -0.043789096 0.121213295 0.06665163 0.10245882
000380 b1 69 8a bd 3d b7 1c 3d 2f 10 50 bd 17 45 84 3d
       -0.0675844 0.038260687 -0.050796684 0.0645849
000390 08 e6 66 bd be a2 e4 3d b5 bd c4 bd 12 38 bb bb
       -0.05637172 0.11163853 -0.09606496 -0.005713471
0003a0 17 22 7c 3b cd ba 8f 3c a3 07 50 bc c7 81 25 3c
       0.0038472468 0.017545128 -0.012697133 0.010101742
0003b0 f6 04 7b bd af 1c 04 bb 5b 8e ac 3d 26 3b 83 bc
       -0.061284028 -0.0020158698 0.0842559 -0.016019415
0003c0 15 36 ef bc f6 a4 f6 3d 57 b7 85 bc ce 64 8a bd
       -0.029200593 0.120431826 -0.016322775 -0.06757508
0003d0 94 3b 03 be 11 13 c4 3d a3 6f 70 bd 74 6c 41 bc
       -0.12815696 0.09573949 -0.058700215 -0.011805642
0003e0 01 c2 25 3c e6 7d 01 3e 53 45 59 bc 00 35 94 bc
       0.010117055 0.12645683 -0.013261157 -0.018091679
0003f0 54 72 9d 3d 00 74 10 3c 28 bf 5f bd 75 44 5e 3b
       0.07687822 0.008816719 -0.05462566 0.0033915315

fc1.bias f4 [256]
000000 87 37 cf 3d 3a d8 8a bd 00 63 6d 3b aa 1c d9 3c
       0.10118013 -0.06779523 0.0036222339 0.026502926
000010 7f 16 3a bd 94 c8 a8 bb 2c e2 82 3d 2d d6 06 bd
       -0.04543161 -0.005150864 0.06390795 -0.032919098
000020 d4 a2 04 bd c8 c3 94 3d 61 99 05 be 9d f6 a0 3d
       -0.032381848 0.07263905 -0.1304679 0.07859538
000030 cc 8a 8a bd c9 c3 c2 3d 52 bc ef bc 4f a7 e1 3d
       -0.06764755 0.09509999 -0.029264603 0.1101824
000040 62 1b b2 3d 39 aa 66 bd 35 76 c8 bd 64 2c f3 bd
       0.08696629 -0.05631468 -0.09788171 -0.11873701
000050 bf c7 d5 bd bb 10 5f 3d f0 67 22 3e 29 3c 81 3b
       -0.10438489 0.054459315 0.15859962 0.003943939
000060 a9 c7 94 bd 9c 11 dc 3b 48 50 4d bd c0 a7 80 bc
       -0.07264645 0.0067159664 -0.05012539 -0.01570499
000070 80 ed b8 3c 80 5a 5e bc 25 35 19 3d 2c f2 96 bd
       0.022574186 -0.013571382 0.0374042 -0.07370409
000080 30 bb 92 3d 0a 5b 0c 3d b1 27 af 3d 4a f4 fb bc
       0.071646094 0.03426651 0.085524924 -0.030756135
000090 34 c2 53 3d 06 da 39 bc 48 17 74 bd 3c b1 44 3c
       0.05169888 -0.011343485 -0.059592515 0.012005147
0000a0 ac 60 5e bd a1 fb 01 be da 8d 12 3c c9 b8 26 be
       -0.054291412 -0.12693645 0.008944953 -0.16281427
0000b0 6a 36 90 3d 44 2d f0 3d 94 af 30 bc 12 db bc bd
       0.07041629 0.11727384 -0.010784049 -0.09221472
0000c0 32 f7 17 3d b6 02 89 3c 8f 79 e7 bd cd 14 58 bd
       0.03710098 0.016724925 -0.11302482 -0.052754212
0000d0 07 80 0c bd 2a fb c4 bd 09 55 78 bd 95 b9 23 3c
       -0.034301784 -0.09618218 -0.06062797 0.009992977
0000e0 a2 8a 75 3c 3d a7 85 bd f6 97 22 be b7 e2 a2 3d
       0.014986666 -0.06526039 -0.15878281 0.07953399
0000f0 5c a4 bd 3d b8 89 91 3d 18 cc 5b 3d 2f c5 c5 bd
       0.09259865 0.07106346 0.053661436 -0.096567504
000100 29 1f 85 bd c7 59 cd bd ec f0 00 bd d0 ff 0f bd
       -0.06500084 -0.10026889 -0.03147976 -0.03515607
000110 55 a2 fe bd cf b0 11 bb 79 7a 09 3d 8b bf 17 3d
       -0.12433306 -0.002223063 0.033564065 0.037047904
000120 60 d3 c1 bd f5 6e 33 3c 38 26 49 bd 54 c9 fb bc
       -0.09464145 0.010951747 -0.049108714 -0.03073565
000130 9b 57 d5 bc 77 98 44 bd b5 b3 90 3b d5 af 9b bc
       -0.02604275 -0.047996964 0.004415954 -0.019004742
000140 c8 0b 16 bd c4 05 a8 bd 65 16 ac bd 98 5f a7 3c
       -0.03663233 -0.08204225 -0.08402709 0.020431325
000150 08 ef af 3c 08 31 7c bd 4b 72 e6 bd d0 88 ed bc
       0.021476284 -0.061570197 -0.112522684 -0.028995901
000160 38 af b5 bc b9 7a 16 be 7a f3 1f 3d 1e 2e 6a bd
       -0.022178277 -0.14695252 0.039050557 -0.057172887
000170 0a db 3f bd b1 a7 ac bc a0 b3 a0 3d 83 12 2d 3d
       -0.04683975 -0.021076055 0.07846761 0.042253982
000180 50 24 7c bc 27 df a8 3d d5 24 fe bc 00 f8 a5 bd
       -0.015389517 0.08245688 -0.031023422 -0.08103943
000190 57 67 95 bc d0 86 00 3e 5b 14 ed 3c f6 b2 ea 3c
       -0.018237753 0.12551427 0.02894037 0.028649788
0001a0 f8 08 8f 3c 18 6e f2 bb 7a dd da bc 0e 1b 4a 3d
       0.017460331 -0.007398378 -0.026716936 0.049342208
0001b0 46 21 f0 3d 9e 18 27 3e 64 bb 21 bd c3 e5 25 be
       0.117250964 0.16317984 -0.03948535 -0.16200928
0001c0 ed 05 67 bd 24 35 8f 3d 57 5a 5b 3d f0 8a d6 bd
       -0.056402136 0.06992558 0.05355295 -0.10475719
0001d0 7c c8 56 bd cd a7 14 3c 33 3c cc bd dc 51 8a bd
       -0.05243729 0.00907321 -0.099724196 -0.06753895
0001e0 af 7c 50 bd ee 33 6e bd d5 ed 46 bd 24 f4 85 bd
       -0.050900158 -0.058154993 -0.048566658 -0.06540707
0001f0 c0 d4 bf 3d 78 aa 47 bd 71 af 83 3d 63 9f 70 bc
       0.09366751 -0.048746556 0.06429947 -0.014686438
000200 8e 95 ff bc a0 df 68 3e d8 6f 72 3d af fc 99 3d
       -0.031199243 0.22741556 0.059188694 0.07518899
000210 e7 df 8f 3d f5 19 f0 3d 34 b5 21 3e 48 eb fe bd
       0.07025128 0.11723701 0.1579178 -0.1244722
000220 86 39 32 bd 17 dc 0a 3d ea 20 03 bd f2 90 cd bd
       -0.04351189 0.0339013 -0.03201381 -0.10037412
000230 7a 13 4b 3d 5e 01 df 3d f8 dc bc 3d f3 46 a5 bc
       0.04957912 0.10888933 0.09221834 -0.020175433
000240 ca fc 8b bc c1 ba eb 3c de c3 a6 bd fc 59 73 3d
       -0.017088313 0.028775575 -0.081428275 0.059411988
000250 64 a0 79 bd e9 71 3f 3e 64 ef 46 3b cc 41 91 bd
       -0.060943976 0.18695797 0.003035509 -0.07092628
000260 6d 61 aa bd e3 7b b1 bd a1 f3 0e bd cc e1 8c 3c
       -0.08319364 -0.08666208 -0.03490031 0.017197512
000270 7d 41 e2 bc 14 8c db bc 08 81 89 3d 0e f4 01 3d
       -0.027619118 -0.026800193 0.06714064 0.03172689
000280 c4 dc 72 bb 2f 5a 9c bd 7e 26 ef 3d f7 e4 35 bd
       -0.0037057856 -0.07634389 0.11677264 -0.04440781
000290 bb 14 9c bc 11 30 81 3d ef b1 3e bd 80 5e d0 bb
       -0.019052854 0.06307996 -0.04655641 -0.0063589215
0002a0 74 6e e3 bc a8 d2 ca bb e5 81 36 bd 7f 2a ef bc
       -0.02776263 -0.006189663 -0.04455747 -0.029195068
0002b0 78 d1 30 be d8 8e 28 bd 75 a5 9e bb 80 fc ed bd
       -0.17267406 -0.04115185 -0.0048415014 -0.11620426
0002c0 49 09 8f 3a e7 cb 61 3c 67 bb 08 3e ab 7c 8c 3d
       0.0010912801 0.013781524 0.13352738 0.06859716
0002d0 75 ec 38 3d 20 94 8c 3d ab a4 59 ba b6 1e a7 3d
       0.045147378 0.0686419 -0.00083024305 0.081601545
0002e0 3e 47 30 3d 03 e1 08 3d 02 28 ed bc 98 f8 9d 3b
       0.04303669 0.033417713 -0.028949741 0.0048208944
0002f0 b7 22 70 3d 7d cf 33 3c e8 5d b4 bd d0 69 8d bd
       0.058626857 0.010974762 -0.08806974 -0.06904948
000300 95 ea 40 3d 7c 78 d2 bd 3c d7 3e bd a3 63 6e 3d
       0.047098715 -0.10276887 -0.046591982 0.05820049
000310 09 51 78 bd 27 47 d3 bd 3b be d1 bc 4c 8f 49 bd
       -0.060624156 -0.103163056 -0.025603404 -0.049208924
000320 0e 1e ed 3c 47 53 0c 3c 85 27 34 bd 4c b5 b1 3d
       0.028944995 0.008564777 -0.043983 0.08677158
000330 28 22 b7 3d 03 f6 3a 3d ec 18 af 3c 78 9b e9 bc
       0.08942062 0.04564477 0.021374188 -0.028516516
000340 f3 45 0f 3d ea c0 1a 3c bd 99 bb 3d c2 27 0a 3e
       0.03497882 0.009445408 0.091601826 0.13491729
000350 60 42 80 bc ee d7 85 3d ad 4b dc 3d 9d 39 a9 bd
       -0.01565665 0.06535326 0.107566215 -0.08262942
000360 f7 dd 50 bd 16 b7 94 bc da 7c 4b bd 33 9a 93 bd
       -0.050992932 -0.018153708 -0.049679615 -0.072071455
000370 b3 91 5d bc 6d ef c5 3d c2 ee 28 3c c8 db bb 3d
       -0.013523507 0.096648075 0.010310831 0.09172779
000380 a1 cb 48 bd 95 dd 7f bd f5 6e d7 bd 79 74 dd 3c
       -0.04902232 -0.062467176 -0.1051921 0.027033078
000390 d6 56 02 be c3 15 6d bd 69 17 34 3d 3e 40 b3 3d
       -0.12728438 -0.05788208 0.04396764 0.087524876
0003a0 9e a5 8e bd d1 15 2c bd 0e 82 80 bd f7 96 06 bd
       -0.06965183 -0.042012993 -0.06274806 -0.032858815
0003b0 e1 86 24 3d ca f4 cb 3c 93 f9 23 bd 01 67 b0 3d
       0.040167693 0.024896998 -0.040032934 0.086133964
0003c0 7e ba b0 bc ad c4 01 3c c8 75 a1 3d 82 8a 80 bd
       -0.021573301 0.007920426 0.07883793 -0.06276418
0003d0 36 b5 3b 3d 87 95 da 3d cc 3a 61 3d 12 af 51 bd
       0.045827113 0.10673051 0.054987714 -0.05119235
0003e0 b7 44 00 3d 08 df d0 bd 3f a6 3f bd ec fa 52 bd
       0.03131553 -0.1019879 -0.046789404 -0.05150883
0003f0 19 76 c8 bc a0 b4 82 3b 74 21 28 3d de e7 a1 bd
       -0.024470376 0.0039888173 0.04104753 -0.07905553

fc2.weight f4 [128, 256]
000000 16 9e bf bc f3 50 41 be da 1d 4d bd 13 a0 6b bd
       -0.023390811 -0.18878536 -0.050077297 -0.057525706
000010 84 e1 48 3e e3 0d ea 3b d0 26 a1 bd b6 f2 e1 3d
       0.19617277 0.0071427687 -0.07868731 0.110326216
000020 e7 86 81 bd 21 dc 3e 3d 92 58 24 3e 0e 02 ac bd
       -0.06324559 0.04659665 0.16049412 -0.083988294
000030 f0 f5 8f bd 01 2a 9c 3d 67 39 57 3d ef e0 15 3d
       -0.07029331 0.07625199 0.052544978 0.036591467
000040 f8 ea 2f bd 77 f0 30 bd ac 7b 47 be 62 d3 20 3e
       -0.042948693 -0.043198075 -0.19480771 0.15705636
000050 a0 fd a8 3d 10 5a 87 be 4f 90 f3 bc 4b 82 25 bc
       0.082515 -0.264359 -0.029731898 -0.010101865
000060 7f 42 4d bc 71 87 01 bd d7 a1 d1 bd 21 76 90 be
       -0.012528061 -0.031623308 -0.102359466 -0.28215125
000070 cd 17 87 3d 04 5a a8 bc 61 14 25 3e 4b 37 10 bd
       0.065963365 -0.020550735 0.16121055 -0.03520898
000080 06 f4 02 3e 12 ec 89 bd 5b d3 0a be 9c ae 05 bd
       0.127884 -0.0673448 -0.13557188 -0.032637224
000090 67 c7 60 3c 02 a4 16 bd 62 51 ed 3d d5 f8 95 3d
       0.013719416 -0.036777504 0.11587788 0.073228516
0000a0 63 ed 28 3e e0 1c f7 be a7 2d 4f be 69 60 e1 3d
       0.16496806 -0.48264217 -0.20232259 0.11004717
0000b0 52 b0 fb 3d 7a 90 b0 bd c7 2a 19 3e 97 a1 f8 3c
       0.1228949 -0.08621307 0.14957725 0.03035049
0000c0 5b 5e 73 3c e7 e7 2d be c1 df 19 3d ac 07 cd 3c
       0.014854039 -0.16982995 0.037566904 0.025028072
0000d0 48 e2 67 3c a9 9c 3f 3d 0e 8c 88 bc f8 28 93 3e
       0.014153071 0.046780262 -0.016668346 0.28742194
0000e0 b8 fd 39 3c a9 7d d5 3d 24 10 22 bb 5d dd 05 be
       0.011351995 0.104243584 -0.002472886 -0.13072725
0000f0 10 a9 89 bc d3 39 33 3e a4 1a b3 3c 52 96 a6 bb
       -0.016804248 0.17502527 0.02186329 -0.0050838375
000100 a6 68 43 3c 09 fc 9b 3d 90 91 6e 3d bc b1 ae 3d
       0.011926806 0.07616431 0.058244288 0.08529994
000110 45 c8 13 bd 71 51 1f 3e 12 a5 fa bd 89 db 71 3c
       -0.036079664 0.15558411 -0.12238516 0.014761814
000120 32 e2 e3 3c 67 bb 97 3d ca 30 6b bc 63 04 cc 3d
       0.02781782 0.07408791 -0.014354894 0.09961774
000130 72 b1 39 bc c9 9f 89 3d 30 0e 72 3d 5e e6 b2 be
       -0.01133381 0.0671993 0.05909556 -0.3494138
000140 db 7e 80 bb 32 b6 14 3d 79 dc dc 3c 5c 00 84 3d
       -0.0039213724 0.036306567 0.026960598 0.06445381
000150 97 d0 68 be d0 f2 ba 3d 55 b0 cf 3c 30 6c 85 bd
       -0.2273582 0.09128344 0.025352636 -0.06514776
000160 0d 63 82 be 5d 43 09 3e a6 f5 e6 3d 61 07 4d 3d
       -0.25466195 0.13404603 0.112773225 0.050055865
000170 28 71 89 bd a6 30 a0 3d 60 eb 4d bd 61 3c 28 bd
       -0.06711036 0.07821779 -0.0502733 -0.041073207
000180 f7 10 85 be 7f c1 8a bc 63 42 1b 3d 43 84 80 bc
       -0.25989506 -0.01693797 0.03790511 -0.015688067
000190 a0 6d 0e be b0 cc 86 bd eb 8f be bd c5 a9 32 be
       -0.13909006 -0.0658201 -0.09304794 -0.17447574
0001a0 c5 2e 2f be 04 ab 01 3e 0a fa 32 3e 62 91 89 bd
       -0.17107685 0.12662894 0.17478195 -0.06717183
0001b0 cd 4b ab 3b 94 b9 15 3c 6f 1a d6 3d 11 3d bd 3d
       0.005227542 0.009138484 0.104542606 0.09240163
0001c0 b0 04 83 3b 96 85 b6 bc 83 37 22 be ba 52 94 3d
       0.0039983615 -0.022280496 -0.15841489 0.07242341
0001d0 b3 de 8c bd 07 92 27 be 68 bb 5b bd e8 e0 2f bd
       -0.06878414 -0.16364299 -0.05364552 -0.042939097
0001e0 de e3 80 3d 3a 23 84 3e 55 53 ac bd 68 c0 04 bd
       0.06293462 0.25808126 -0.08414332 -0.032410055
0001f0 33 ba ff bc e2 b4 5d 3d e3 9a 76 3d 11 16 a9 3e
       -0.031216716 0.05412758 0.060206305 0.33024648
000200 dc a4 14 bd ab 03 10 be 0f de 4d 3e 2f 62 2b bd
       -0.036290035 -0.14063899 0.2010424 -0.041841682
000210 de 32 3b bd b4 a6 06 3e 95 10 25 be 96 ee 59 3c
       -0.045702808 0.1314953 -0.16119607 0.013301512
000220 13 6e d3 b9 6c f4 ba bd 96 ed 43 3d 9e 28 ad 3d
       -0.00040327068 -0.09128651 0.047834 0.08455013
000230 56 82 95 bc d4 1e 90 3c 1f f1 02 3e 27 d0 26 3d
       -0.018250626 0.017592825 0.12787293 0.040725853
000240 08 f2 99 bd 69 09 a9 bc 4c 13 ba 3d 61 8a 54 bd
       -0.07516867 -0.02063437 0.09085712 -0.05188978
000250 29 1a 79 3d ef 3f 70 3d 78 8a d3 bd f0 6f a0 3d
       0.060815964 0.05865472 -0.10329145 0.078338504
000260 59 c2 86 3d 07 e3 07 3e 37 dc 00 3d b0 a3 4f bd
       0.065800376 0.13270198 0.031460013 -0.050693214
000270 a0 0c e1 3d 85 56 2c 3d 3e f2 36 3d de 77 74 bd
       0.10988736 0.0420747 0.044664614 -0.059684627
000280 2e 5f 48 3d 43 d5 65 3d e0 b5 27 bd 4c 45 1f be
       0.048918895 0.056111585 -0.040944934 -0.15553778
000290 f2 1c da 3d 6c f1 d0 bc b2 1e 2a 3e fa 53 34 ba
       0.10650052 -0.025505744 0.16613272 -0.00068789686
0002a0 6c a8 7f be 23 94 95 bd f9 6a 01 bd 80 68 31 bd
       -0.24966592 -0.073036455 -0.031596158 -0.04331255
0002b0 bb 14 38 3d 4d 48 62 be 0d f9 48 bd 3c b0 53 3e
       0.044941645 -0.22097893 -0.04906564 0.20672697
0002c0 04 91 fe bc 7a 3a 47 bd e6 ed cc bd 1d 13 38 be
       -0.031075008 -0.048639752 -0.10006313 -0.17976041
0002d0 96 cd d8 bb 6c d4 07 be 87 29 64 3e 14 e2 82 3d
       -0.0066163046 -0.13264626 0.22281466 0.06390777
0002e0 d9 89 36 3d 1e 7e 3b bd 90 e5 ca 3c 95 72 08 bd
       0.044565056 -0.04577457 0.024767667 -0.0333124
0002f0 2c 6f ad bc 0c 01 06 be 4f d1 ae 3d 98 07 8a bb
       -0.021171175 -0.13086337 0.08536016 -0.004212331
000300 d4 bf 7a bd 37 37 51 3c dd 5e 17 be e5 30 9f bd
       -0.061218098 0.012769512 -0.14782281 -0.07772998
000310 f4 87 84 bd e3 6d f7 3c c5 19 e5 bd b4 da 12 be
       -0.064712435 0.030203765 -0.11186556 -0.14341241
000320 3c 27 84 bd c3 8d fa 3d e1 18 82 bb ae ba 02 be
       -0.06452796 0.1223407 -0.003970251 -0.12766525
000330 0b 0e 23 3d b1 24 90 3d 17 41 89 bb 81 8b de 3d
       0.039808314 0.07038248 -0.0041886675 0.10866452
000340 64 69 02 bf f3 8f 10 3d bc bd f9 bc 4b 0b 19 be
       -0.50942063 0.03529353 -0.03048598 -0.14945714
000350 81 e4 ab 3e c5 b1 90 be 65 d5 84 bd d6 d2 93 3d
       0.33572772 -0.28260627 -0.06486014 0.07217948
000360 ff 21 33 3d 0a 16 d4 3d ff d5 22 3d 79 0f 3e be
       0.043733593 0.10355766 0.039754864 -0.1856059
000370 aa 5a 79 3c 23 2a cb bc 92 e4 07 bd bb f8 da 3d
       0.01521937 -0.024800366 -0.033176966 0.10691973
000380 5a 4c 88 3d 5e 04 82 3d ab 60 37 be c5 71 be bd
       0.06655188 0.06348489 -0.1790797 -0.092990436
000390 a5 fe aa bc d9 e2 da 3d 60 d0 c1 bd 64 04 93 3c
       -0.020873377 0.10687799 -0.094635725 0.01794643
0003a0 27 d5 86 3d 86 9a 94 bd 2f 10 49 3d 7f 7e 3f 3c
       0.06583624 -0.072560355 0.0490877 0.011687874
0003b0 6c 36 7f bb fa 9f 1c 3e be 8c 93 bd 21 01 3e 3d
       -0.003894235 0.15295401 -0.07204579 0.046387795
0003c0 2b 59 88 be d5 55 8a be 25 f2 25 bd f1 57 ad 3c
       -0.2663053 -0.2701861 -0.04051413 0.021160098
0003d0 24 3c 23 3e 80 71 8f 3d 6a ce e6 3d 8f ff a3 3d
       0.1594091 0.0700407 0.11269839 0.08007728
0003e0 57 93 19 3e dd b7 67 bd be 91 33 be 76 0d 11 3e
       0.14997612 -0.05657183 -0.17536065 0.14165291
0003f0 5e 05 36 be 6b 52 88 3d 04 f7 08 be 26 28 9f bd
       -0.17775485 0.06656345 -0.13375479 -0.077713296

fc2.bias f4 [128]
000000 b7 84 d0 bd 79 6d 1b bd 7b d8 da 3d d1 b4 c1 bd
       -0.10181563 -0.037946198 0.106858216 -0.09458316
000010 6a 71 9f 3d 06 0e b8 3d db eb ed bd c7 f0 69 3d
       0.07785304 0.0898705 -0.116172515 0.05711439
000020 f4 eb 76 bd 60 a1 a6 3b 9c 53 71 bd 8d a8 fb 3c
       -0.060283616 0.0050851554 -0.058917627 0.03072002
000030 a6 f2 93 3b 65 c6 5e bd 5d 33 5e bd 53 be 88 bd
       0.00451501 -0.054388423 -0.054248203 -0.066769265
000040 f8 c4 a6 bd 61 ce 98 bd ae 04 4d bd 45 56 6b bd
       -0.081430376 -0.07461239 -0.05005329 -0.05745532
000050 41 8b 86 bc 91 77 77 bc 68 23 5d bd e8 1f 84 3b
       -0.016423823 -0.01510419 -0.053988844 0.004032124
000060 99 a5 03 3c 23 0b e8 bd b1 03 e3 bd 71 6e 80 bb
       0.008035087 -0.11330249 -0.110846885 -0.0039194156
000070 49 38 b8 bd 64 c3 69 3b d2 ae a3 bc 54 44 51 3d
       -0.089951105 0.003566944 -0.019980822 0.051090553
000080 7e 63 6c bc bb 57 d8 3d 0e ff 77 3d 54 a7 9f 3d
       -0.014428018 0.10563608 0.060545973 0.07795587
000090 85 b1 fb bd f9 74 35 bd 34 38 5c bd 94 68 3a 3d
       -0.122897185 -0.044301007 -0.053764537 0.04550989
0000a0 ac 22 06 be 0c 46 7a 3c 08 f3 d5 3d d2 e9 b8 bd
       -0.13099164 0.01527549 0.10446745 -0.09028973
0000b0 c3 c7 17 3d 14 55 1c bd c7 66 63 3d 1a 07 ba bd
       0.037055742 -0.038167074 0.055517938 -0.09083386
0000c0 1b 00 aa 3d 66 20 d8 bc 17 a9 e6 bd 6c a4 b1 3c
       0.08300801 -0.026382636 -0.1126272 0.021684848
0000d0 75 35 cb bb b3 d9 09 3a e8 58 98 3c ec 36 31 3d
       -0.006201441 0.0005258575 0.018597081 0.04326527
0000e0 76 f9 9b bd fb 01 5e 3d f3 de a2 3c dd 8f f5 bd
       -0.0761594 0.054201107 0.019881701 -0.1199033
0000f0 c8 f8 61 bd a2 ca 4c bd ff 22 2b 3d 05 64 b8 3d
       -0.055168897 -0.049997933 0.04178142 0.09003452
000100 b0 fc a2 bb 14 dd 70 bd 70 05 ec bd ee 50 8c bc
       -0.0049739704 -0.058804587 -0.115244746 -0.017128434
000110 54 f6 92 bd fe 84 80 bd 2e 71 30 bc 6a fe 82 3d
       -0.071758896 -0.06275366 -0.010769172 0.06396182
000120 4d 90 06 3c 02 90 b2 bd 1f dc c8 3c cc 3e d9 bd
       0.008213115 -0.087188736 0.024519024 -0.10607681
000130 49 61 08 3d 03 cd 97 bd b8 be d9 bd c0 b4 a9 bd
       0.033295903 -0.0741215 -0.1063208 -0.082864285
000140 5c 3a c5 3b 79 0d f6 3c c5 31 20 3d 97 ed 39 3e
       0.00601892 0.030035721 0.039109964 0.1815704
000150 0f db 74 3d ca 7d 40 bd 8d 91 f7 bc 8c 1c 25 3d
       0.059779223 -0.04699496 -0.030220771 0.040310428
000160 67 0d a6 bc ac c1 6c bd 20 fc f9 3d e0 c2 71 bb
       -0.020270063 -0.057801887 0.12206292 -0.0036889836
000170 0d 20 66 bc 80 df 41 3d a6 1a 87 bb 10 1e 53 3d
       -0.014045727 0.047332287 -0.00412305 0.05154234
000180 37 19 44 bd 3f a1 58 3d 15 b8 9e 3d c6 86 08 3e
       -0.04787561 0.05288815 0.077499546 0.13332662
000190 7e f9 f8 bd a4 65 88 bd 2f 83 b9 3d 69 4e ae bc
       -0.12156962 -0.066600114 0.090582244 -0.021277623
0001a0 b6 e1 59 bd 25 47 14 3c 80 20 5d bb 7f 12 7d 3d
       -0.05319377 0.009050165 -0.0033741295 0.061785217
0001b0 a1 69 a9 bd d2 e3 90 bd a1 ac 03 bd 67 8e a8 bd
       -0.082721 -0.07074703 -0.032147054 -0.08230286
0001c0 89 1e 03 be c9 49 d2 3d 0b 75 14 bd 1c bf 99 3d
       -0.12804617 0.1026798 -0.036244433 0.07507154
0001d0 66 94 20 bb 06 43 9e bd bb fe 18 3d 67 dd 83 bd
       -0.0024502515 -0.077276275 0.037352305 -0.064387135
0001e0 24 42 05 3d 19 b9 28 3d bd ae 01 3d 05 7a b4 bd
       0.03253378 0.041192148 0.031660784 -0.08812336
0001f0 6c ab 85 bd b9 95 0d 3b 8c ca ba 3d ca 79 23 3e
       -0.06526837 0.0021604134 0.09120664 0.15964428

fc3.weight f4 [2, 128]
000000 c1 64 16 bd d4 ba b9 be 86 f6 97 3d 51 bc ba 3d
       -0.03671718 -0.3627535 0.074200675 0.0911795
000010 e3 ac 40 be f2 06 52 be 1c 33 62 be 45 81 17 be
       -0.18815951 -0.20510462 -0.22089809 -0.14795406
000020 6b 55 af bd a8 63 88 be ec bd e6 3c fa 09 3a be
       -0.08561214 -0.26638532 0.028166734 -0.18167868
000030 87 f8 ac be d0 79 fd be ec d5 26 be 0e 19 68 be
       -0.3378336 -0.49506998 -0.16292542 -0.22665808
000040 d6 bf 04 be 04 98 bb be 63 15 78 3e 35 57 c1 bd
       -0.12963805 -0.36639416 0.24226908 -0.094404615
000050 fc 5a 70 be 17 2d aa be d2 60 df bd 0b c7 35 be
       -0.23472208 -0.33237526 -0.10907139 -0.1775171
000060 76 08 1c 3e b3 30 bb be 2e cf 04 bd db 49 88 3e
       0.15237603 -0.36560592 -0.032424144 0.26618847
000070 45 5b 0d be a2 d2 ff bc 5c 9e 47 be fa 3d 53 3e
       -0.13804348 -0.031228367 -0.19494003 0.20629111
000080 b2 3e 01 3d d1 2f 8a 3d 9d 05 e2 38 0c b7 7a be
       0.03155393 0.067474015 0.00010777565 -0.2448389
000090 55 8b 88 be a9 40 4d be 37 2e 56 be 9a a4 39 3d
       -0.26668802 -0.20044197 -0.20916067 0.045322992
0000a0 d7 15 1c bf 25 25 9f be d9 2e ff 3d 79 2e 99 be
       -0.60970825 -0.31083027 0.12460107 -0.29918268
0000b0 04 ec 6a bb 1c 44 21 3e d0 31 4e 3d 8a cf 94 be
       -0.0035846243 0.15748638 0.050340474 -0.2906459
0000c0 00 30 cc 3c 14 d2 3d 3e 20 40 a4 be 44 5e ab bd
       0.024925232 0.1853717 -0.32080173 -0.08367589
0000d0 a7 ff 43 be 7f 32 36 3b e2 22 b8 3d 13 ec 40 3d
       -0.19140492 0.0027801094 0.08991028 0.047100138
0000e0 fa 03 cb bd 0a 08 04 be 6a 98 6c be de 05 63 3e
       -0.09912868 -0.12893692 -0.23105016 0.22170207
0000f0 3f 48 21 bd 42 67 e0 be 32 63 5e be 27 55 41 bd
       -0.03937554 -0.4382878 -0.21717528 -0.04720035
000100 b8 49 3f 3e 50 55 a7 be b0 10 6d be 97 7f 25 be
       0.18680465 -0.32682276 -0.23150897 -0.16161953
000110 6e 24 26 3e 8a d5 5a be 45 33 0b 3e db 7f 89 3d
       0.16224834 -0.21370521 0.13593777 0.067138396
000120 dc 88 ea bd d4 61 09 be c7 a1 7e be 6e 9d c5 be
       -0.11451885 -0.13416225 -0.248664 -0.38596672
000130 ca 78 a2 3d 0c b9 48 3e a5 20 ef 3c 37 4f a3 3c
       0.07933195 0.1960184 0.02919037 0.019935234
000140 3a 1a 64 3e f5 8b 66 bd 9b 67 e5 3d 5c 0d 81 3d
       0.2227563 -0.056285817 0.11201402 0.06301376
000150 4b 07 40 3e 91 d8 15 bd 32 64 38 3e 36 58 b1 bd
       0.18752782 -0.036583487 0.18006971 -0.08659403
000160 29 7b 74 be 1e c6 79 be fb 6b 25 3e f2 3a f6 ba
       -0.23875107 -0.24391982 0.16154473 -0.0018785878
000170 e2 4b b3 bd a1 72 98 3d 98 82 73 3e d9 40 29 bf
       -0.08754708 0.07443739 0.23780286 -0.66114575
000180 61 60 e9 be c5 95 38 be 9b 71 90 3d bf a1 7d 3d
       -0.45581344 -0.18025883 0.070529185 0.06192183
000190 e0 75 84 be a1 c7 af bd 44 c6 3c be 8d f7 ac bd
       -0.2587118 -0.08582998 -0.18435007 -0.08445654
0001a0 dd 93 0c 3d 7b 86 31 be ae ee 0c be 2a 4b 16 3e
       0.0343207 -0.17336456 -0.13762924 0.1467711
0001b0 1a 54 bb 3d 91 68 70 be 1f 0e 27 be 8b a8 5a be
       0.091469005 -0.23477389 -0.1631398 -0.21353357
0001c0 21 61 41 bd 8b 88 cd 3a 56 f7 81 be 47 f6 b5 be
       -0.04721177 0.0015680952 -0.25384015 -0.35539457
0001d0 78 5c 8e be 6a 50 66 be 0f 6c f2 be d4 21 aa bd
       -0.27804923 -0.22491613 -0.47348067 -0.083072335
0001e0 e3 18 32 be d5 a6 ba 3e d6 8e ac be eb f2 b9 3d
       -0.17392306 0.36455408 -0.33702725 0.09079536
0001f0 d9 f6 7c be b5 4e 1d be c2 f0 d6 bd a0 58 99 3d
       -0.2470354 -0.15362056 -0.1049514 0.07487607
000200 f7 4a 15 be e8 05 ef 3b e6 9f e1 3d 0d 21 0a be
       -0.14579378 0.0072944053 0.11016826 -0.1348917
000210 f5 8d b5 bd f6 84 40 3e 94 4b 43 bb 10 dc bf be
       -0.08864967 0.1880072 -0.0029799687 -0.37472582
000220 cd fe 4d be 58 a9 db 3d 1e 66 73 3e 62 2c 8e be
       -0.2011673 0.10725659 0.23769423 -0.27768236
000230 e2 c4 d4 bd 98 e9 4d bc d5 69 6b 3d a7 aa ce 3d
       -0.10389115 -0.0125679 0.057473976 0.10091143
000240 21 36 02 be f2 92 d1 bd 4f 6c eb be a4 10 70 bd
       -0.12715961 -0.10233106 -0.4598107 -0.05860962
000250 3f 4b 94 3c 80 99 0e 3d 5a c0 a7 be e3 e7 15 3e
       0.018102286 0.034814358 -0.3276394 0.14639239
000260 63 38 91 be 12 81 29 3d 08 52 90 bd 7c 78 9b 3c
       -0.28363332 0.041382857 -0.07046896 0.01897835
000270 fe 09 14 bd e9 53 9d be ce 9d 8d be b2 4c 10 bd
       -0.03614234 -0.3072808 -0.27659458 -0.035229392
000280 22 a3 8b bd 6e 79 69 3d 09 34 32 3b 68 3a 9c 3d
       -0.068182245 0.05700057 0.002719166 0.076283276
000290 de 3a 47 bd fa 49 6e bd 5a b3 1b be 23 d8 57 bd
       -0.048640124 -0.05817602 -0.15205136 -0.05269636
0002a0 1a 6e 5f bc fc 47 84 3d 1d 0e 27 3e 3e 15 ca 3d
       -0.01363709 0.064590424 0.16313978 0.09867333
0002b0 5b a9 cc bd c8 78 6f bd e8 93 2c 3e 73 b1 38 bd
       -0.099932395 -0.058464795 0.16853297 -0.045091104
0002c0 89 8a 75 bd 49 ba e4 bd 6c 40 ed 3c 14 ca 13 be
       -0.05994657 -0.111683436 0.028961383 -0.14432555
0002d0 76 a2 1c bd 14 0d 4c be 37 cb 75 be b0 a2 98 be
       -0.038240872 -0.19926864 -0.24003302 -0.2981162
0002e0 77 06 18 be be 31 48 bd af 8c c3 bd 3f 78 4b bd
       -0.14846216 -0.048875563 -0.09548318 -0.049675222
0002f0 fe 0e be be 5f 89 09 be 56 2f 84 3b 5c 64 27 be
       -0.37120813 -0.13431309 0.004033963 -0.16346878
000300 d5 2d 13 bc 9e 77 58 bb fd ca b7 bc 6e 68 bc bd
       -0.008983095 -0.0033030282 -0.02243566 -0.09199606
000310 a5 f5 a9 bd d3 64 56 bd 51 f0 68 be 92 63 94 ba
       -0.08298806 -0.052342247 -0.22747923 -0.0011321178
000320 69 e5 25 bd 61 49 f3 be 46 2f 20 3e 8c 11 cb 3d
       -0.040501986 -0.4751692 0.15643033 0.09915456
000330 c2 b8 a0 bd 29 af 4f bd 69 64 4b be 7d 7f 83 be
       -0.0784774 -0.050704155 -0.19862522 -0.25683203
000340 45 00 ac be 7b 3a c9 3d 13 27 74 be 6f 53 42 3c
       -0.33593956 0.098256074 -0.2384303 0.011860712
000350 62 f1 a1 bd 11 95 4c be 2a 48 8c be 21 2b 0a be
       -0.07907368 -0.1997874 -0.27398807 -0.13493015
000360 b5 8b e5 bc 4c b1 98 3e 21 04 9a be 81 20 b8 ba
       -0.028020719 0.29822767 -0.30081275 -0.0014047773
000370 4c 80 8b 3d fd 1b 08 bd 20 d5 e2 bb 2a 07 1c bf
       0.0681158 -0.033229817 -0.006922379 -0.6094843
000380 cb d6 4a bd 0f db 77 be 4f 51 ae 3d 87 8b 1d bb
       -0.04952125 -0.24204658 0.08511602 -0.0024039464
000390 48 4c ea bd 4f 1e 48 3d 17 72 e8 bd eb ab 0e be
       -0.11440331 0.04885703 -0.11349886 -0.13932769
0003a0 6f 9c 1c be b5 01 cd bd 86 96 9d 3b d9 6c 80 bb
       -0.1529405 -0.10010091 0.0048092036 -0.0039192257
0003b0 7b bf 9b be 3d 85 1a 3d 8c 8d 5f be 3d 22 70 bb
       -0.30419526 0.037724722 -0.2183134 -0.0036641501
0003c0 c3 5b cd 3e 39 1e e0 3d a0 ef 5f 3d e7 aa f2 3d
       0.4010907 0.109432645 0.054671884 0.11849003
0003d0 30 5a 45 3b bc 85 4a be 34 e2 e7 bd 1a 22 aa bd
       0.003011357 -0.19777578 -0.11322442 -0.083072856
0003e0 c8 21 fc bd fa 55 43 be d2 b5 5a bb 9e 5b a4 be
       -0.12311131 -0.19075766 -0.0033372534 -0.32101148
0003f0 65 ec a2 bb 58 60 07 be bd d5 cb 3d 84 c6 04 3e
       -0.004972028 -0.13220346 0.09952877 0.12966353

fc3.bias f4 [2]
000000 0d 62 9b 3d 5e 52 f0 3c
       0.07587061 0.02933615
