checkpoint_actor0.pth (torch, 160543 bytes, 6 tensors)

fc1.weight f4 [256, 24]
0	0x3bd9b82c	0.0066442695
1	0x3e0f74df	0.14009427
2	0x3d819293	0.06326785
3	0xbd47f259	-0.048815105
4	0x3cb797e6	0.022411298
5	0xbc8d388b	-0.017238876
6	0x3d8ae106	0.06781201
7	0x3ce6f806	0.028194439
8	0x3c855dd4	0.016280092
9	0x3e4ccac9	0.19999231
10	0xbd2cc04f	-0.042175587
11	0xbe14437c	-0.14478868
12	0x3e0fb38d	0.14033337
13	0xbe078408	-0.1323396
14	0x3ca2db26	0.019879889
15	0xbdbb940c	-0.09159097
16	0xbd62493b	-0.05524562
17	0x3d6042f4	0.05475135
18	0xbc4d5b0f	-0.012533917
19	0xbd54e405	-0.05197527
20	0x3e32d3e1	0.17463638
21	0xbe03b273	-0.12861042
22	0x3d588df9	0.05286977
23	0xbdc6f2fe	-0.09714316
24	0xbdaca3de	-0.08429693
25	0x3da4c792	0.080458775
26	0xbca0def1	-0.019637557
27	0x3e14372d	0.14474173
28	0xbc50c7a1	-0.012742908
29	0xbccc51e5	-0.024941394
30	0xbc36316c	-0.0111201815
31	0x3d54f0fc	0.051987633
32	0xbdcaa8f8	-0.098955095
33	0x3c37ef17	0.011226437
34	0x3d7d5547	0.061848905
35	0x3da0213b	0.07818838
36	0x3a192df5	0.0005843335
37	0x3d3f7c19	0.046749208
38	0x3c6c634d	0.014427972
39	0x3db4bc1d	0.08824942
40	0xbd9c7ad5	-0.07640616
41	0xbd696dfe	-0.056989662
42	0xbd0557bb	-0.03255437
43	0x3d4b8269	0.049684916
44	0x3e0809e9	0.1328503
45	0x3e52ae75	0.20574363
46	0x3c4f6a03	0.0126595525
47	0x3c3a45e5	0.011369203
48	0xbde9c6c2	-0.11414863
49	0x3d475e15	0.048673708
50	0x3d64e17d	0.055879105
51	0xbce8c2a7	-0.02841313
52	0xbd04c802	-0.032417305
53	0x3d98f65e	0.07468866
54	0xbcdc40ad	-0.026886309
55	0xbda8b1ff	-0.08237075
56	0xbd05f657	-0.03270563
57	0xbce38d59	-0.02777736
58	0xbd4bd83d	-0.049766768
59	0xbdc2cf50	-0.09512198
60	0x3d877810	0.06614697
61	0x3e019ae6	0.12656745
62	0xbcfa89b8	-0.030583248
63	0xbd9a2fbe	-0.07528637
64	0xbcc6123c	-0.024178617
65	0xbd495846	-0.04915645
66	0xbd9a6d3e	-0.075403675
67	0xbd007ffe	-0.031372063
68	0x3e21b14a	0.15790287
69	0x3e28994e	0.16464731
70	0xbcedc3b5	-0.029023984
71	0x3d33346e	0.043751173
72	0xbcede9c6	-0.029042136
73	0x3d746048	0.059662133
74	0xbca3bfe6	-0.019988965
75	0xbe063264	-0.1310516
76	0x3d9b43e5	0.07581309
77	0xbd61143c	-0.054950938
78	0x3b7b032c	0.003830145
79	0xbe0d5302	-0.13801196
80	0xbd9f0049	-0.07763726
81	0x3bf41180	0.007448375
82	0x3ae59171	0.0017514658
83	0xbd962c7a	-0.07332702
84	0x3de09210	0.10965359
85	0xbd87e8c7	-0.06636196
86	0x3d24a845	0.040199537
87	0xbac234d7	-0.0014816773
88	0xbc986291	-0.018601688
89	0x3bde3c14	0.006782064
90	0xbdeb6107	-0.11493116
91	0xbdca1133	-0.09866562
92	0x3d41ace3	0.04728402
93	0x3d1d593b	0.038415175
94	0xbc97230a	-0.018449325
95	0xbd8d88cd	-0.06910858
96	0xbdb59142	-0.08865596
97	0xbe40147e	-0.18757817
98	0x3d6d64e0	0.05795753
99	0x3ca716e9	0.020396667
100	0x3d2aa9de	0.041665904
101	0xbbd09764	-0.0063657034
102	0xbd43bb3e	-0.04778599
103	0xbd5454fc	-0.05183886
104	0xbd831dbe	-0.06402157
105	0xbe1c536c	-0.15266198
106	0x3d934790	0.07191384
107	0xbdb74b02	-0.089498535
108	0x3e18be35	0.14916308
109	0x3db909d2	0.09035076
110	0x3dc04cfa	0.09389682
111	0xbcb5c12a	-0.022186834
112	0x3cf9caf8	0.03049229
113	0xbe086930	-0.13321376
114	0x3d005f96	0.031341158
115	0xbdef72aa	-0.11691792
116	0x3e082657	0.13295875
117	0x3e0522e1	0.13001586
118	0x3d8f546b	0.06998523
119	0xbd47539b	-0.048663717
120	0x3d140524	0.036137715
121	0xbd815c54	-0.06316438
122	0xbd56e513	-0.052464556
123	0x3c716f4e	0.01473601
124	0xbd69b122	-0.057053693
125	0x3c4db42f	0.012555166
126	0x3cd2f008	0.025749221
127	0x3d0705d7	0.032964554
128	0xbc045bc2	-0.008078517
129	0xbda5a583	-0.080882095
130	0x3b714a4d	0.0036817968
131	0xbd34319e	-0.04399263
132	0xbe03d3e7	-0.12873803
133	0x3d87e8f0	0.06636226
134	0x3d91f971	0.07127655
135	0xbc939ace	-0.018018153
136	0x3a48eb57	0.0007664463
137	0xbe607589	-0.21919836
138	0x3d4bf575	0.049794633
139	0x3db1e407	0.08686071
140	0xbc5059d6	-0.012716731
141	0x3e4cf187	0.2001401
142	0x3d6db7db	0.058036666
143	0x3d787bfd	0.06066512
144	0xbce85e35	-0.028365234
145	0x3e554509	0.20827116
146	0xbd4db1de	-0.050218455
147	0xbd29521d	-0.041338075
148	0x3d3c047d	0.045902718
149	0xbc29c44a	-0.01036174
150	0xbcba8b33	-0.022771453
151	0x3d456d41	0.048199896
152	0x3d6289b8	0.05530712
153	0x3e0bcca7	0.13652287
154	0x3cbd1d5c	0.023085289
155	0xbe063d0d	-0.13109227
156	0xbd277c42	-0.040889986
157	0x3e3fe742	0.18740562
158	0x3af155f8	0.0018412462
159	0xbdfb9c3a	-0.12285657
160	0xbd6439d4	-0.05571921
161	0x3d37614d	0.044770528
162	0x3d1232e0	0.03569305
163	0xbd39d226	-0.04536643
164	0xbc91b7bc	-0.017787807
165	0x3e91b0a8	0.2845509
166	0x3d09c9c4	0.033639684
167	0xbc6f3970	-0.0146010965
168	0x3d1996dd	0.03749739
169	0x3d8a9813	0.06767287
170	0xbcba5ab3	-0.022748327
171	0x3df878c3	0.121324085
172	0xbdd3bfb5	-0.103392996
173	0xbd3aaf5c	-0.045577392
174	0x3ba92d6e	0.0051628863
175	0x3d9aa5bd	0.07551143
176	0x3cf0fc75	0.029417256
177	0x3ddac265	0.10681609
178	0xbd51de17	-0.051237192
179	0xbe0c2947	-0.13687621
180	0xbe12c219	-0.14331855
181	0x3d122f4c	0.035689637
182	0xbd1aeead	-0.037825275
183	0xbe047947	-0.12936889
184	0x3ca04d2a	0.019568045
185	0x3cfb52f1	0.030679198
186	0xbd13fe66	-0.036131285
187	0xbcc30b5f	-0.023809133
188	0xbe10a77a	-0.14126387
189	0x3ddf88b1	0.10914744
190	0x3d258a02	0.040414818
191	0xbd315897	-0.043297376
192	0xbdddbbdc	-0.10826847
193	0x3df8fc45	0.121574916
194	0x3db0ff96	0.08642499
195	0xbdd7887f	-0.105240814
196	0x3d3bff2d	0.04589765
197	0x3d9f47f2	0.07777394
198	0x3db60630	0.08887899
199	0xbe05bcf9	-0.13060369
200	0x3c74a41e	0.014931707
201	0x3deb6d4a	0.114954546
202	0x3cd345eb	0.025790175
203	0xbe6cee1a	-0.23137704
204	0x3db9100f	0.09036266
205	0x3d261cfb	0.04055498
206	0x3d3c6e1c	0.046003446
207	0xbe5397c6	-0.20663366
208	0x3d821d6f	0.0635327
209	0x3d0c3de3	0.034238707
210	0x3d364498	0.04449901
211	0xbe5a32ee	-0.2130849
212	0x3df86f8a	0.121306494
213	0x3c983081	0.018577816
214	0xbd07ea86	-0.033182643
215	0xbe8f0846	-0.27936
216	0x3de00af3	0.109395884
217	0xbd0a1ef9	-0.033720944
218	0xbc336b6b	-0.010950903
219	0x3d90f412	0.07077803
220	0xbca62a53	-0.020283854
221	0x3d15129f	0.03639471
222	0xbc9cae0a	-0.019125957
223	0x3db4fa90	0.088368535
224	0x3c2731da	0.010204757
225	0xbdcc65ae	-0.09980331
226	0x3d452f56	0.048140846
227	0x3c11c219	0.008896374
228	0xbcef555b	-0.029215505
229	0x3df99139	0.12185902
230	0x3b3c3c67	0.0028722526
231	0xbd7b80d6	-0.061402164
232	0x3d44c63e	0.04804062
233	0xbe32689e	-0.17422721
234	0xbcbdd6c1	-0.023173692
235	0x3dc82e5c	0.09774467
236	0xbd7e1af7	-0.062037434
237	0x3e247473	0.16060047
238	0x3d971a84	0.07378104
239	0x3d92af48	0.071623385
240	0x3d1825c2	0.037145384
241	0x3e378456	0.17921576
242	0xbd0aa2e5	-0.033846755
243	0xbd19a64c	-0.03751211
244	0x3e8de859	0.2771633
245	0xbe107b4b	-0.14109533
246	0xbd9c1bad	-0.07622466
247	0x3c9592e3	0.018258518
248	0x3d3e4fb8	0.046462744
249	0x3deffcf0	0.11718166
250	0xbcb23bdd	-0.02175706
251	0x3cbb0f79	0.022834526
252	0x3e97278f	0.29522368
253	0xbdc8e695	-0.09809605
254	0xbd8145ab	-0.06312116
255	0x3d3586cf	0.044318017

fc1.bias f4 [256]
0	0xbd1430c1	-0.036179308
1	0x3cf9e426	0.030504297
2	0xbbf9edea	-0.0076272385
3	0x3cce36bd	0.025172586
4	0x3be022b3	0.006840074
5	0x3d69a66f	0.05704349
6	0x3d70e92c	0.05881612
7	0x3da303b2	0.07959689
8	0xbcdb5d9e	-0.026778039
9	0x3db38747	0.087660365
10	0xbd6ddb69	-0.058070574
11	0xbcb89a27	-0.022534443
12	0xbdc0bff2	-0.09411611
13	0xbd9414e2	-0.072305456
14	0xbb5162dd	-0.0031949796
15	0x3b08e7c5	0.0020890099
16	0xbc54a0f3	-0.012977826
17	0xbd88f431	-0.06687201
18	0xbd4e717c	-0.050401196
19	0xbd1eb25f	-0.038744327
20	0xbcde7b6b	-0.02715846
21	0x3d2222f8	0.03958413
22	0x3d38e944	0.045144334
23	0xbd11d7cf	-0.0356062
24	0xbd51de55	-0.051237423
25	0xbcb29a37	-0.021802051
26	0xbce89b6d	-0.028394425
27	0xbd23d180	-0.039994717
28	0xbb42644f	-0.002966184
29	0xbd7f6ec3	-0.06236149
30	0x3dba3e8d	0.09093962
31	0xbde6cdde	-0.11269735
32	0x3d814b72	0.06313218
33	0xbe20cf23	-0.15704016
34	0x3d27390c	0.04082589
35	0xbbbe4190	-0.0058061555
36	0xbe03ce2d	-0.12871619
37	0xbd97f5f2	-0.07419957
38	0x3ca24ec5	0.01981295
39	0x3d09878f	0.033576544
40	0x3cb2d58b	0.02183034
41	0xbd3dcd20	-0.0463382
42	0xbe0958bb	-0.13412754
43	0x3ccb7be0	0.024839342
44	0x3d9ab3cf	0.07553827
45	0x3d84be32	0.064815894
46	0x3cb1e9fb	0.021718016
47	0xbcf881d3	-0.030335343
48	0xbd1b4f56	-0.037917458
49	0xbd9a66bf	-0.075391285
50	0xbc4f84eb	-0.012665967
51	0xbdc0d5d3	-0.09415784
52	0x3ccbcdfc	0.024878494
53	0xbd64cdbb	-0.055860262
54	0x3c6360ad	0.01387803
55	0xbb9504a3	-0.004547672
56	0x3c5bbd40	0.01341182
57	0x3d508980	0.05091238
58	0xbde4f17f	-0.11178874
59	0xbda5a8e5	-0.08088855
60	0xbb165cfb	-0.0022943604
61	0x3dce3a34	0.10069695
62	0x3d5eeee5	0.054427046
63	0x3d9f60d7	0.077821426
64	0xbd0693da	-0.032855846
65	0x3d30dd50	0.04317981
66	0x3cbac91c	0.022800975
67	0x3bd98f09	0.0066393656
68	0xbcc09fee	-0.02351376
69	0xbd33444f	-0.043766316
70	0xbd436d6b	-0.04771177
71	0xbd7a7e35	-0.061155517
72	0x3c912df3	0.017722106
73	0x3d7ce05d	0.061737407
74	0xbd82f306	-0.06394009
75	0x3d67de82	0.056608684
76	0xbd76bd60	-0.060239196
77	0xbc00d4e8	-0.007863261
78	0xbb0b2a7b	-0.0021235037
79	0xbd147417	-0.036243524
80	0x3bdb76cc	0.0066975113
81	0x3cc94d4a	0.024572987
82	0x3d328650	0.04358512
83	0xbc8dbe96	-0.017302793
84	0x3d7832c8	0.060595304
85	0xbde00795	-0.10938946
86	0xbd528b23	-0.051402222
87	0xbccff24a	-0.025384087
88	0xbd04f7fa	-0.03246305
89	0x3c510e5d	0.012759772
90	0x3d637d51	0.055539433
91	0xbc94376e	-0.018092837
92	0xbdfcd316	-0.12344949
93	0xbd8179a1	-0.06322027
94	0xbcd72479	-0.026262509
95	0x3d3be08f	0.045868453
96	0x3dd4f78b	0.103987776
97	0xbd79be27	-0.06097236
98	0x3d0f4a1f	0.034982797
99	0xbdcdd91b	-0.10051175
100	0x3d048f3f	0.032363173
101	0x3dcccfcf	0.10000574
102	0x3b7c28b9	0.003847642
103	0x3ba8d6e9	0.0051525724
104	0x39ce4465	0.0003934234
105	0xbba5908c	-0.0050526317
106	0x3c9bb849	0.019008772
107	0x3caa7482	0.020807508
108	0xbcabd241	-0.02097428
109	0x3cde46c1	0.027133347
110	0xbe2c7b17	-0.1684383
111	0x3c40db83	0.011771086
112	0x3c558149	0.013031312
113	0x3c43dc04	0.011954311
114	0xbcbfd1af	-0.023415415
115	0x3d851477	0.06498044
116	0xba238066	-0.00062370894
117	0x3d57c616	0.052679144
118	0xbcacc5d5	-0.021090427
119	0xbd857191	-0.06515802
120	0x3d9af8c8	0.075669825
121	0xbe185601	-0.14876558
122	0xbe1d2462	-0.1534591
123	0xbce5fae5	-0.028073737
124	0xbd483335	-0.04887696
125	0x3d58bdb1	0.05291528
126	0x3c917dee	0.017760243
127	0x3d2b3142	0.041795023
128	0xbd3f967f	-0.046774384
129	0x3d5a920d	0.05336194
130	0xbc0f5357	-0.008747897
131	0x3d82f1a0	0.063937426
132	0x3d604247	0.054750707
133	0x3df1baee	0.11803232
134	0x3ce0f84f	0.027462153
135	0x3ad4a939	0.0016224749
136	0xbd2f61a2	-0.04281772
137	0xbd35d47c	-0.044392094
138	0xb98cab2f	-0.00026830423
139	0xbcb630bf	-0.02224004
140	0xbd282ead	-0.04106014
141	0x3ce4e0fe	0.027939316
142	0x3d09a025	0.03359999
143	0xbd9b1a95	-0.075734295
144	0x3d378cf8	0.044812173
145	0x3d344b43	0.044017088
146	0xbcbb46ae	-0.022860851
147	0x3d3582b6	0.04431411
148	0xbc2d477e	-0.010576127
149	0x3bed3105	0.0072385096
150	0x3dddf270	0.10837257
151	0xbd89b94e	-0.06724797
152	0xbd41c92e	-0.047311
153	0xbca63892	-0.020290647
154	0xbbfaafc5	-0.007650348
155	0x3a56860e	0.0008183428
156	0x3d03d53c	0.032185778
157	0x3d5e9ef1	0.054350797
158	0x3d99a4f4	0.075021654
159	0x3d44111a	0.04786787
160	0x3d80000e	0.062500104
161	0xbe02f600	-0.12789154
162	0x3d82c31f	0.06384873
163	0xbc61f177	-0.01379048
164	0x3e070bba	0.13188067
165	0xbdda540e	-0.106605634
166	0x3c16c20c	0.009201538
167	0x3b2581da	0.00252544
168	0xbce629e4	-0.028096147
169	0x3d7e25cf	0.062047776
170	0xbc0380ab	-0.008026282
171	0xbd712eb8	-0.058882445
172	0xbd4ccbd4	-0.049999073
173	0xbb11552e	-0.0022176015
174	0xbd1a8c2e	-0.037731342
175	0xbdf6dc47	-0.12053733
176	0x3d1be960	0.03806436
177	0xbcb154c0	-0.021646857
178	0x3c72e1d0	0.014824346
179	0x3c7e32aa	0.015515009
180	0x3dc58034	0.096435934
181	0x3d8caacf	0.06868517
182	0x3ddb525f	0.107090704
183	0x3c2586a5	0.010102903
184	0x3d86ad69	0.06576044
185	0x3d8f05e9	0.06983549
186	0x3d29e3f3	0.041477155
187	0x3d57ec22	0.05271543
188	0x3cbc1143	0.02295745
189	0x3d91163d	0.0708432
190	0xbdfc5687	-0.12321191
191	0x3d022ba6	0.031779908
192	0xbc647a3a	-0.013945157
193	0xbd1c8eb8	-0.038222045
194	0x3c6cd082	0.014454009
195	0x389cc5c3	7.475496e-05
196	0x3d23f75a	0.040030815
197	0x3d434003	0.04766847
198	0x3d797126	0.060898922
199	0xbd2fff05	-0.042967815
200	0x3c959afa	0.018262375
201	0x3c8fea46	0.017567765
202	0x3cff802c	0.031189047
203	0xbcccd158	-0.025002167
204	0x3d9c7727	0.07639914
205	0xbc287560	-0.010281891
206	0xbd9c15a9	-0.07621319
207	0x3dba0374	0.0908269
208	0xbdc5494c	-0.09633121
209	0x3b0307a9	0.001999358
210	0xbd79155c	-0.060811386
211	0x3d80712f	0.06271588
212	0xbbb34a96	-0.005471538
213	0x3d521fa3	0.051299702
214	0x3c51c564	0.012803409
215	0x3c1d1cc0	0.009589374
216	0x3daa208a	0.083069876
217	0x3d045c00	0.0323143
218	0xbde243ca	-0.11048086
219	0xbdac16e3	-0.08402803
220	0xbc30b490	-0.010785237
221	0x3d3fd406	0.04683306
222	0xbc9817ad	-0.018565977
223	0x3e1319fd	0.14365382
224	0xbc8446a0	-0.016146958
225	0xbc0c1477	-0.008549801
226	0xbcc94550	-0.024569184
227	0x3dd4b1c2	0.10385467
228	0xbd907ebb	-0.07055422
229	0xbdd0e077	-0.10199063
230	0x3d9a3904	0.07530406
231	0x3cafe91e	0.021473464
232	0xbce1a67f	-0.027545212
233	0xbd020886	-0.03174641
234	0x3c11f549	0.008908578
235	0x3d1fb11c	0.038987264
236	0xbd9c0cce	-0.0761963
237	0xbcf90236	-0.030396562
238	0x3d8eb6d7	0.06968468
239	0x3d214c6a	0.039379515
240	0xbd927897	-0.07151907
241	0xbdacb6ac	-0.084332794
242	0x3cfac6bd	0.030612344
243	0xbb82a9f1	-0.0039875438
244	0x3c29b081	0.010357023
245	0x3d7a9991	0.06118161
246	0x3dbb9b7e	0.09160517
247	0xbdb0ccfe	-0.08632849
248	0xbd00a88d	-0.031410743
249	0xbccba5cf	-0.024859337
250	0x3dab7a67	0.08372956
251	0xbd2b846f	-0.041874345
252	0xbdcff996	-0.101550266
253	0x3d0a34da	0.03374181
254	0xbd4dde2e	-0.050260715
255	0x3cc8503c	0.024452321

fc2.weight f4 [128, 256]
0	0xbdd9fad2	-0.10643543
1	0xbdbd9b68	-0.09258157
2	0xbcf2b0a1	-0.029625239
3	0xbd26ac48	-0.040691644
4	0xbd897d05	-0.06713299
5	0x3d84f9e4	0.06492975
6	0x3db0f504	0.08640483
7	0x3db22a1d	0.08699439
8	0xbcabab30	-0.020955652
9	0x3d4d0984	0.050057903
10	0x3c31c4c6	0.010850137
11	0xbe24626f	-0.16053174
12	0x3c0d011a	0.00860622
13	0xbbe93940	-0.0071174204
14	0x3d077cbe	0.033077948
15	0x3db05040	0.086090565
16	0xbd91c08d	-0.07116804
17	0xbd757206	-0.059923194
18	0x3cb1131b	0.021615556
19	0x3dc3eadb	0.095662795
20	0xbdabe13a	-0.08392568
21	0xbe52be32	-0.20580366
22	0xbd8d97c8	-0.069137156
23	0x3b5b3eb6	0.0033454127
24	0x3daf1035	0.08548013
25	0xbe408750	-0.18801618
26	0xbd3b3c9d	-0.045712102
27	0x3cc34488	0.02383639
28	0x3e0339fd	0.1281509
29	0xbdcb7f0a	-0.0993634
30	0x3d322313	0.04349048
31	0xbcc7b8ca	-0.024380106
32	0xbcee959b	-0.029124072
33	0xbc154057	-0.009109578
34	0xbc4b18bd	-0.012396035
35	0xbc1d7ffc	-0.009613033
36	0xbe479842	-0.19491675
37	0xbddbd2cf	-0.10733568
38	0x3cad3014	0.02114109
39	0x3d2366cd	0.03989296
40	0x3d963aa0	0.073354006
41	0xbda2ea3d	-0.07954834
42	0xbe7fecee	-0.24992725
43	0x3e37beb5	0.17943843
44	0x3ccb7c7d	0.024839634
45	0xbea129b4	-0.3147713
46	0x3d88cf57	0.06680172
47	0x3dfd3c0e	0.1236497
48	0x3ba41f07	0.0050085816
49	0xbdc307b7	-0.09522956
50	0xbd758aae	-0.05994671
51	0x3bd6e558	0.0065581016
52	0xbd133ecd	-0.035948563
53	0xbd7de6f4	-0.061987832
54	0xbdc882d3	-0.09790578
55	0xbe0fdc3f	-0.14048861
56	0x3caef9f0	0.021359414
57	0x3d6a3481	0.057178978
58	0x3933585d	0.00017103688
59	0xbe1f6111	-0.15564372
60	0x3c8e8840	0.017398953
61	0xbda11f64	-0.078673154
62	0xbd0d5f97	-0.03451499
63	0x3ced44af	0.028963415
64	0x3c47e6ee	0.012201054
65	0x3cef6948	0.029225007
66	0xbb8e03a9	-0.0043339324
67	0x3d2052a5	0.039141316
68	0xbb87e182	-0.0041467557
69	0x3d0e4a60	0.0347389
70	0xbe012672	-0.12612322
71	0x3d79019c	0.06079255
72	0xbd9cfe0b	-0.07665642
73	0xbdfe79cb	-0.12425574
74	0xbdd4bc99	-0.10387535
75	0x3dc21af3	0.094777964
76	0xbcedbb6f	-0.02902004
77	0x3d99cfa0	0.075103045
78	0xbe1c0c19	-0.1523899
79	0xbca280c1	-0.019836785
80	0xbdce1c03	-0.100639366
81	0x3c37c861	0.011217208
82	0x3dda71cc	0.10666236
83	0x3d303765	0.04302158
84	0x3cecd108	0.028908268
85	0xbc845f25	-0.01615865
86	0x3da4b39f	0.080420725
87	0xbbc427fd	-0.0059862123
88	0xbd568b70	-0.05237907
89	0x3d42eee5	0.04759111
90	0x3de2a07c	0.11065766
91	0xbda60d9f	-0.08108067
92	0xbd1ff3f3	-0.039051007
93	0x3dbef31e	0.09323715
94	0x3da3274e	0.07966481
95	0xbc80a611	-0.015704187
96	0xbd5eca1d	-0.05439197
97	0xbc20d728	-0.009816922
98	0xbc08e91a	-0.008356357
99	0xbda59340	-0.08084726
100	0x3d2e3cab	0.042538326
101	0xbd2fd19a	-0.0429245
102	0x3d88a24f	0.06671583
103	0xbc4f98af	-0.01267068
104	0xbd8da01a	-0.069153026
105	0x3e3392ac	0.1753642
106	0x3d40fdb9	0.04711697
107	0xbd9bba01	-0.07603837
108	0xbe1aaac6	-0.15104207
109	0x3cd301d3	0.025757706
110	0x3d0e4de4	0.03474225
111	0x3da32477	0.079659395
112	0xbd29fbdb	-0.041499954
113	0xbb190b42	-0.0023352657
114	0xbc714f9d	-0.014728454
115	0x3dc62db0	0.09676683
116	0xbd2b5a62	-0.041834243
117	0xbd8757ab	-0.06608518
118	0x3d1ba7eb	0.038001936
119	0x3d467c2e	0.04845827
120	0xbd2c86cd	-0.042120744
121	0xbd929dbf	-0.07158994
122	0xbe0e79e1	-0.1391368
123	0xbdc3e8a1	-0.09565855
124	0xbbf6115a	-0.0075093927
125	0x3d2b7986	0.04186394
126	0x3e66cdb5	0.22539409
127	0x3cdda3a7	0.027055575
128	0x3cafd757	0.021464987
129	0xbe1455da	-0.14485875
130	0x3dda9771	0.106734164
131	0x3c136bf4	0.008997906
132	0x3dff24aa	0.12458165
133	0x3d54c0aa	0.05194155
134	0x3e059b2e	0.13047478
135	0xbd3c9242	-0.04603792
136	0xbd2b9f24	-0.041899815
137	0x3d857c6a	0.06517871
138	0x3dc2a9fd	0.09505079
139	0xbd8f4124	-0.069948465
140	0xbaefc425	-0.0018292709
141	0x3e0f318c	0.13983744
142	0x3ca90b8e	0.020635393
143	0x3d9f2062	0.077698484
144	0xbdd91b1e	-0.10600875
145	0x3d3eca42	0.046579607
146	0x3e3505f3	0.1767805
147	0x3d29c602	0.0414486
148	0x3c8ed1e9	0.017434077
149	0x3db8bc93	0.09020343
150	0xbd9daab6	-0.07698576
151	0x3dc7f640	0.09763765
152	0xbd815482	-0.06314947
153	0x3dfcce7e	0.12344073
154	0x3d510371	0.051028673
155	0xbd8c1022	-0.068390146
156	0xbd989966	-0.074511334
157	0x3d2f0cb4	0.042736724
158	0x3e18eff4	0.14935285
159	0xbe3ba6df	-0.18325375
160	0x3dcfc8ff	0.10145759
161	0x3da66bac	0.081260055
162	0x3b803adf	0.003913268
163	0xbce8c2d1	-0.028413208
164	0x3db46fb3	0.088103674
165	0x3d90ba81	0.07066823
166	0x3d92a74d	0.07160816
167	0x3c575a3c	0.013144072
168	0xbe13c476	-0.14430413
169	0xbbd1cc92	-0.0064025605
170	0xbdbed605	-0.09318165
171	0x3cc8a4ea	0.0244927
172	0x3e5c44a8	0.21510565
173	0xbe2e7e47	-0.17040358
174	0xbc918085	-0.017761478
175	0x3d70ff65	0.058837313
176	0xbdb8bf23	-0.090208314
177	0xbd6fe433	-0.058567237
178	0x3bcb98f5	0.0062133023
179	0x3d84d0dd	0.0648515
180	0x3dc926ea	0.098218754
181	0x3cd93ab3	0.026517248
182	0x3d24db26	0.04024806
183	0x3de4fcfd	0.11181066
184	0x3df1d986	0.118090674
185	0xbe52e157	-0.20593773
186	0x3cf0f849	0.029415267
187	0xbd6dfb96	-0.05810126
188	0x3da489f5	0.08034126
189	0xbcaaecb9	-0.020864831
190	0x3ce78849	0.028263228
191	0x3deb1f8e	0.11480628
192	0x3d9d174d	0.0767046
193	0x3db0cc7a	0.08632751
194	0x3e01638d	0.12635632
195	0x3d3da521	0.046300057
196	0xbdb85829	-0.0900119
197	0xba705bd3	-0.00091689563
198	0xbc62f43c	-0.013852175
199	0xbe058614	-0.13039428
200	0xbd4cb6e4	-0.049979106
201	0x3e00c712	0.1257594
202	0xbc392c92	-0.01130213
203	0xbcd6ad38	-0.026205644
204	0x3ccacebb	0.02475678
205	0x3df73bfd	0.12071989
206	0x3cf5a6b9	0.029986726
207	0x3d97e615	0.074169315
208	0xbdf43875	-0.11924831
209	0xbded5b27	-0.115896516
210	0xbe13377e	-0.14376637
211	0xbdc9896a	-0.09840663
212	0xbdb55ccd	-0.08855591
213	0x3e1f8ef2	0.15581873
214	0xbc22237d	-0.009896156
215	0x3d37bd4c	0.044858262
216	0x3d80232e	0.0625671
217	0x3d914aca	0.07094343
218	0xbda67393	-0.08127513
219	0xbdfdf83e	-0.12400864
220	0x3c1a4649	0.009416171
221	0x3e20b2b6	0.15693173
222	0xbcec2dfe	-0.028830525
223	0xbd9ca4b6	-0.076486036
224	0xbcb30dce	-0.021857169
225	0xbc02cc1b	-0.007983233
226	0xbe55f8e3	-0.20895724
227	0xbd5e952e	-0.054341488
228	0x3dee8bc9	0.11647756
229	0x3c69a9e2	0.014261695
230	0x3d980ed0	0.074247
231	0x3d5e7dc5	0.054319162
232	0x3dd2e2b7	0.10297149
233	0xbe0e893f	-0.13919543
234	0xbd0cac18	-0.03434381
235	0xbe1db8ed	-0.15402575
236	0xbd8bc1a1	-0.06824041
237	0x3de122de	0.109929785
238	0x3d2ff6a3	0.04295982
239	0x3e332339	0.17493905
240	0xbe012334	-0.12611085
241	0xbd90d160	-0.07071185
242	0xbe59b81b	-0.21261637
243	0x3cdc0ede	0.026862558
244	0x38dbabc4	0.000104747276
245	0x3d9cd30a	0.0765744
246	0x3c389f64	0.01126847
247	0x3de75db2	0.11297168
248	0x3d3bccb5	0.04584952
249	0xbdca0d9c	-0.09865877
250	0x3b91af67	0.0044459584
251	0x3de6311e	0.11239837
252	0xbe913611	-0.28361562
253	0xbe199b15	-0.15000565
254	0xbd81f493	-0.06345477
255	0xbd8d751f	-0.06907105

fc2.bias f4 [128]
0	0xbd10d43e	-0.03535866
1	0x3cf494b8	0.02985607
2	0xbc0faeb1	-0.008769677
3	0xbc9d7dcd	-0.019225026
4	0xbb6ffc0e	-0.0036618742
5	0x3df6d972	0.12053193
6	0xbcd3ef60	-0.025870979
7	0x3d990033	0.07470741
8	0xbd535332	-0.051593013
9	0xbc6592ec	-0.01401208
10	0x3da7ee2b	0.08199724
11	0x3db94cc7	0.09047847
12	0x3c716e4a	0.014735768
13	0x3bef94cf	0.0073114405
14	0xbc111b19	-0.008856558
15	0xbb93f496	-0.004515241
16	0xbbec1a5f	-0.007205292
17	0x3cb36524	0.021898814
18	0xbd5e665a	-0.05429683
19	0xbcf56e36	-0.02995978
20	0x3b3a1526	0.0028393953
21	0x3d85f05b	0.06539985
22	0xbde06c16	-0.10958116
23	0x3e26376b	0.16232078
24	0x3d2d6145	0.04232909
25	0xbc24612e	-0.010032935
26	0xbd0a9583	-0.03383399
27	0xbd98ade8	-0.07455045
28	0xbc625d99	-0.013816261
29	0xbbc38777	-0.0059670764
30	0x3c8f87bf	0.017520783
31	0x3cd87cfc	0.026426785
32	0xbddc48ac	-0.107560486
33	0x3d275c7b	0.04085968
34	0x3d68fcb7	0.056881633
35	0x3d66c76a	0.05634252
36	0xbcb739b4	-0.022366382
37	0x39b68b75	0.0003481765
38	0x3c9108c6	0.017704379
39	0x3c5ead90	0.013591185
40	0xbc0f727a	-0.008755321
41	0x3e005bf4	0.12535077
42	0x3cb2b85f	0.02181643
43	0xbd62e5cd	-0.055394936
44	0x3e26827d	0.16260715
45	0x3cb3368d	0.021876598
46	0x3d4007fb	0.04688261
47	0xbd097248	-0.033556253
48	0x3db940e6	0.090455815
49	0xbc0baf0e	-0.008525623
50	0xbd914e5c	-0.07095024
51	0x3d8e5b4e	0.06951009
52	0xbd0370dc	-0.032090053
53	0x3cbdfd4b	0.023192069
54	0x3b9c95b4	0.004778588
55	0x3d485dd2	0.0489176
56	0xbdb27947	-0.08714538
57	0x3de992e9	0.11404974
58	0x3dc3d23f	0.09561586
59	0xbd97ad56	-0.07406108
60	0x3cb4cffd	0.022071833
61	0xbc21c470	-0.0098734945
62	0x3dc4bb92	0.09606089
63	0x3d9375e5	0.07200221
64	0xbdd90dbf	-0.10598325
65	0xbcf4d057	-0.0298845
66	0xbd78a2f4	-0.06070228
67	0x3dbb835a	0.09155913
68	0xbe01f1ce	-0.12689897
69	0x3d0f8118	0.035035223
70	0x3df3df35	0.11907808
71	0xbcb6f4cf	-0.02233353
72	0x3dcfd93a	0.101488546
73	0xbde2d788	-0.110762656
74	0x3cc6947e	0.024240728
75	0xbc194a11	-0.009356038
76	0xbcaad655	-0.020854155
77	0xbdcc6cda	-0.09981699
78	0xbdcb2644	-0.09919408
79	0x3cfcc23b	0.030854335
80	0xbd3a9e79	-0.045561288
81	0x3d9c1fa1	0.0762322
82	0x3d4b703b	0.04966758
83	0x3dc3eeac	0.095670074
84	0x3d834d25	0.064111985
85	0xbc30f7d4	-0.010801274
86	0x3d869841	0.06572009
87	0x3db932b3	0.09042873
88	0x3d4c3f44	0.049865022
89	0x3d182ef7	0.037154164
90	0x3d705bb4	0.058681205
91	0x3cb87d80	0.02252078
92	0xbc27334f	-0.010205104
93	0x3d84ab57	0.06477993
94	0xbce94d16	-0.02847914
95	0x3d8ddaea	0.0692652
96	0xbd268602	-0.040655144
97	0x3da779ee	0.08177553
98	0xbc2e76a4	-0.010648403
99	0x3d486107	0.048920657
100	0xbcb75515	-0.022379437
101	0xbb8f9533	-0.0043817996
102	0x3d4fd988	0.050744563
103	0xbd132391	-0.03592259
104	0xbd9ebf8b	-0.07751378
105	0x3d6a7c4b	0.05724744
106	0x3d6982ba	0.057009436
107	0x3dc29f50	0.09503043
108	0x3aa9163c	0.0012900303
109	0xbd12fe22	-0.03588689
110	0x3c9a2717	0.018817468
111	0xbd16dcda	-0.036831714
112	0x3cdd4919	0.027012395
113	0x3d94f2f2	0.07272901
114	0x3cf517df	0.02991861
115	0x3dc4276a	0.0957783
116	0xbc0bbaf6	-0.008528462
117	0x3c880c15	0.016607324
118	0x3ddf3eaa	0.10900624
119	0x3d330d3e	0.0437138
120	0x3dab1b04	0.08354762
121	0x3dfd19b0	0.12358415
122	0x3d85d56e	0.06534849
123	0xbdfbf73b	-0.12303015
124	0xbd1b26b6	-0.037878715
125	0xbba245f7	-0.004952188
126	0x3e0bb401	0.13642885
127	0x3d9a774d	0.07542286

fc3.weight f4 [2, 128]
0	0xbdfb7d03	-0.122797035
1	0xbdcb7e89	-0.09936244
2	0x3d89cf0d	0.06728945
3	0xbcde2834	-0.02711878
4	0x3e44669f	0.19179772
5	0xbdd84a95	-0.105611004
6	0xbe19f9af	-0.15036653
7	0xbddb49bf	-0.10707425
8	0xbb08a330	-0.002084922
9	0x3ddfc555	0.1092631
10	0x3d959552	0.07303871
11	0xbe699a44	-0.22812754
12	0x3d90a026	0.07061796
13	0xbe144efc	-0.14483255
14	0x3d842e91	0.06454194
15	0xbdc9acff	-0.098474495
16	0xbe142c68	-0.14470065
17	0xbe5f47a0	-0.21804667
18	0xbe5de722	-0.21670201
19	0xbe9e2d29	-0.3089383
20	0x3e02c445	0.12770183
21	0xbe067442	-0.13130286
22	0xbe1e1a79	-0.15439786
23	0x3dd4fde4	0.10399988
24	0xbe13514a	-0.14386478
25	0xbe254a6d	-0.16141672
26	0xbe944b84	-0.28963864
27	0x3c052598	0.008126639
28	0xbdc4e556	-0.09614055
29	0xbe295507	-0.16536342
30	0xbda04f82	-0.07827665
31	0x3d14e75b	0.03635345
32	0x3e2f5baf	0.17124818
33	0x3dc83d74	0.09777346
34	0xbe3186c6	-0.17336568
35	0xbe8ced1b	-0.27524647
36	0xbef33aec	-0.4750589
37	0xbe8a31dd	-0.26991168
38	0xbecf9e0e	-0.40550274
39	0xb83cc57e	-4.500662e-05
40	0xbdc20c88	-0.094750464
41	0xbdd5810d	-0.10425005
42	0xbdf4f56e	-0.119608745
43	0xbee3e85c	-0.44513214
44	0x3dc461a6	0.095889375
45	0xbe4dc0d8	-0.20093095
46	0x3ddb12b8	0.1069693
47	0xbe81d1b8	-0.25355315
48	0x3da635c6	0.08115725
49	0xbe1bd21c	-0.15216869
50	0xbcf23809	-0.029567735
51	0xbe0a9838	-0.1353463
52	0x3daff5c9	0.08591802
53	0x3e61615a	0.22009793
54	0xbcbf0539	-0.02331792
55	0xbe764955	-0.24051411
56	0x3e16c348	0.14722931
57	0xbe2b20a4	-0.1671167
58	0xbe37a4be	-0.17933938
59	0xbdd10c4b	-0.10207423
60	0xbd7ce1ca	-0.061738767
61	0xbe2bdff4	-0.1678465
62	0xbce66fab	-0.02812942
63	0x3d390b03	0.045176517
64	0x3dc7135a	0.09720488
65	0xbe87ed14	-0.26548064
66	0xbed4f5d4	-0.41593802
67	0xbe9cd43e	-0.30630678
68	0x3d6caedd	0.05778395
69	0xbe0f036f	-0.13966154
70	0xbdf570ae	-0.119843826
71	0x3dd8e6ba	0.105908826
72	0xbe5f8158	-0.21826684
73	0x3dee41f4	0.11633673
74	0x3e1331b8	0.14374435
75	0xbe834547	-0.25638792
76	0x3eb48038	0.35254073
77	0x3e15998f	0.14609359
78	0x3d6d34a6	0.057911538
79	0xbe1c55e0	-0.15267134
80	0x3d7c8807	0.061653163
81	0x3dcb3d8e	0.0992385
82	0xbe07d44e	-0.13264582
83	0x3e6b6552	0.2298787
84	0x3cb0ffb3	0.021606302
85	0x3c1e864c	0.009675574
86	0xbd47ce3e	-0.048780672
87	0xbe70a07d	-0.23498721
88	0xbe818fed	-0.2530512
89	0x3e57fd5e	0.21092746
90	0x3e79cc60	0.24394369
91	0xbe400633	-0.18752365
92	0x3e8ef8e3	0.2792426
93	0x3dc50fa4	0.09622124
94	0xbd44aacd	-0.04801445
95	0xbcb7f895	-0.0224574
96	0x3e8ad649	0.27116612
97	0xbe831857	-0.25604507
98	0xbe62d5fd	-0.22151943
99	0xba9d4302	-0.0011998119
100	0x3dabdb28	0.0839141
101	0xbe140532	-0.14455107
102	0x3cdf8562	0.027285282
103	0x3ea1dd89	0.3161433
104	0x3dfabe50	0.122433305
105	0xbe8de106	-0.27710742
106	0xbe886ea1	-0.26646903
107	0xbd8cb3ed	-0.068702556
108	0xbe7ca87e	-0.2467365
109	0xbdf87467	-0.12131577
110	0xbe82518e	-0.25452846
111	0xbe34475a	-0.17605343
112	0xbd694c7a	-0.0569577
113	0x3bec2cc5	0.0072074854
114	0xbe6fd372	-0.23420504
115	0xbe5a446e	-0.21315166
116	0xbd945515	-0.072427906
117	0xbe5891d0	-0.21149373
118	0xbe0f7349	-0.14008822
119	0xbe317f3f	-0.17333697
120	0xbe9ab116	-0.3021323
121	0xbd8b3c45	-0.06798605
122	0xbee6a73d	-0.45049468
123	0x3e08e491	0.13368441
124	0xbdac73f7	-0.08420556
125	0xbe34e4a2	-0.17665341
126	0x3dd40aa1	0.1035359
127	0x3cc4e067	0.024032785
128	0x3d23d38b	0.039996665
129	0x3d94128d	0.07230101
130	0x3ebc1e2f	0.36741778
131	0xbe737303	-0.23774342
132	0xbd83190c	-0.06401262
133	0x3e438e67	0.19097291
134	0xbd7461da	-0.05966363
135	0x3e1b1406	0.15144357
136	0xbe6ac13c	-0.22925276
137	0xbd2d3cc3	-0.042294275
138	0x3dab9a5d	0.08379052
139	0xbea2eea5	-0.31822696
140	0xbdcfb4c5	-0.10141901
141	0xbd3b2224	-0.045686856
142	0xbe5b125c	-0.21393722
143	0xbe932b5b	-0.28744015
144	0x3dfe9dc2	0.12432434
145	0x3d443483	0.04790164
146	0xbd9bf77c	-0.07615563
147	0x3ca7e365	0.020494172
148	0xbe13c86d	-0.14431925
149	0xbd147eda	-0.036253788
150	0xbe8b9799	-0.27264097
151	0x3da0d656	0.07853381
152	0x3dcf1db7	0.101130895
153	0xbc9bbdaf	-0.019011347
154	0x3e5b2c88	0.21403706
155	0xbe9322db	-0.2873753
156	0xbeb23540	-0.34806252
157	0xbe6fc598	-0.2341522
158	0xbe83a36c	-0.25710618
159	0xbe33a913	-0.17544965
160	0xbd912be7	-0.07088452
161	0xbc67fa5e	-0.014158813
162	0x3ea42ac7	0.32063887
163	0xbe66e504	-0.225483
164	0xbe375890	-0.17904878
165	0x3d7112b1	0.058855716
166	0x3dc680a8	0.09692508
167	0xbe6c29a6	-0.23062763
168	0x3df2077c	0.11817834
169	0x3ddd462f	0.10804402
170	0x3da46de0	0.080287695
171	0xbd4cbcfa	-0.04998491
172	0x3d99f44b	0.07517298
173	0xbc92e0d8	-0.01792948
174	0x3d969d1f	0.07354187
175	0x3bb1e67c	0.005429087
176	0xbe9a5365	-0.3014175
177	0x3e0e4733	0.13894348
178	0xbeb58d2c	-0.35459268
179	0xbe2d4f44	-0.16924769
180	0xbf14f612	-0.58187973
181	0xbdfa49b5	-0.1222109
182	0xbea3f072	-0.32019383
183	0xbd8067da	-0.06269808
184	0xbe139051	-0.14410521
185	0xbda58caf	-0.08083474
186	0xbd1fdb9a	-0.039027788
187	0xbe8083aa	-0.25100452
188	0xbf0539f5	-0.5204156
189	0xbdc3a420	-0.09552789
190	0x3d953f49	0.07287461
191	0xbf017bc7	-0.50579494
192	0xbdda5c52	-0.1066214
193	0xbbc0ccda	-0.005883795
194	0xb90cf6a2	-0.00013443318
195	0xbdcd1ea5	-0.100156106
196	0xbe914180	-0.28370285
197	0x3e0a2077	0.13488947
198	0x3dfaa561	0.12238575
199	0xbe1471f3	-0.14496593
200	0xbe222b9c	-0.15836948
201	0xbe0878af	-0.13327287
202	0xbe06de81	-0.13170816
203	0xbe10f7de	-0.14157054
204	0xbda25c7f	-0.079277985
205	0xbdca4b0e	-0.09877597
206	0xbdc40f80	-0.09573269
207	0x3e0196c0	0.12655163
208	0xbe245be2	-0.16050676
209	0x3d93849c	0.072030276
210	0xbec4b8ff	-0.3842239
211	0xbe4217c2	-0.18954375
212	0xbe2d9dde	-0.16954753
213	0xbe55e1dd	-0.20886941
214	0x3e198f03	0.14995961
215	0xbe1ad5b1	-0.1512058
216	0xbdc85edb	-0.09783717
217	0x3e4665cc	0.1937477
218	0xbe34d252	-0.17658356
219	0xbe282254	-0.16419345
220	0xbe6437fb	-0.2228698
221	0x3da2691e	0.07930206
222	0xbe2ab70a	-0.16671386
223	0xbf14b0b2	-0.58082116
224	0xbddd3fea	-0.10803206
225	0x3dd1036b	0.1020573
226	0xbe82c7cc	-0.25543058
227	0xbe274bf4	-0.16337568
228	0xbd9f9bfa	-0.07793422
229	0x3df90f93	0.12161174
230	0xbe770696	-0.24123606
231	0xbec27648	-0.37980866
232	0xbd470147	-0.048585203
233	0xbbe20060	-0.0068970174
234	0xbe6a3c47	-0.22874556
235	0x3daa4ce5	0.08315448
236	0xbed90936	-0.4238984
237	0xbe18dd69	-0.14928211
238	0x3e0123c2	0.12611297
239	0x3cc5250e	0.02406552
240	0x3e486027	0.19567929
241	0x3ab56459	0.001383911
242	0xbde9a610	-0.11408627
243	0xbcf2bba5	-0.029630492
244	0x3df8956d	0.12137876
245	0xbd73d39e	-0.059527986
246	0xbe0613f5	-0.1309355
247	0x3d4ee13c	0.05050777
248	0xbe1fe0ec	-0.15613145
249	0x3de81fda	0.113342
250	0xbe512a10	-0.20426202
251	0xbdac498f	-0.08412468
252	0x3e0e1617	0.13875614
253	0xbe899133	-0.2686859
254	0x3da151df	0.07876944
255	0xbc5f2c64	-0.013621423

fc3.bias f4 [2]
0	0x3bf6515b	0.0075170225
1	0x3d75557c	0.059895977
