checkpoint_critic0.pth (torch, 161055 bytes, 5 tensors)

fc1.weight f4 [256, 24]
-0.025224742 -0.04390669 0.026694342 -0.021936553 -0.16355677 -0.11944036 -0.02107422 0.04565814
-0.036727242 -0.0056325905 -0.053541176 0.049442347 0.018724596 -0.028610747 0.046298847 0.057684418
-0.0099463705 -0.084273204 0.052933954 0.02380707 0.060483266 0.053483065 -0.042402245 0.051253963
0.0028594395 0.008622991 0.0058449227 0.014018185 -0.11147014 -0.088643774 0.050522562 -0.0072256313
0.0038730104 -0.033117954 0.013165139 0.013648477 0.026321435 -0.000113749935 -0.022879723 0.011595159
0.06642417 -0.044860482 -0.023517318 -0.08289969 0.2386033 0.026107626 0.018899422 -0.054988693
-0.020351153 -0.04030924 -0.0013108763 -0.021210779 -0.12979108 -0.0898998 0.019994335 -0.007799107
-0.04255395 -0.010747513 -0.0067898515 -0.044808913 0.009787736 -0.059241243 0.007556712 0.031738333
-0.004547481 -0.07050721 0.03863223 0.043455604 0.1326583 0.0040589147 -0.02062264 0.0459097
0.01427635 0.010375162 0.014068098 0.042037137 -0.069327846 -0.007918574 0.025149897 0.062251393
-0.017693758 0.058759306 -0.009485379 0.0025926288 0.0060096784 -0.034878578 0.05447861 -0.07508919
-0.055023786 0.030096682 0.029569276 -0.031589422 0.098392926 -0.06693921 0.044599794 -0.03976441
0.04173222 -0.074986435 -0.014487544 0.04856335 -0.004088659 -0.06386889 0.046207216 0.0032945771
-0.060586955 0.00791971 -0.016458405 -0.07048837 0.08598478 -0.0042016404 -0.038273696 0.02646509
0.021942614 -0.043470684 0.009621965 -0.01586136 0.060997956 -0.015199653 0.05098482 -0.058240056
0.08666934 0.07690367 0.024918767 -0.046188947 0.067149684 0.008921369 -0.015921013 -0.087552235
0.059124716 -0.0099371895 0.014178411 -0.07725006 0.028505066 0.011674807 -0.010556054 -0.10083681
0.0008615125 0.046382964 -0.001518027 0.033297155 -0.020937258 0.013521424 0.014097342 -0.03972685
0.061492324 0.05692604 -0.05189123 0.018597895 -0.01143887 0.050414607 -0.011261609 0.072106145
0.036236845 0.024637153 0.049433555 0.031558122 -0.03809831 -0.008785178 -0.032101285 -0.01526374
0.052416883 0.040082473 -0.010447306 -0.045295402 -0.0073484923 -0.06297784 -0.013067192 -0.0039853156
0.014623532 0.09653241 -0.0076416708 -0.0031742747 -0.06063271 0.0070715924 0.026224708 0.019455904
0.015829992 0.062897936 -0.054562036 -0.035883065 -0.029140336 -0.041487843 0.017004589 0.033911992
-0.049375575 -0.026133101 -0.017660838 0.056311775 0.008636894 0.03624024 0.0039556217 0.020762844
0.023202946 0.05190845 -0.028083753 0.07844529 0.07115573 -0.00674468 -0.00696714 0.054199036
-0.045339312 0.065574236 0.03956003 0.04395247 0.024181703 0.048880607 -0.044158664 -0.03478727
0.0019538752 -0.00071898603 -0.02367701 0.028253214 0.053112794 0.064061694 -0.02177377 0.0037717957
-0.032887004 0.026468206 -0.021033073 -0.039789077 -0.039497674 -0.05929032 0.046933193 -0.04775959
0.077992104 -0.006319557 0.048333667 -0.045928203 -0.07484416 -0.075304195 -0.019897053 -0.05642104
-0.01269862 0.076887354 -0.046809644 0.03517979 -0.1170573 -0.027949395 0.033942092 -0.0008536871
-0.06469379 0.09426221 0.029948823 -0.043861266 -0.033448823 0.061047256 0.01681716 0.0052942913
-0.04790836 0.047199663 0.037702553 -0.0103117125 0.025744172 -0.05100817 -0.04674297 0.0027003274
00000000: 1ea4 cebc 80d7 33bd 18ae da3c 49b4 b3bc
00000010: 6d7b 27be 269d f4bd d8a3 acbc 0804 3b3d
00000020: 4e6f 16bd 9891 b8bb fe4d 5bbd 0f84 4a3d
00000030: 5364 993c 1661 eabc dca3 3d3d 7f46 6c3d
00000040: 1af6 22bc 6e97 acbd 46d1 583d 0b07 c33c
00000050: 4dbd 773d 0f11 5b3d faad 2dbd adef 513d
00000060: 6f65 3b3b 7247 0d3c c486 bf3b 88ac 653c
00000070: 754a e4bd de8a b5bd bff0 4e3d fdc4 ecbb
00000080: 55d2 7d3b b1a6 07bd 98b2 573c dd9d 5f3c
00000090: 0da0 d73c 088d eeb8 426e bbbc 9ff9 3d3c
000000a0: 6509 883d a0bf 37bd 64a7 c0bc 50c7 a9bd
000000b0: 6c54 743e a9df d53c f6d2 9a3c d33b 61bd
000000c0: 76b7 a6bc 4d1b 25bd b6d1 abba 3ac2 adbc
000000d0: f4e7 04be 631d b8bd 29cb a33c a78f ffbb
000000e0: 0d4d 2ebd 5616 30bc 677d debb 8d89 37bd
000000f0: be5c 203c f2a6 72bd 4b9e f73b 0e00 023d
00000100: 0903 95bb 1666 90bd d43c 1e3d 81fe 313d
00000110: 94d7 073e a500 853b d0f0 a8bc cf0b 3c3d
00000120: 5ae7 693c 95fc 293c e17d 663c 222f 2c3d
00000130: c2fb 8dbd e8bc 01bc 2807 ce3c 51fb 7e3d
00000140: 80f2 90bc 99ad 703d 9068 1bbc 18e9 293b
00000150: d6ec c43b d7dc 0ebd f724 5f3d 5cc8 99bd
00000160: 9f60 61bd 518d f63c 443b f23c e963 01bd
00000170: 3b82 c93d 6d17 89bd 46ae 363d 02e0 22bd
00000180: 68ef 2a3d 7d92 99bd 2a5d 6dbc 5dea 463d
00000190: 28fa 85bb b1cd 82bd c743 3d3d d5e9 573b
000001a0: 072a 78bd acc1 013c c7d3 86bc 355c 90bd
000001b0: ca18 b03d eaad 89bb e1c4 1cbd 51cd d83c
000001c0: ffc0 b33c 510e 32bd 72a5 1d3c afef 81bc
000001d0: fed8 793d f707 79bc 75d5 503d 208d 6ebd
000001e0: b27f b13d ac7f 9d3d 7122 cc3c 9f30 3dbd
000001f0: c685 893d ef2a 123c c96c 82bc 964e b3bd
00000200: c22c 723d 98cf 22bc 914c 683c 4835 9ebd
00000210: 7583 e93c b147 3f3c 4df3 2cbc 8883 cebd
00000220: 20d7 613a 10fc 3d3d 89f8 c6ba 9962 083d
00000230: 9d84 abbc f688 5d3c 8af8 663c 9fb8 22bd
00000240: 60df 7b3d 482b 693d e68b 54bd 9d5a 983c
00000250: 196a 3bbc 8c7f 4e3d 9d82 38bc 63ac 933d
00000260: 166d 143d dbd3 c93c d77a 4a3d 1743 013d
00000270: f90c 1cbd b5ef 0fbc a37c 03bd c414 7abc
00000280: 16b3 563d 852d 243d 2d2b 2bbc ac87 39bd
00000290: 9fcb f0bb 87fa 80bd c717 56bc 4097 82bb
000002a0: 8a97 6f3c c9b2 c53d fb66 fabb 7e07 50bb
000002b0: 015a 78bd d1b8 e73b 33d5 d63c fd61 9f3c
000002c0: e6ad 813c a2d0 803d 717c 5fbd 1ffa 12bd
000002d0: b7b7 eebc 28ef 29bd 354d 8b3c 4de7 0a3d
000002e0: 0b3e 4abd 1615 d6bc 76ad 90bc 2da7 663d
000002f0: c281 0d3c a570 143d 299e 813b d716 aa3c
00000300: 1b14 be3c f49d 543d e60f e6bc eda7 a03d
00000310: 18ba 913d 7a02 ddbb 9b4c e4bb cfff 5d3d
00000320: b7b5 39bd c94b 863d b309 223d 8107 343d
00000330: b518 c63c 0837 483d b7df 34bd 197d 0ebd
00000340: 960c 003b 567a 3cba 4af6 c1bc 4973 e73c
00000350: cd8c 593d c732 833d e85e b2bc 3b30 773b
00000360: 86b4 06bd dad3 d83c 8d4d acbc dff9 22bd
00000370: 50c8 21bd 68da 72bd 053d 403d 8f9f 43bd
00000380: 53ba 9f3d 4914 cfbb 86f9 453d 361f 3cbd
00000390: e547 99bd 1639 9abd 25ff a2bc c019 67bd
000003a0: df0d 50bc 1e77 9d3d 78bb 3fbd af18 103d
000003b0: bdbb efbd 21f6 e4bc dd06 0b3d f9c9 5fba
000003c0: 2e7e 84bd 8c0c c13d 3c57 f53c dfa7 33bd
000003d0: a201 09bd b00c 7a3d 24c4 893c bc7b ad3b
000003e0: 8e3b 44bd 6f54 413d fe6d 1a3d 75f2 28bc
000003f0: 71e5 d23c f1ed 50bd 8e75 3fbd faf7 303b

fc1.bias f4 [256]
-0.021435289 -0.030111391 0.061248656 -0.018076617 0.016167218 -0.03298502 0.045566414 0.047938503
-0.054968886 -0.043167505 0.009202246 -0.05889038 -0.017230608 -0.04747486 -0.0063349893 0.039937105
-0.057854135 0.002326586 -0.011936845 -0.025515767 -0.013283426 -0.057881508 0.014246697 0.033411287
-0.04799615 -0.05410747 -0.0361277 0.029589204 -0.0051993253 -0.023175444 0.023690876 0.007996255
0.025562296 0.016592449 -0.014303491 0.018612584 -0.018941969 0.062187593 -0.05036928 -0.044620708
0.008756215 -0.0029997241 0.029480627 -0.072026424 -0.038223013 -0.08213983 -0.031498443 -0.015904164
-0.03215373 0.017462581 -0.016467744 0.020232549 0.051566634 0.03566862 -0.06225374 0.054183885
-0.0065756063 0.016498739 -0.0033883485 0.023733208 -0.012516483 0.006841177 0.06648513 -0.072415784
-0.02697173 -0.07025668 -0.059063766 -0.030796811 -0.0100973295 -0.061772816 0.0023093473 -0.030659677
-0.0059982385 0.038460452 -0.04266637 0.0040892004 -0.012923559 0.01760641 0.0137446625 -0.0769355
0.045783162 0.009679034 0.048503596 -0.0042589656 0.02059556 0.027120419 0.03162778 0.023241883
-0.061798967 -0.011533942 0.020835668 -0.034894787 -0.10040801 -0.030313542 0.021014484 -0.028998189
0.044342387 -0.031889103 -0.02588288 -0.043305364 0.09000039 -0.04088757 -0.056997404 -0.003000818
0.00028239875 -0.08254145 -0.03886491 -0.06232853 0.0099265305 0.019079484 0.011245961 0.039520763
-0.030430898 -0.029295174 -0.047123276 0.03240915 -0.06480529 0.011841804 0.039317034 0.02797878
-0.04588421 0.018466286 -0.05505026 0.016863745 -0.039715253 -0.040655445 -0.011084058 -0.040298592
-0.06056009 -0.025961075 -0.06215789 -0.03457453 -0.0062302854 0.007731676 0.022315858 -0.030626068
0.051889285 0.015158458 0.0431206 0.042938825 -0.05101167 0.0145832645 0.02281678 0.02487346
0.014484024 -0.023185346 -0.011862268 -0.03194002 0.044071708 0.020797972 -0.048905093 0.03967634
0.034676887 0.0038826384 -0.050859958 -0.063094795 0.0043467656 0.047487095 0.0007103279 0.06623509
-0.032074675 0.032204676 0.03323813 -0.038788877 -0.05202778 -0.008505802 -0.062569536 -0.012254111
0.046159822 -0.020082695 -0.038480192 -0.0010501923 0.030509401 0.0039220587 -0.045058746 0.022024058
0.02404098 -0.0010774101 0.0059987116 -0.031928025 -0.0043239547 -0.044638593 -0.013097924 -0.064077616
-0.042491704 -0.021949142 0.037715856 0.0049916557 -0.054679256 0.03250559 -0.051221672 0.020662302
0.0070078373 -0.014205101 0.025769638 0.03453554 0.040340565 -0.00016081218 0.025646353 -0.07237392
0.069344305 -0.0015783132 0.037768792 -0.035153557 -0.008046857 -0.04902161 0.035309076 0.01306264
-0.037902318 -0.03613163 -0.011560623 -0.08135324 0.033511154 -0.024806565 0.009194998 0.024499167
-0.0067102644 -0.0607088 0.007476377 0.041349873 0.0024468317 -0.055436112 0.060784396 0.0073970184
-0.03935601 -0.06348917 -0.02516885 -0.018816223 -0.006917855 -0.051912267 -0.05424572 -0.016511139
0.042945992 -0.012002402 0.03294657 0.05137726 -0.050766658 -0.012744817 0.023804832 0.016536195
-0.014313569 -0.03317122 0.005042351 -0.015691897 0.030517219 -0.025314784 -0.024233285 -0.0030088807
-0.020351702 -0.011005231 -0.012032263 -0.062408827 -0.03010102 0.03480346 0.0061972006 0.039328214
00000000: 0f99 afbc 2aac f6bc dfdf 7a3d 6a15 94bc
00000010: 1d71 843c 4d1b 07bd d9a3 3a3d 2a5b 443d
00000020: 0e27 61bd 69d0 30bd 04c5 163c 0a37 71bd
00000030: 3427 8dbc 0075 42bd be95 cfbb 1795 233d
00000040: 75f8 6cbd a379 183b c292 43bc 7106 d1bc
00000050: baa2 59bc 2915 6dbd fa6a 693c 46da 083d
00000060: 9c97 44bd cb9f 5dbd a4fa 13bd 0f65 f23c
00000070: 1a5f aabb 6eda bdbc 5e13 c23c b902 033c
00000080: 0568 d13c e3ec 873c 3159 6abc 6b79 983c
00000090: 302c 9bbc 6bb8 7e3d 0550 4ebd 34c4 36bd
000000a0: 3a76 0f3c 0597 44bb 5b81 f13c 9782 93bd
000000b0: bc8f 1cbd ed38 a8bd 8304 01bd 7349 82bc
000000c0: a1b3 03bd b00d 8f3c 5de7 86bc bbbe a53c
000000d0: 8937 533d 4219 123d c7fd 7ebd ecef 5d3d
000000e0: 2f78 d7bb 5d28 873c 0e0f 5ebb 256c c23c
000000f0: ef11 4dbc f42b e03b 5b29 883d ba4e 94bd
00000100: d1f3 dcbc bce2 8fbd d9ec 71bd 9849 fcbc
00000110: 456f 25bc 7e05 7dbd 6b58 173b 012a fbbc
00000120: df8c c4bb b588 1d3d eec2 2ebd b3fe 853b
00000130: 56bd 53bc 513b 903c 4b31 613c 5c90 9dbd
00000140: 2087 3b3d d094 1e3c b5ab 463d cb8e 8bbb
00000150: 05b8 a83c a42b de3c 228c 013d c365 be3c
00000160: ea20 7dbd dcf8 3cbc 90af aa3c d6ed 0ebd
00000170: b7a2 cdbd 1b54 f8bc 9126 ac3c 9c8d edbc
00000180: 5da0 353d 269e 02bd 5508 d4bc f760 31bd
00000190: 2052 b83d b979 27bd 1c76 69bd 5fa9 44bb
000001a0: eb0e 9439 7e0b a9bd d030 1fbd 334c 7fbd
000001b0: e3a2 223c 944c 9c3c fb40 383c 86e0 213d
000001c0: 384a f9bc 6ffc efbc 5604 41bd 75bf 043d
000001d0: a3b8 84bd 2004 423c e60a 213d c133 e53c
000001e0: 15f1 3bbd 9c46 973c 627c 61bd d625 8a3c
000001f0: 76ac 22bd 5386 26bd e999 35bc 2310 25bd
00000200: db0d 78bd 52ac d4bc 4699 7ebd 069e 0dbd
00000210: 6c27 ccbb 005a fd3b bfcf b63c 85e3 fabc
00000220: dc89 543d 2e5b 783c 3a9f 303d 9fe0 2f3d
00000230: 9df1 50bd a5ee 6e3c 41ea ba3c 6dc3 cb3c
00000240: 664e 6d3c 32ef bdbc f559 42bc 8ad3 02bd
00000250: 8984 343d 8260 aa3c b550 48bd a883 223d
00000260: 5a09 0e3d dd73 7e3b 8852 50bd d837 81bd
00000270: 506f 8e3b d481 423d 4c35 3a3a 43a6 873d
00000280: bc60 03bd 0de9 033d b524 083d 16e1 1ebd
00000290: 151b 55bd eb5b 0bbc 7524 80bd 77c5 48bc
000002a0: 1512 3d3d 7784 a4bc 689d 1dbd 9ba6 89ba
000002b0: daee f93c 9d84 803b 858f 38bd cc6b b43c
000002c0: 97f1 c43c e237 8dba d790 c43b f6c6 02bd
000002d0: f6af 8dbb f5d6 36bd ad98 56bc 203b 83bd
000002e0: c80b 2ebd b0ce b3bc f17b 1a3d 0b91 a33b
000002f0: 5bf7 5fbd 9524 053d d1cd 51bd fd43 a93c
00000300: 00a2 e53b 83bc 68bc d91a d33c 2375 0d3d
00000310: 263c 253d b19f 28b9 4d18 d23c c738 94bd
00000320: 6304 8e3d 67df ceba 73b3 1a3d 2dfd 0fbd
00000330: f7d6 03bc e2ca 48bd 40a0 103d af04 563c
00000340: 763f 1bbd c3fe 13bd c468 3dbc 879c a6bd
00000350: fe42 093d 2337 cbbc 9ea6 163c 7ab2 c83c
00000360: c7e1 dbbb caa9 78bd 65fc f43b 7c5e 293d
00000370: 065b 203b fa10 63bd 0ff9 783d b062 f23b
00000380: c433 21bd 9c06 82bd e72e cebc 7b24 9abc
00000390: 2caf e2bb f5a1 54bd c330 5ebd 5e42 87bc
000003a0: 23e8 2f3d b9a5 44bc fcf2 063d f670 523d
000003b0: b3f0 4fbd a3cf 50bc 5a02 c33c ea76 873c
000003c0: 7683 6abc 8cde 07bd 4e3a a53b 4b8c 80bc
000003d0: 3fff f93c f360 cfbc e284 c6bc a430 45bb
000003e0: 9db8 a6bc 494f 34bc f822 45bc 66a0 7fbd
000003f0: 6a96 f6bc 138e 0e3d e311 cb3b 9f16 213d

fc2.weight f4 [128, 258]
0.036390204 0.00845433 0.027721865 0.030351069 -0.0006333193 0.046301648 -0.044806834 0.056715824
-0.007950277 -0.019562135 -0.10048582 0.0036421157 0.03071662 0.03774276 0.09129498 -0.16347583
0.0078051635 -0.12593694 0.0022403058 0.015767895 -0.033162232 0.057741933 0.052660186 -0.07883646
0.09173753 0.050601218 0.08643342 0.04443747 -0.12558617 -0.047373734 0.08718328 0.026144335
-0.14648016 0.06540087 0.11213566 -0.071836576 -0.08272896 0.09741526 0.04474504 0.08555362
0.017824322 0.037261553 -0.024935428 -0.055604193 -0.06512627 0.047348056 -0.066154964 0.07382928
-0.0054590194 -0.062466342 0.0075472677 -0.06471735 -0.002045606 0.0042112935 -0.11936775 0.050144754
0.08009242 0.058307093 -0.06665779 0.012121744 0.020598775 -0.0146614015 -0.09227129 0.016468521
-0.06616681 -0.06375479 0.060777217 -0.0012577011 0.07423721 -0.067748904 -0.0012564494 -0.03210253
-0.15185313 -0.012134418 0.06567598 -0.048409965 -0.08957249 0.038021516 0.060869236 -0.0948144
0.017757008 -0.3492977 -0.049824055 -0.035457242 -0.06261062 0.03530231 0.014186202 -0.06407846
0.0659393 -0.013849784 -0.016306328 -0.28473765 -0.07661357 0.018667342 0.027904086 -0.023560109
-0.06471988 0.061933797 0.039759222 -0.12988606 -0.06149603 -0.13186888 0.0047681285 0.11541156
0.076022014 0.06436101 -0.01730973 -0.04365554 -0.051839627 -0.044806708 0.08123122 -0.1057077
0.03076883 -0.061271872 -0.06660228 -0.074541286 -0.035045594 -0.0055785216 0.07708033 0.08021043
0.023860505 0.049206086 -0.06933853 0.06732596 0.054303 -0.15930882 0.026733654 -0.103997946
-0.06940437 -0.06107873 0.006701021 -0.033089068 0.02647702 -0.029404912 -0.010689449 -0.030657247
-0.09362558 -0.17867853 -0.048385005 -0.018834567 0.048953682 0.026366718 -0.014678118 0.069397554
-0.040741842 0.0015772403 -0.017165888 0.015758442 0.043124676 0.1386446 -0.115982145 0.027124168
0.026952952 -0.029761711 -0.041871604 -0.06861359 0.035238303 -0.08071276 0.031435482 -0.080035545
-0.098170355 -0.028352225 0.018874466 -0.047045216 0.034495577 -0.09621355 -0.07376584 0.009635287
0.028979657 0.07641966 0.048462197 0.014570004 -0.07326955 -0.078826405 0.07710875 0.07972021
-0.05220679 -0.08056894 0.05313952 0.03020674 -0.049828753 -0.027590333 -0.034923807 -0.045230485
-0.005951887 -0.07848788 0.05171884 -0.008208494 -0.0018642233 -0.07333957 0.041351017 0.039064284
-0.008070085 -0.011263239 0.084679745 -0.03627476 0.028202225 -0.02028616 -0.015211395 -0.081608325
0.037647497 0.0048977146 -0.061242137 -0.12299963 -0.12644196 0.0511555 -0.059505574 0.01763592
0.025938991 0.03738674 -0.08143475 -0.041707106 -0.0025231384 0.019282762 0.027126286 0.017915668
0.052679367 -0.095175035 0.01032583 -0.053765185 -0.05674729 0.00710051 0.015889492 0.01406107
0.0289857 -0.15116796 -0.08052345 -0.066003434 0.03210543 -0.054156188 0.07826129 0.07638925
0.040051445 0.051820993 -0.1104212 -0.04905624 -0.056438282 -0.07976076 0.047829147 -0.072443895
-0.08291712 -0.021856053 -0.04732773 0.039813977 -0.0077862605 0.028175231 -0.016252516 0.06290313
0.0459597 -0.06905348 0.00089682144 0.016138827 -0.12254003 -0.11963233 0.020787915 0.065612905
00000000: e50d 153d 0884 0a3c f718 e33c cea2 f83c
00000010: 5705 26ba cca6 3d3d 5f87 37bd da4e 683d
00000020: e141 02bc c540 a0bc 82cb cdbd 90b0 6e3b
00000030: 6ca1 fb3c 2798 1a3d ddf8 ba3d 3566 27be
00000040: 75c2 ff3b 9df5 00be 18d2 123b ac2b 813c
00000050: 1fd5 07bd ce82 6c3d 35b2 573d 0375 a1bd
00000060: e3e0 bb3d 3943 4f3d 0104 b13d 1104 363d
00000070: a999 00be f60a 42bd 268d b23d a52c d63c
00000080: e5fe 15be e4f0 853d 62a7 e53d 0e1f 93bd
00000090: cd6d a9bd a781 c73d 9346 373d bc36 af3d
000000a0: 5004 923c 929f 183d 6245 ccbc 39c1 63bd
000000b0: ec60 85bd 09f0 413d 417c 87bd ce33 973d
000000c0: 93e1 b2bb b5dc 7fbd 124f f73b 888a 84bd
000000d0: 930f 06bb e4fe 893b 1477 f4bd 9664 4d3d
000000e0: 7f07 a43d 6bd3 6e3d e183 88bd 489a 463c
000000f0: c3be a83c 6036 70bc bbf8 bcbd fee8 863c
00000100: 7782 87bd df91 82bd 88f1 783d 72d9 a4ba
00000110: ae09 983d f0bf 8abd 72af a4ba f17d 03bd
00000120: 637f 1bbe 70cf 46bc 2181 863d 8749 46bd
00000130: c871 b7bd 73bc 1b3d 0552 793d 0d2e c2bd
00000140: 2577 913c 26d7 b2be 4f14 4cbd 9d3b 11bd
00000150: ff39 80bd 2899 103d 3e6d 683c 913b 83bd
00000160: 2f0b 873d 34ea 62bc d994 85bc 22c9 91be
00000170: 93e7 9cbd 41ec 983c 1c97 e43c 2101 c1bc
00000180: db8b 84bd 4bae 7d3d 91da 223d da00 05be
00000190: 43e3 7bbd a308 07be f63d 9c3b e55c ec3d
000001a0: 6eb1 9b3d b5cf 833d 23cd 8dbc 27d0 32bd
000001b0: ca55 54bd 3d87 37bd 8e5c a63d 477d d8bd
000001c0: ea0e fc3c 37f8 7abd c766 88bd 1aa9 98bd
000001d0: f88b 0fbd 08cc b6bb 4bdc 9d3d 5e45 a43d
000001e0: 1b77 c33c 528c 493d 5c01 8ebd 31e2 893d
000001f0: d36c 5e3d da21 23be 8900 db3c e0fc d4bd
00000200: e123 8ebd b12d 7abd 3d94 db3b 6788 07bd
00000210: 56e6 d83c 92e2 f0bc cc22 2fbc e824 fbbc
00000220: c5be bfbd 81f7 36be 5b2f 46bd f34a 9abc
00000230: a883 483d 04ff d73c 7d7c 70bc 4e20 8e3d
00000240: ebe0 26bd 67bb ce3a 7a9f 8cbc d917 813c
00000250: 80a3 303d daf8 0d3e 0c88 edbd 8133 de3c
00000260: 70cc dc3c d5ce f3bc 8f81 2bbd 4885 8cbd
00000270: 0a56 103d bb4c a5bd 7ec2 003d ade9 a3bd
00000280: 8a0d c9bd ed42 e8bc a09e 9a3c 7cb2 40bd
00000290: 3c4b 0d3d 9c0b c5bd 8b12 97bd 53dd 1d3c
000002a0: bf66 ed3c e981 9c3d 4c80 463d 07b7 6e3c
000002b0: 590e 96bd bd6f a1bd 31eb 9d3d 5944 a33d
000002c0: c9d6 55bd 5401 a5bd d3a8 593d 2074 f73c
000002d0: 3c19 4cbd 1f05 e2bc 440c 0fbd 9a43 39bd
000002e0: 0c08 c3bb 41be a0bd 22d7 533d eb7c 06bc
000002f0: f458 f4ba 0e33 96bd af5f 293d df01 203d
00000300: 6438 04bc 7389 38bc 936c ad3d d894 14bd
00000310: 5a08 e73c 292f a6bc 3739 79bc 4422 a7bd
00000320: 4334 1a3d 027d a03b 09d9 7abd 3be7 fbbd
00000330: 007a 01be 6e88 513d 1ebc 73bd 3479 903c
00000340: 027e d43c d722 193d 43c7 a6bd 12d5 2abd
00000350: 3d5b 25bb e2f6 9d3c f237 de3c e1c3 923c
00000360: 52c6 573d 21eb c2bd ac2d 293c e238 5cbd
00000370: d96f 68bd 65ab e83b ae2a 823c 6760 663c
00000380: 6b73 ed3c c6cb 1abe 7be9 a4bd cf2c 87bd
00000390: fc80 033d e1d2 5dbd 7547 a03d f871 9c3d
000003a0: fc0c 243d 4042 543d 8324 e2bd 32ef 48bd
000003b0: d42b 67bd 9c59 a3bd 7fe8 433d 775d 94bd
000003c0: 73d0 a9bd 770b b3bc b9da 41bd fb13 233d
000003d0: e323 ffbb becf e63c ff23 85bc 5bd3 803d
000003e0: 3d40 3c3d e96b 8dbd ab18 6b3a 9335 843c
000003f0: 44f6 fabd cc01 f5bd 6b4b aa3c 0f60 863d

fc2.bias f4 [128]
0.0041905385 -0.0189482 0.07034316 -0.00391544 0.064459726 0.058412094 -0.021894127 -0.032202408
0.042623483 -0.04937392 -0.033041332 -0.037297092 0.050153352 -0.032019485 0.024323301 -0.0053781183
-0.03291686 0.00579522 0.04976978 -0.042919397 0.037793253 -0.08747463 0.08902513 -0.095723875
-0.060187258 -0.07210424 0.007861137 -0.04938376 -0.04122911 -0.08249189 -0.0027041684 0.060754433
0.06937723 -0.0025093476 0.054478165 -0.09952243 0.05316139 0.03711492 -0.054855507 -0.056227192
0.03764718 -0.047070317 -0.023187255 0.005364951 0.03383389 0.043417744 0.010011135 -0.023996644
-0.089673184 0.004464635 0.016593885 -0.07137219 0.017097961 0.021223307 -0.06348335 0.06648617
0.027526407 -0.034498528 -0.03627006 0.022994658 -0.051428266 0.014313517 -0.036765523 -0.0797936
0.031604428 0.033172544 0.061655566 0.043101236 -0.05512568 -0.07564208 0.07879752 -0.049572058
0.12031318 0.032903057 -0.008240148 -0.05335296 -0.021591188 0.033178654 -0.05365295 0.02292544
-0.049578473 -0.06728924 0.040579412 0.05031496 -0.049820982 0.033604506 0.04054234 0.03825051
0.07619796 0.0856061 -0.06608166 -0.09490972 0.038240254 -0.08328739 -0.03311756 -0.061653487
-0.044925846 -0.047430817 -0.102398716 0.04822798 0.025854766 0.01735153 0.070638925 -0.083693154
0.043285083 -0.044367712 0.04381203 -0.011410357 -0.028845482 -0.027371403 -0.0593752 -0.000418465
0.036082346 0.04283042 -0.046000004 -0.028643377 -0.11783907 0.041314494 -0.058437753 0.03745746
-0.012474958 0.010135783 -0.014921499 0.11090501 -0.09245195 0.051839158 -0.034523558 0.0608459
00000000: c950 893b 4139 9bbc 1310 903d 174d 80bb
00000010: 7603 843d 8541 6f3d 505b b3bc ace6 03bd
00000020: f695 2e3d 4f3c 4abd 5956 07bd d6c4 18bd
00000030: 9a6d 4d3d dd26 03bd a941 c73c ed3a b0bb
00000040: d4d3 06bd d4e5 bd3b 66db 4b3d 40cc 2fbd
00000050: 19cd 1a3d e625 b3bd cf52 b63d e10a c4bd
00000060: ea86 76bd 63ab 93bd 00cc 003c a046 4abd
00000070: dbdf 28bd 82f1 a8bd 6b38 31bb a4d9 783d
00000080: a615 8e3d de73 24bb 7f24 5f3d 6ad2 cbbd
00000090: c2bf 593d d005 183d 2bb0 60bd 7c4e 66bd
000000a0: ee33 1a3d cecc 40bd 33f3 bdbc 79cc af3b
000000b0: 6895 0a3d ced6 313d be05 243c 9c94 c4bc
000000c0: 93a6 b7bd 134c 923b e6ef 873c 952b 92bd
000000d0: 0611 8c3c 80dc ad3c 8f03 82bd e729 883d
000000e0: 0f7f e13c 544e 0dbd ea8f 14bd 4b5f bc3c
000000f0: 72a6 52bd 3e83 6a3c 7297 16bd d46a a3bd
00000100: a573 013d efdf 073d 8c8a 7c3d ec8a 303d
00000110: 77cb 61bd 3cea 9abd 9860 a13d 120c 4bbd
00000120: c266 f63d 5bc5 063d b001 07bc a288 5abd
00000130: 01e0 b0bc 57e6 073d 32c3 5bbd 22ce bb3c
00000140: cc12 4bbd f1ce 89bd 9936 263d 0f17 4e3d
00000150: 1611 4cbd e1a4 093d ba0f 263d 91ac 1c3d
00000160: ad0d 9c3d 4052 af3d d255 87bd 0760 c2bd
00000170: d0a1 1c3d 9492 aabd 47a6 07bd 5e88 7cbd
00000180: 2a04 38bd d146 42bd 6bb6 d1bd b48a 453d
00000190: 60cd d33c cc24 8e3c 24ab 903d 5167 abbd
000001a0: b34b 313d ebba 35bd 3e74 333d 82f2 3abc
000001b0: 5c4d ecbc fe39 e0bc 6933 73bd 6c65 dbb9
000001c0: 15cb 133d f36e 2f3d 806a 3cbd 84a5 eabc
000001d0: 9c55 f1bd 6339 293d 6d5c 6fbd fe6c 193d
000001e0: c463 4cbc 8e10 263c 4e79 74bc 2a22 e33d
000001f0: 7357 bdbd 4c55 543d 9368 0dbd 8d39 793d

fc3.weight f4 [1, 128]
0.019490022 0.00060745364 -0.017866055 0.017846247 0.051618565 -0.010489195 -0.012775624 -0.009620934
0.009783802 0.037020657 0.0096970005 0.041416593 0.047031164 0.010655325 0.028474731 0.017890768
-0.015710408 -0.06272094 0.014353437 -0.00051588996 0.042932637 0.018894399 -0.031392258 -0.013233906
0.010397637 0.024716917 -0.008492615 0.00849743 0.024140446 -0.033776507 0.016813312 -0.024341423
-0.03879782 0.012422996 0.06917667 -0.023278529 0.02818785 -0.047490165 0.05311512 -0.0088415295
-0.032531593 0.014900165 -0.016277237 -0.016843932 -0.014486091 -0.008390493 -0.009756679 -0.010035359
-0.013688216 0.031958815 -0.0016570733 0.028197395 -0.039605472 -0.054944012 0.01123457 -0.042453885
0.027105758 -0.024083588 0.011369931 0.024349371 0.018551582 0.03778289 0.040635798 0.019201178
-0.0155986035 0.016287634 9.924167e-05 0.033958033 -0.04390986 -0.011833139 0.045398362 -0.04550251
0.037447628 0.02377046 0.018916037 -0.06446381 -0.011765434 -0.01028292 -0.0017882909 0.068612754
0.022228593 0.012144888 -0.030116841 0.014596517 0.030417718 -0.01879343 0.026669329 0.005254747
0.022927314 0.04914055 0.04127708 0.051516764 -0.014493219 0.0126478905 -0.01564637 -0.0009931566
-0.0062149656 -0.039988086 0.023698963 0.035649206 0.0006509916 -0.016525088 0.0132726 0.02478627
-0.041935228 0.05949039 0.014900471 -0.020005932 0.023878451 0.031127246 -0.0012638136 -0.016420698
0.062359687 -0.018961484 -0.028517555 -0.060729474 -0.019366123 0.018258099 -0.013492742 0.042291835
-0.016310437 0.00723309 -0.049841132 0.016124919 0.054211117 -0.07452711 -0.035249297 0.025584951
00000000: 8aa9 9f3c 863d 1f3a d55b 92bc 4b32 923c
00000010: fd6d 533d dfda 2bbc da50 51bc 1fa1 1dbc
00000020: 3d4c 203c f9a2 173d 2be0 1e3c 72a4 293d
00000030: c0a3 403d ac93 2e3c d743 e93c a98f 923c
00000040: 1db3 80bc d673 80bd ae2a 6b3c ca3c 07ba
00000050: 22da 2f3d 6dc8 9a3c 2b95 00bd 06d3 58bc
00000060: da5a 2a3c 227b ca3c 9c24 0bbc ce38 0b3c
00000070: 2fc2 c53c 3c59 0abd 12bc 893c aa67 c7bc
00000080: 77ea 1ebd d289 4b3c 7fac 8d3d 9db2 bebc
00000090: 35ea e63c 0c85 42bd 3d8f 593d 10dc 10bc
000000a0: d93f 05bd d21f 743c d757 85bc 49fc 89bc
000000b0: 1257 6dbc 4778 09bc 7ada 1fbc 596b 24bc
000000c0: 8a44 60bc 3fe7 023d 2732 d9ba 39fe e63c
000000d0: 5939 22bd f90c 61bd 3411 383c 20e4 2dbd
000000e0: e50c de3c f24a c5bc f248 3a3c 5578 c73c
000000f0: 7df9 973c 3bc2 1a3d b971 263d ca4b 9d3c
00000100: 4991 7fbc a56d 853c f71f d038 9417 0b3d
00000110: d3da 33bd c8df 41bc a2f3 393d d760 3abd
00000120: af62 193d 45ba c23c cef5 9a3c 9a05 84bd
00000130: cfc3 40bc b179 28bc 1665 eaba d884 8c3d
00000140: bd18 b63c 5afb 463c 98b7 f6bc 3b26 6f3c
00000150: 942e f93c aef4 99bc a379 da3c 0330 ac3b
00000160: 10d2 bb3c 9a47 493d 2812 293d 3e03 533d
00000170: f774 6dbc 1939 4f3c d12c 80bc ce2c 82ba
00000180: e9a6 cbbb 8cca 23bd 5424 c23c e704 123d
00000190: 4fa7 2a3a 9f5f 87bc 5275 593c 930c cb3c
000001a0: 46c4 2bbd 32ac 733d 1b21 743c 7be3 a3bc
000001b0: be9c c33c 91fe fe3c 8ca6 a5ba b384 86bc
000001c0: df6c 7f3d 1d55 9bbc a69d e9bc 78bf 78bd
000001d0: b4a5 9ebc 0292 953c a910 5dbc 343a 2d3d
000001e0: 779d 85bc 8e03 ed3b 3726 4cbd 6818 843c
000001f0: 7a0c 5e3d aba1 98bd 9161 10bd 8897 d13c
