checkpoint_actor1.pth (torch, 160543 bytes, 6 tensors)

fc1.weight f4 [256, 24]
000000 29 a4 07 3d 2d 79 d7 3d 3c 5e c7 bb 73 06 ef 3c
       0.03311554 0.10521159 -0.0060842317 0.02917788
000010 58 d3 9e bc 8d 52 80 bd 3a d2 c9 ba 7c 78 d9 3d
       -0.019387886 -0.06265745 -0.0015397735 0.10618684
000020 7a ec bd bb 68 00 22 3e 5a 93 0f bd 46 ab fd 3d
       -0.0057960125 0.15820467 -0.035052635 0.123861834
000030 9b 7c 50 3d ce 5e e0 bd b2 35 dd 3c f8 4e 35 3e
       0.050900083 -0.109555826 0.027003143 0.17705905
000040 09 e7 87 bd be 4e 19 bd 23 33 b6 bd 65 1d 53 3e
       -0.06635863 -0.03742861 -0.08896472 0.20616682
000050 9c d7 86 3d 75 d5 25 bc fc 02 c1 bc 81 dc 24 3e
       0.06584093 -0.010121693 -0.023560993 0.1609974
000060 c8 02 b7 3d 79 e0 ac bd 05 a0 db bd fe 1a a0 3d
       0.08936077 -0.08441252 -0.10723881 0.07817648
000070 58 28 97 bd 63 79 5c be 5f 2e ca bd af de 6e bc
       -0.07380742 -0.2153068 -0.09872126 -0.014579459
000080 49 e8 05 3d 94 e1 20 be 82 26 57 3d b7 84 d3 3c
       0.032692228 -0.15711051 0.05252696 0.02582012
000090 2a ad a2 bd 8f 14 16 be 38 56 a7 3b ec f7 12 3d
       -0.07943185 -0.1465628 0.0051067136 0.035880968
0000a0 24 3b 97 3c d2 c0 3b be 54 bb 5b bd 8c 32 eb bc
       0.018460818 -0.18335274 -0.053645447 -0.028710626
0000b0 9c b3 9e 3d 73 7f 3a 3d e9 23 0a bc 07 45 89 bd
       0.077491015 0.0455317 -0.008431413 -0.06702619
0000c0 37 ea 98 bd 84 16 6a 3d 3b c0 06 bd 08 72 31 be
       -0.07466548 0.05715038 -0.03289817 -0.17328656
0000d0 38 40 81 bb bb 5f fd 3d 94 e0 ec bd 82 b2 68 be
       -0.003944423 0.12371775 -0.115662724 -0.22724345
0000e0 32 da 8f 3c 0f f2 6f 3d e4 bf fc bc 1d 9c b5 bd
       0.017560098 0.058580454 -0.03085322 -0.08867667
0000f0 b5 c9 9b 3d 98 40 ff 3d 9d 2d 3f bc 91 fc 8c bd
       0.07606832 0.12463492 -0.01166859 -0.06884111
000100 7c 24 51 3d b4 cb a2 3d 5d c9 a4 bd 0e 98 de bd
       0.051060185 0.079490095 -0.080462195 -0.10868846
000110 0c 78 bc 3d a8 0f 96 3d ad 99 0b bd 94 7c 09 bd
       0.092025846 0.07327205 -0.034082104 -0.033566073
000120 20 c0 8a 3d f1 0d e3 3d 47 c7 5f bc c8 ee dc bd
       0.06774926 0.110866435 -0.013658351 -0.107877314
000130 39 1e 26 3e 54 be 43 bd 6f 7c 26 3c 44 30 eb bd
       0.16222467 -0.047788933 0.010161503 -0.11483815
000140 36 61 14 bc 0c fb a0 bc 87 b5 6f bd 77 88 d2 bc
       -0.00905638 -0.019650958 -0.058522727 -0.025699837
000150 67 4a a6 3e 61 96 44 3d 4b 73 a4 bc fb 03 3d 3d
       0.3247864 0.047994975 -0.020074507 0.046146374
000160 76 19 97 3d c8 96 c6 3c 34 9c 56 bd f6 5d 02 3c
       0.07377903 0.02424182 -0.05239506 0.007956972
000170 92 57 8c 3e 63 25 42 3c 74 94 34 3d 14 a9 19 3d
       0.2741056 0.011849734 0.04408689 0.03751476
000180 19 5e 85 3b 1b 77 32 be ff 2a 26 bc ab 04 a4 bd
       0.004070055 -0.17428248 -0.010142087 -0.08008703
000190 ae 5c 3b bc 20 61 5f 3d d0 55 ed bd 5a fa 1b be
       -0.011435671 0.054535985 -0.11588633 -0.1523222
0001a0 91 e3 e7 3b c3 cf 04 be e3 c5 3f 3c 72 c4 91 bd
       0.0070766886 -0.1296988 0.011704895 -0.07117547
0001b0 8d 48 99 3d 90 9d fd 3d 7d fc 09 3d af 4b 7d bb
       0.07484541 0.12383568 0.033688057 -0.0038649847
0001c0 4a c0 85 3d 4e f1 f1 bd cc ec 6f bc d7 ac cc bd
       0.06530817 -0.11813603 -0.014643859 -0.09993904
0001d0 68 97 17 bc a1 7b 36 3e 53 9a c4 3c e6 c7 01 bd
       -0.009252407 0.17820598 0.023999369 -0.03168478
0001e0 7b f2 85 3d ca e0 8a bc 75 78 a5 bc 63 86 0f be
       0.0654039 -0.01695289 -0.02019904 -0.14016108
0001f0 1f 8a 64 bd 05 dd 98 bd 9e a0 6d 3d d1 b7 f9 bd
       -0.055795785 -0.07464031 0.058014505 -0.12193263
000200 94 09 b9 3c 02 a9 c6 bc e0 be 79 3d b8 2a 00 be
       0.022587575 -0.024250511 0.06097305 -0.12516296
000210 44 30 9e bd 00 cb 5d bb 21 a7 03 3e 08 23 cb bd
       -0.0772405 -0.0033842921 0.12856723 -0.09918791
000220 34 ae 31 3d 96 96 05 be 35 6b 51 3d b2 88 4a 3c
       0.043379024 -0.13045725 0.05112763 0.012361692
000230 94 0e 2b bd 1f fd 29 3d 21 2d 73 3d 0e aa 62 bc
       -0.04176195 0.04150116 0.05936921 -0.0138344895
000240 9b cc 11 bd 53 a3 7e 3d 5d 29 4a bc 97 10 ec 3c
       -0.035595518 0.062167477 -0.012338963 0.028816504
000250 81 2c 67 3d 45 72 ad bd 87 85 77 3c a9 63 f2 3d
       0.056438927 -0.08469061 0.015107519 0.11835415
000260 5e c5 db 3c de e5 00 bd ce 4e 51 3d 41 db 36 3d
       0.02682751 -0.03146922 0.051100545 0.04464269
000270 4d b0 26 3d ca 1d 06 3e f1 95 f4 3c a9 97 58 3d
       0.040695477 0.13097301 0.029856654 0.05287901
000280 1b 09 40 bd c8 5f 44 bd 7e 0a d1 3d a5 94 3e 3e
       -0.046883684 -0.047942907 0.10207079 0.18611391
000290 56 f2 90 3d c1 df 2e 3c f2 d5 cc 3d 8b 15 5e 3e
       0.07077472 0.010673464 0.10001744 0.21687905
0002a0 01 cd e7 bc 5c 45 98 bd 5a 0e 6b 3c 72 6f e5 bd
       -0.028295996 -0.07435104 0.014346683 -0.11202897
0002b0 2b 2d f2 3a 0c 2a b7 3c 41 16 2d 3d 54 a1 21 be
       0.0018476596 0.022358917 0.04225755 -0.15784198
0002c0 47 75 bb bc 70 90 a2 bc be f3 47 bd e5 f8 23 be
       -0.02288307 -0.019844264 -0.048816435 -0.16012914
0002d0 8e 1e 22 bc 9e e5 a1 3c f6 04 11 bd 07 49 1c be
       -0.00989498 0.01976281 -0.03540512 -0.15262233
0002e0 74 24 4b 3c 9d f2 e5 bb 14 ad 3a 3d 9f a6 d7 bd
       0.012398828 -0.007017447 0.045575216 -0.10529827
0002f0 60 2e 67 3d 7b d3 62 3d 6c 1b fa 3d 17 90 ff bd
       0.05644071 0.055377465 0.122122616 -0.12478655
000300 c4 30 6c bd 45 3d 9f 3d bc 09 f8 3d 6a 48 55 bd
       -0.057663694 0.07775358 0.12111232 -0.052071013
000310 57 7a 8a bc 03 05 41 bd 4c 10 fd 3d f3 95 9e bd
       -0.01690404 -0.04712392 0.12356624 -0.07743444
000320 bd 87 fd 3b ec 3d 1b 3d a9 de 4c 3d c8 ff 19 be
       0.0077371285 0.03790085 0.050017033 -0.15038979
000330 2b b7 22 3b 88 d2 80 bc 2f d5 8f 3d 99 a9 00 be
       0.0024828415 -0.01572539 0.070230834 -0.12564696
000340 4b 79 1a 3d da b4 94 39 00 ef 6e 3c 1c 36 21 be
       0.03771333 0.00028363505 0.014583349 -0.15743297
000350 9a b7 c8 bb 7b a2 e2 3d 2a 3a 81 bd f4 12 65 be
       -0.0061254026 0.11066147 -0.06309922 -0.22370511
000360 f8 f4 59 3d 80 b4 3a be 89 22 fa 39 43 99 ac 3c
       0.053212136 -0.18232918 0.00047709447 0.021069175
000370 df a9 66 bc 1c 6c c1 bd d2 3e fc bb 06 59 1e 3d
       -0.014078586 -0.09444448 -0.0076979185 0.038659118
000380 5d 78 0d 3d f7 c6 24 be 63 ea f1 3d 6d 4b be 3c
       0.034538615 -0.16091524 0.11812284 0.023229325
000390 60 97 70 3c 43 f5 e8 bd 63 35 95 3d 8f cb 40 bd
       0.014684528 -0.11374905 0.07285573 -0.04706913
0003a0 07 c1 0f 3e d9 cd 32 be 1f b2 fa bd d7 71 ae 3d
       0.14038478 -0.17461337 -0.12241005 0.08517807
0003b0 7a 8c 42 3d e4 67 34 be c1 89 d0 bc c3 e4 71 3d
       0.04749725 -0.17617756 -0.025456311 0.059056055
0003c0 57 93 1b bc 11 28 66 3d d6 53 eb 3c 15 d1 25 3d
       -0.009495578 0.056190554 0.0287265 0.0404826
0003d0 4d 70 ea bd e5 3c df 3d d0 a8 5f bc 2f 20 c5 3d
       -0.11447201 0.109002866 -0.013651088 0.09625279
0003e0 60 80 ab 3b 13 7a 4f 3d ad ea 17 bd 9d 80 e6 3d
       0.0052338094 0.05065353 -0.03708904 0.11255
0003f0 87 e1 87 3d f7 d8 ca 3d e9 ab a0 bd 16 40 09 3e
       0.06634813 0.09904664 -0.07845289 0.13403353

fc1.bias f4 [256]
000000 63 5a 1b 3c 7a a1 89 bd f5 43 87 bc d3 13 8e bd
       0.009481999 -0.06720252 -0.016511897 -0.06937375
000010 67 3a 95 3a e5 5e de bc 4b 72 6c 3d f2 43 3e 3d
       0.0011385203 -0.027144859 0.057726186 0.046451516
000020 5f 37 3b bc 8f b9 8e bd c0 0d 55 bd 60 69 c7 bc
       -0.011426776 -0.06968986 -0.052015066 -0.024342239
000030 2d 84 90 bd 09 c7 77 3d 45 49 02 3d 58 02 80 3d
       -0.070564605 0.06049255 0.031808157 0.06250447
000040 4c 80 83 3d 89 8f d0 bd c7 7f 44 bc 5b 55 5f bd
       0.06420955 -0.10183627 -0.011993355 -0.05452476
000050 53 de 69 bd da 20 a7 3c 9f b6 c6 3d 4d 1a 37 bd
       -0.05709679 0.020401407 0.09702801 -0.044702817
000060 71 30 73 3d 7d 7a a4 bd 61 94 8a bb b3 99 25 bd
       0.05937237 -0.08031175 -0.004229114 -0.040429782
000070 c1 59 06 bd da af ce bb c6 1e d6 3d be 18 ae bc
       -0.03280044 -0.0063075842 0.10455088 -0.021252032
000080 eb 7c 3a 3d 9d 39 7f 3d 07 48 b5 3d eb 82 49 bd
       0.045529287 0.062310804 0.08851629 -0.04919712
000090 62 12 0a 3d 59 68 92 3b 63 55 e8 3b 83 0b bc 3d
       0.033708937 0.0044680056 0.007090257 0.09181883
0000a0 c6 f0 69 bb c9 a2 00 3d 93 51 5d 3c fe 91 db bd
       -0.003569649 0.031405244 0.013508218 -0.10721205
0000b0 6f f2 2d 3c 84 e4 14 3e 78 ac 5a 3d 08 d4 fb bc
       0.010616883 0.14540297 0.053387135 -0.030740753
0000c0 bc d2 ca 3b 3b 9a 6a bd e8 d9 ba bc 3b b3 06 bb
       0.0061896723 -0.057275992 -0.022808984 -0.0020553607
0000d0 5d e8 2b bc ce 14 c2 3a 93 e3 a7 3d 63 fa a5 bc
       -0.010492411 0.0014807226 0.08197703 -0.020260995
0000e0 cb fc 20 3d 66 8b 49 bd dd 10 5d bc 07 75 46 3d
       0.039303582 -0.049205206 -0.01349279 0.04845145
0000f0 79 e2 8f bd bd 10 00 3e 21 38 0d bb af 00 75 3d
       -0.07025618 0.12506385 -0.0021548348 0.059815105
000100 f2 71 9e bd a3 78 56 3c de b5 56 bb 02 94 0f 3d
       -0.07736577 0.0130902855 -0.003276221 0.03505326
000110 52 53 85 bd ef a5 00 bd 4e 7d c2 3c 29 1a c4 bb
       -0.06510033 -0.031408247 0.02374139 -0.005984564
000120 f8 16 92 bd 44 9a 09 bd 91 7e ae bc 24 b2 70 3d
       -0.07133287 -0.033594385 -0.021300586 0.05876364
000130 14 47 27 bd 6d 31 a9 bd ce 51 9f 3c e5 d9 80 bd
       -0.04083927 -0.0826138 0.019448187 -0.0629156
000140 15 26 9f bc c6 ee 3c bc 30 57 a1 bd 44 15 84 bd
       -0.019427339 -0.011531537 -0.07877958 -0.064493686
000150 16 ed f1 3c 25 c8 8b bd 8c 9e bc bd 43 98 b6 bd
       0.029531997 -0.06825284 -0.09209928 -0.0891576
000160 f9 fc a8 bd da 02 05 3c 0f 7d 1f 3d 86 0e dc bd
       -0.08251376 0.008118356 0.038937625 -0.107449576
000170 27 a2 d9 bc 51 43 c7 3c 5e 27 ed 3c f9 98 88 bb
       -0.026566578 0.024324091 0.028949436 -0.0041686264
000180 24 a0 47 bd 69 cd 7b bd 3e 8c 20 3d ee 7f 66 bd
       -0.048736706 -0.06147519 0.039196245 -0.056274347
000190 13 46 dd bd 7f 0f 11 3d 86 2c 04 3d 4c 0f f5 3c
       -0.10804381 0.03541517 0.032269023 0.02991452
0001a0 be fe 2e 3d 47 02 f4 ba d8 63 36 3c 32 5d 03 3c
       0.04272341 -0.0018616401 0.011132203 0.008017825
0001b0 d9 7d 80 bc d7 2a 24 3d 3b 2f 33 bd bb fd 81 bc
       -0.015685009 0.040079918 -0.043746214 -0.015868058
0001c0 e4 df 29 bc 18 d8 24 3d 69 46 86 bd d5 1a 1a 3d
       -0.010368321 0.040245146 -0.065563984 0.037623245
0001d0 1f a5 c0 3c 64 d1 0c 3d 14 40 f6 bc e3 fc fe 3b
       0.023516236 0.034379378 -0.030059852 0.0077816113
0001e0 ca 28 41 3c df 30 b8 bd 81 68 a8 bd 2c 6a 58 3d
       0.01178951 -0.089936964 -0.082230575 0.05283563
0001f0 d9 69 95 bc ec 7d 28 3d 4a 53 7e 3d 8e 85 d2 bc
       -0.018238949 0.041135713 0.06209115 -0.02569845
000200 d0 8a c3 bc fd 8d ee 3c 49 03 e7 3c 23 f2 bb bc
       -0.023869902 0.02912044 0.028199809 -0.022942608
000210 2b f1 89 3d b3 60 b3 3d 92 db ec 3d 79 86 83 bd
       0.06735452 0.08758678 0.11565317 -0.06422133
000220 ed 20 df bb ae 49 19 bd 4a 9a 43 3b c0 9c a1 bc
       -0.006809345 -0.037423782 0.0029846602 -0.019728065
000230 da 29 82 bc 84 b8 72 3d 95 97 9e 3d 68 4b 22 3d
       -0.015889097 0.059258 0.07743756 0.039622694
000240 70 f2 c1 bd bd 19 70 3c cb 63 da bc 7f b7 45 3d
       -0.094700694 0.014654574 -0.026658913 0.0482707
000250 b3 c8 98 bc 36 b7 02 3e 8f 05 31 3d ed 67 78 bd
       -0.018650388 0.12765202 0.04321819 -0.060645986
000260 32 bf ef bc ec d4 1d 3c 60 c1 98 3c a7 cd 20 3d
       -0.029265974 0.009633284 0.018646896 0.039258625
000270 aa ec a6 3d 18 12 c4 bc 9d f2 d6 3c bb 58 a5 3d
       0.08150609 -0.023934409 0.026238734 0.080735646
000280 aa 15 18 3d 01 69 cf bd f4 62 81 3d 6e 26 94 3c
       0.037130035 -0.1012745 0.06317702 0.018084731
000290 46 31 3f 3d 0b 2d 26 3d 49 10 83 bc 7e 96 27 bc
       0.04667785 0.0405703 -0.015998976 -0.010228751
0002a0 7e a8 89 bd 05 89 e0 3c 17 b2 45 bd 9e b9 07 bd
       -0.067215905 0.027409086 -0.048265543 -0.033136003
0002b0 33 6c be bd ef f9 ff ba bd 9a c1 3b 9e 93 e8 bc
       -0.09297981 -0.0019529442 0.005908339 -0.028390702
0002c0 59 68 e4 bc dd 81 84 bd 4a 85 da 3c 87 ef 27 3d
       -0.027881788 -0.06470082 0.026674885 0.040999915
0002d0 f5 f2 87 3c d9 56 d9 3c 0d f5 c0 3d 2a b6 21 bd
       0.016595343 0.02653067 0.0942174 -0.039480366
0002e0 7f f5 2b 3d 5b 6c 7e bd 7f b3 17 3d b4 65 1c bd
       0.04198217 -0.062115055 0.037036415 -0.03818293
0002f0 0f 0c 44 3d 90 86 52 3d 70 e2 dd bd 92 f0 b4 bd
       0.047863062 0.05139786 -0.10834205 -0.08834948
000300 09 07 c7 bd 00 6a 3d bc 39 f8 e6 bd f6 ff 11 bd
       -0.09718139 -0.011560917 -0.112778135 -0.035644494
000310 48 6d c2 bd ed 88 34 bd ab 98 b4 3c e9 36 36 ba
       -0.094935 -0.044075895 0.022045454 -0.0006950931
000320 7e d0 50 bc fa 4c 2b bd 6c 83 da bc 1a b2 89 3d
       -0.012745021 -0.041821457 -0.026673995 0.06723423
000330 a6 c3 ac bc c1 6c e3 3d 2d 34 c9 bc 57 ff d1 3c
       -0.021089386 0.111047275 -0.024561012 0.02563445
000340 cd 9e 02 3c 0d 9c 7d 3d eb 60 92 3c 81 d9 3a bd
       0.007972431 0.0619164 0.01786848 -0.045617584
000350 0f bb 5a 3d 47 01 b9 bc c4 20 fc 3d cb 2f 82 bd
       0.05340105 -0.022583617 0.12310937 -0.06356772
000360 65 ee eb bc 5b ba 96 3d 02 d7 a6 bd b2 cf 56 bd
       -0.028800199 0.07359763 -0.08146478 -0.052444167
000370 6e 20 ec bc d8 d1 d4 3d 9a 99 7e 3b 88 e5 00 3d
       -0.028824057 0.10391587 0.0038848878 0.031468898
000380 93 3b f4 ba 29 60 34 bd 36 dd d8 bc 0d 49 74 3d
       -0.0018633477 -0.044037018 -0.02647267 0.05963998
000390 d6 d2 3b 3c 57 2e 01 bd 33 8a 06 3d ce 76 10 3d
       0.011463841 -0.031538334 0.03284664 0.03526955
0003a0 c0 37 e0 bd da 66 8d bd 89 38 e8 bc d8 e8 82 3c
       -0.109481335 -0.06904383 -0.02834727 0.01598017
0003b0 9e 52 13 3d 89 8c 8e 3d af 70 cf 3c e6 cf 0d 3d
       0.03596746 0.06960399 0.025322286 0.034622096
0003c0 76 57 bc bd a0 49 ce 3c 7e 7b 93 3d 82 e1 44 bd
       -0.09196369 0.025181592 0.07201289 -0.048066624
0003d0 45 f2 21 3d c1 9e a4 3d af e1 32 3d 41 7c 23 bd
       0.039537687 0.080380924 0.04367226 -0.03991342
0003e0 3b ad 84 3d 51 e7 45 bd f2 56 09 bc ae 0d 9b 3b
       0.064783536 -0.048316304 -0.008382546 0.0047318554
0003f0 f5 d7 c5 ba 2a 64 2f bd af 75 7b 3d d2 2f 9f bd
       -0.0015094267 -0.042820133 0.06139153 -0.07772793

fc2.weight f4 [128, 256]
000000 e5 59 ff bd 41 ee ef bc 70 c1 80 3d 70 6a 8d 3c
       -0.12468318 -0.029288413 0.06286895 0.017262667
000010 89 2e 5b bd 08 04 0c 3e 42 7f 51 3d b8 aa 1b 3d
       -0.053511176 0.13673413 0.051146753 0.038004607
000020 58 f9 97 bd ae 4b 27 3e 8d 79 a0 3d c7 bd 43 bd
       -0.074206054 0.16337463 0.07835684 -0.047788408
000030 91 01 4e bd 35 f4 82 3d e1 2b 4e 3d 9b 2d 0d 3d
       -0.050294463 0.06394235 0.050334815 0.03446732
000040 e8 b6 24 3c 4a c3 00 3d fc 6e 60 bd c3 4b 20 3d
       0.010053374 0.031436242 -0.054793343 0.039134752
000050 d0 90 24 3d b5 00 6a 3d 38 99 02 3d 1d 7f 26 3c
       0.040177166 0.05712958 0.031884402 0.010162142
000060 b6 62 63 3d 07 ec 3e 3d ae a9 2a bd 3d b2 3d bd
       0.05551406 0.046611812 -0.041665725 -0.04631256
000070 de 01 e9 3d ad 80 48 3d 82 04 41 3d d2 aa a5 bd
       0.11377309 0.04895084 0.04712344 -0.08089222
000080 9f 8d fa 3d 3f 08 cf 3c dc e3 da 3c cb 87 08 3c
       0.12234043 0.025272487 0.02671998 0.008333157
000090 2e 22 83 bb 2e 23 4e bd 37 69 81 bd 71 21 b0 3c
       -0.0040018773 -0.05032652 -0.06318896 0.021500321
0000a0 de 3c d3 3c ca 67 c0 bd 71 7c 5b 3d 4e be c5 3d
       0.02578586 -0.09394796 0.053585473 0.09655438
0000b0 a8 b0 c4 3c 21 12 32 be 0a 55 c6 3d f1 0a d0 3c
       0.024010018 -0.17389728 0.09684189 0.025395842
0000c0 7a e4 5b 3d 83 c3 e2 3d 7a ec 28 bd 74 a7 ed bc
       0.05368469 0.11072447 -0.041241147 -0.029010512
0000d0 75 30 e6 bc 0a a4 9e bc 0e 69 97 bc 02 59 db bc
       -0.028099278 -0.01936533 -0.018482711 -0.02677584
0000e0 d8 de 90 3c ad b0 78 3d fa 68 22 3c 64 f2 b4 bd
       0.017684385 0.060715366 0.009912724 -0.08835295
0000f0 b3 1a c3 3c 42 f3 d0 3c 97 b6 b4 3c ab a9 34 bd
       0.023816442 0.02550662 0.022059722 -0.04410712
000100 92 ad 38 bc b3 18 00 bd 9d 61 32 3d 4b fe 84 3d
       -0.011271851 -0.031273555 0.043550123 0.06493815
000110 54 23 44 3d 0d a3 14 3e 35 c6 b8 bd b4 7b a3 3d
       0.047885254 0.14515324 -0.0902218 0.07982579
000120 57 e2 58 bd 9e 2e 7a 3d 8c 1d b4 3c c7 5b 4f bd
       -0.05295023 0.061079614 0.021986745 -0.050624635
000130 2e 2c 30 be 2a d5 a3 bb 16 2d 2d bc a7 2f 0e bd
       -0.17204353 -0.0049997764 -0.010569831 -0.034713414
000140 3b a8 c8 bd f3 c4 8a 3d 27 c2 87 bd b2 d6 02 3e
       -0.097977124 0.06775846 -0.066288285 0.12777212
000150 bd 39 4f 3d a5 ae 7e bd f0 7e 1f 3d 49 f7 88 bd
       0.050592173 -0.062178273 0.038939416 -0.06687791
000160 ba 36 1a bd b4 e6 cf 3c 39 31 a9 3d 71 11 b6 bd
       -0.037649848 0.025378563 0.082613416 -0.088900454
000170 a4 40 2f 3b 25 18 66 3d c9 64 8d 3d 43 92 d9 bd
       0.002674141 0.05617537 0.06903989 -0.106236
000180 1c 36 d0 bd eb c5 e8 bd 2e db 64 bd 74 e2 5c bd
       -0.101665705 -0.11365875 -0.05587309 -0.0539269
000190 e9 71 99 bd 66 29 e1 bd ce 44 76 bd 7d 5e 37 3d
       -0.0749243 -0.10994224 -0.06012421 0.044767845
0001a0 ef 3c 3b 3c 23 cd b5 3c b6 f4 56 3d f2 d5 a8 bc
       0.011428102 0.022192543 0.05247947 -0.02060983
0001b0 f5 03 06 3b e0 af 21 3c 99 ec a6 3d e5 44 05 3c
       0.0020449136 0.009868592 0.08150596 0.0081341015
0001c0 eb df 8c bd 55 2f 94 bc 45 2a 2e bd 48 1c c2 3d
       -0.068786465 -0.018088976 -0.04252078 0.094780505
0001d0 ca 4a af bb 96 56 36 bd 2a 0f 8e 3d 85 9c 8d bc
       -0.0053494917 -0.04451617 0.06936486 -0.017286548
0001e0 eb d4 61 bd f4 74 b8 3d ae f3 33 bd 23 df d9 bd
       -0.055134695 0.09006682 -0.043933563 -0.10638263
0001f0 ec 37 cb 3d 65 79 63 3d 68 6e 11 3d 41 a1 fc bb
       0.099227756 0.055535693 0.035505682 -0.0077096527
000200 d6 ce 0a be 50 3a a9 3d fe 44 88 3c da ca 76 3d
       -0.13555464 0.08263075 0.01663446 0.060252048
000210 13 8d 41 3d 23 65 a3 bc 42 57 13 3d fb ee 84 bd
       0.04725368 -0.019945687 0.035971887 -0.064908944
000220 07 75 46 bc 98 0a 02 bd 5e ab bd 3c c1 5b 3a bd
       -0.012112862 -0.031748384 0.023153003 -0.04549766
000230 cf cd e7 3b fe d3 a7 3d d2 58 60 3c 7b e6 be 3d
       0.007074095 0.08194731 0.013693051 0.093213044
000240 74 b1 5f 3d 86 5a 53 bd 4e 58 53 3d 69 08 fe bc
       0.054612592 -0.0516 0.051597886 -0.03100987
000250 5d 1b 83 3d 53 9e e0 3d 7c 40 91 bd 67 12 ac 3d
       0.064017035 0.10967698 -0.070923775 0.084019475
000260 e7 e9 91 3d 77 51 9c 3d 19 a3 58 bc fa 8d 87 bd
       0.071246915 0.07632726 -0.013222479 -0.06618877
000270 58 62 06 bd 0d e7 df 3c 3e 1d 15 3e b4 4b db bc
       -0.03280863 0.027331853 0.14561936 -0.026769497
000280 bd 18 9b 3d ad 5d 8a bd 9d 4d 08 bd 0b a0 4d be
       0.07573078 -0.067561485 -0.033277143 -0.20080583
000290 36 4b 57 bd cb 81 7f 3d 4c 6a af 3d fd 0d 1e bd
       -0.05256196 0.06237964 0.085651964 -0.03858756
0002a0 b8 9d ee 3d 3a fc 2a 3c 21 73 7a bd 01 21 8b bd
       0.11651176 0.010436112 -0.06114495 -0.06793404
0002b0 bd cd 46 3d cf 13 3a bd e9 3d cb 3d a5 a8 2f bd
       0.04853605 -0.045429047 0.09923918 -0.04288544
0002c0 0c 1a c9 bd 41 49 71 3d 69 81 7d bd e7 55 ef bc
       -0.09819421 0.05890775 -0.061890993 -0.029215766
0002d0 3f 11 d3 3c 15 06 cf bd 00 35 98 3b ae 37 b5 3d
       0.02576506 -0.10108582 0.00464499 0.08848511
0002e0 35 6d 7a 3c c3 03 19 3c 51 8c 70 bb bf a8 2e bd
       0.015284826 0.009339276 -0.003670473 -0.042641398
0002f0 40 6b 5d 3c 99 80 0b bd bc 25 c7 3d 4e 93 50 bb
       0.01351434 -0.034058187 0.09723994 -0.0031826082
000300 f4 a7 3b bd 1a ac 1f 3d b9 91 0f 3e ff 74 23 3e
       -0.04581447 0.03898249 0.14020433 0.15962599
000310 49 cc f3 bd 82 5e 94 3c 6c 63 b0 bd 1b fc a8 bd
       -0.11904199 0.018111471 -0.08612713 -0.0825121
000320 68 fe a2 bd 72 c5 af 3d 39 4c 91 bd 82 1b c6 bd
       -0.079586804 0.085825816 -0.070946164 -0.096732154
000330 e8 a4 ac 3d e9 f7 90 bc ef 5e 8f bd 1f 81 2f bd
       0.08429891 -0.017696338 -0.07000529 -0.04284775
000340 4c 75 d5 bd c6 16 b7 bc c5 b1 bb 3d c6 1b aa bd
       -0.10422763 -0.022349726 0.09164766 -0.083060786
000350 0b 08 7d 3d 15 35 02 3e 17 77 0f ba 4a d4 8d 3d
       0.06177525 0.12715562 -0.0005472763 0.069252566
000360 0b be 23 3d 0d 55 70 3d cb bd 9e bd 92 6a de bc
       0.03997616 0.05867486 -0.07751044 -0.027150426
000370 71 2b 6b bb e0 f6 f6 3b c2 15 74 bd c3 de bb bd
       -0.0035884047 0.007536754 -0.059591062 -0.09173348
000380 0e 73 9d 3d d4 5f 58 3d cd 91 f0 bd 3a 79 c0 bd
       0.076879606 0.052825764 -0.11746559 -0.09398122
000390 d2 18 0d be 27 fd 21 bd c9 d5 f5 3d dd 9f 26 3d
       -0.13779 -0.039548066 0.12003667 0.0406798
0003a0 09 1d 82 3d 46 4d cf bd 43 f6 82 bd 64 d1 84 bd
       0.06353194 -0.101221606 -0.06394627 -0.064852506
0003b0 1f 19 99 3d fa f0 fd 3d 7a 54 c2 bd 26 be 0d 3d
       0.074754946 0.12399478 -0.09488769 0.034605168
0003c0 30 d1 3f bd 47 d9 bb bd dd 5c 9f bd de a1 e6 bd
       -0.046830356 -0.09172302 -0.07781384 -0.112613425
0003d0 95 f2 14 3e 06 d6 c2 3d e2 17 88 3d 39 12 04 3d
       0.14545663 0.09513478 0.0664518 0.03224394
0003e0 e2 c3 5b 3d 40 ff 46 be 9a dc 0c 3e f8 17 81 3d
       0.053653605 -0.19433308 0.13756028 0.063034
0003f0 a2 c8 46 bd a3 d9 24 3b 48 65 80 bd 5d 83 da bd
       -0.048531182 0.0025154136 -0.06269318 -0.10669587

fc2.bias f4 [128]
000000 bd 2d b8 bd 83 55 0a bd 23 4b d3 3d 88 bd 59 bd
       -0.08993099 -0.033772957 0.103170656 -0.053159267
000010 7b 40 28 3d 37 69 a2 3d 33 1f 61 bd 70 c9 41 3d
       0.04107712 0.079302244 -0.054961395 0.047311246
000020 f0 68 b5 bd 22 79 0d ba bf 30 16 3d 63 d0 c0 3d
       -0.08857906 -0.00053967733 0.03666758 0.094147466
000030 f2 37 ab 3c 2a fd 60 bd 29 67 15 3d 06 c8 85 bc
       0.0209007 -0.054928936 0.036475334 -0.01633073
000040 cf 24 09 bd 6a 95 11 bc 7c 59 b4 bc 9b ad cb bb
       -0.03348237 -0.008885721 -0.022015326 -0.0062157637
000050 5a 3e 43 bb 4d 86 fe 3c 88 f8 ec bd 9c e9 d1 3d
       -0.0029791803 0.031069899 -0.11570841 0.102496356
000060 53 4a 76 bc 6f 2a 75 bd 99 9b 8a bd 2b 7e 25 3b
       -0.015032369 -0.05985492 -0.06767959 0.0025252204
000070 c4 5a d3 bb ff b0 29 3d 8a 8c a4 3c fe 88 f9 3c
       -0.006450029 0.041428562 0.020086545 0.03046083
000080 42 76 30 bd 49 03 99 3c a0 a7 c9 3d fb a5 a1 3d
       -0.04308153 0.018678324 0.09846425 0.078929864
000090 76 11 77 bd 98 10 32 3d 30 f7 af 3c ff 48 a9 3d
       -0.060319386 0.043472856 0.021480173 0.08265876
0000a0 d4 24 14 bc 60 fe a0 3d 94 b7 99 bc 10 82 d4 bd
       -0.009041984 0.07861018 -0.018764295 -0.1037637
0000b0 ae 7e af 3d 36 7c e4 bc 01 ae e9 bc ab f7 86 bd
       0.08569084 -0.02789126 -0.028525354 -0.06590208
0000c0 46 dc 7d 3d d0 cd 0e bb b0 f2 2c bd 12 2a ac 3d
       0.061977647 -0.0021790154 -0.042223632 0.08406462
0000d0 c5 28 06 bc 5e 0f a7 bc 41 93 90 3d b3 a4 48 3d
       -0.008188431 -0.02039307 0.070593365 0.048985194
0000e0 77 58 8c bd 9a 58 41 3d 47 31 a7 3d 29 1e ca bd
       -0.06852811 0.047203638 0.08163696 -0.09869034
0000f0 77 13 c6 3d 1f 6f 88 bd 72 54 24 3d ec dd b5 3d
       0.096716814 -0.0666182 0.040119596 0.08880219
000100 f8 29 5a bc 5f 98 80 bd df 4b 91 bd a6 6e 19 3c
       -0.01331567 -0.062790625 -0.070945494 0.00936476
000110 0c ea c2 bc 79 89 b3 bd cd 0c 9b 3d f9 1b 07 3d
       -0.023793243 -0.08766455 0.07570801 0.03298566
000120 08 55 82 3d 83 7f c3 bc f1 45 a7 3d 22 dd 5f bd
       0.06363875 -0.023864513 0.08167637 -0.054654248
000130 dc bc 58 3d 6b d3 a8 bd 5d 5a b6 bd 6e df 30 bd
       0.052914485 -0.0824345 -0.08903954 -0.04318183
000140 db e3 41 3b d3 d5 7e 3c a3 84 b9 3d 3a b3 ea 3d
       0.0029585275 0.015553909 0.090585016 0.11459966
000150 ae ed f5 3d 7e 5e 2c bd 01 ef d9 bc ad 5c 9e 3d
       0.120082244 -0.042082302 -0.026603224 0.0773252
000160 ad 36 d9 3c 5e 1c b9 bc d1 50 05 3e 40 1d 68 3c
       0.02651533 -0.022596534 0.1301911 0.01416713
000170 b9 56 4d 3c 79 31 81 bc be c5 d6 bc 87 81 e3 3d
       0.012532883 -0.01577066 -0.026217338 0.1110869
000180 4b 8f 17 bd de 59 88 3d e9 ca 15 3d 73 14 e3 3d
       -0.03700189 0.06657766 0.036570463 0.11087885
000190 b7 cd 37 bd 65 70 34 bc 1c d7 c9 3d 7d e5 7a 3d
       -0.04487392 -0.011013125 0.09855482 0.061254013
0001a0 29 2b 39 bd 64 6c 49 3d fa 8a 66 3d c2 33 78 3d
       -0.045207176 0.049175635 0.056284882 0.060596235
0001b0 73 64 b1 3b d4 1e cf bd 92 16 a1 bc f0 d2 c0 bd
       0.005413586 -0.10113302 -0.019664083 -0.09415233
0001c0 cf 51 3a bd 1b 9d d7 3d dd 94 31 3c 32 e7 56 3d
       -0.045488175 0.10528012 0.010838714 0.05246658
0001d0 2d 98 17 bd ab 1e aa bb af 8d 5d 3d e7 3a 96 bd
       -0.03701036 -0.005191644 0.054090198 -0.073354535
0001e0 da bf ac 3d 9b 1d ad 3c 5b 1c cc ba 55 09 34 bd
       0.0843503 0.021132281 -0.0015572415 -0.043954212
0001f0 56 cd 97 bd db 6a 57 3d de 9e 6b 3d 93 99 0e 3e
       -0.074122116 0.05259214 0.057524554 0.13925771

fc3.weight f4 [2, 128]
000000 81 51 a0 bd 1d 62 fd bc 17 31 86 3d 60 fb 42 3d
       -0.07828046 -0.030930573 0.06552332 0.04760301
000010 09 72 38 3d 88 b1 2b 3e 28 9b 4b bd 32 93 18 bd
       0.045030627 0.16766942 -0.049708515 -0.03724975
000020 7c fe 09 3d c3 2e 48 bd 58 a8 92 3d eb 72 33 be
       0.03368996 -0.04887272 0.07161015 -0.17524306
000030 a3 77 98 3d 2e 2c 2a be de cb 29 3d e4 34 6a 3e
       0.07444694 -0.16618416 0.04145419 0.22871739
000040 5a e5 62 bd e1 58 77 be 53 55 36 3c 0a fc ed bd
       -0.055394508 -0.24154998 0.011128741 -0.11620338
000050 ba ec b8 bc 6e f0 cb bd 05 30 1a be 51 9b 42 be
       -0.022573818 -0.09957968 -0.1505738 -0.19004561
000060 b6 57 0e be 9f 78 f1 bd 4f 65 8d bd d3 88 94 3c
       -0.13900647 -0.11790585 -0.06904089 0.01813165
000070 82 e1 b1 bd 65 86 15 3d f5 7a 23 bc 52 30 17 bc
       -0.0868559 0.03650512 -0.009978046 -0.009227829
000080 63 3f 8f 3d a8 9c f4 bd 58 8b 27 3e 34 6b 22 be
       0.06994512 -0.11943942 0.16361749 -0.15861207
000090 9e 78 f9 bd f8 09 9f bc d4 12 d2 bd be 70 08 3d
       -0.12181209 -0.019413933 -0.102574974 0.033310644
0000a0 fc 93 58 bd 5f 5b 47 be ce bf 00 3e dd 71 05 be
       -0.052875504 -0.19468449 0.12573168 -0.13031717
0000b0 43 2e 98 3d ab d4 89 bd a6 51 9e 3d c9 7c 18 be
       0.07430699 -0.06730016 0.07730417 -0.14891352
0000c0 f5 87 2c be c7 99 24 3e 76 17 31 be a4 79 95 bd
       -0.16848738 0.16074286 -0.17294106 -0.07298592
0000d0 99 fd 13 3d 9c 41 8e 3e 78 a5 3e 3d 6e 6a 2e be
       0.03613052 0.2778443 0.046544522 -0.17032787
0000e0 28 a2 24 3d 6c 24 a4 bd f0 69 68 bd cf 35 24 bd
       0.040193707 -0.080147594 -0.056741655 -0.04009038
0000f0 0a aa 24 3d 36 c4 df bd cd db d8 bd 99 e8 59 3e
       0.040201224 -0.10926096 -0.10588799 0.21280135
000100 fa 47 b7 3d e3 ed 66 be 0f c8 5e bd dc 5e 3c be
       0.08949275 -0.22551684 -0.05439001 -0.18395561
000110 c7 91 15 3d ab d6 44 be e8 bc 74 bd 53 6b 66 3d
       0.036515977 -0.19222514 -0.059750468 0.056254696
000120 e8 82 45 bd 44 09 86 3d db e2 00 be db a7 88 bd
       -0.048220545 0.06544736 -0.12586538 -0.06672641
000130 1c b7 4d 3d 28 55 e1 bc 32 5c 3c 3d b7 d8 07 be
       0.050223455 -0.027506426 0.04598636 -0.13266264
000140 c2 b3 80 3d 39 6a 1c 3d c8 1b 0c 3d bf cb 78 3d
       0.06284286 0.03818724 0.03420618 0.060741182
000150 18 9a 1c 3c 2e 4e 32 3d 3c 76 4e bd 7b d5 ee bc
       0.009558223 0.04353159 -0.050405726 -0.02915453
000160 87 ea 05 bd b9 6f e7 3d c6 51 92 3d 10 13 9b bd
       -0.032694366 0.11300606 0.07144503 -0.07571995
000170 bc 69 a9 bc 25 0f b0 3d db 57 da 3c 37 99 36 3c
       -0.0206803 0.085966386 0.02665322 0.011144928
000180 20 62 30 bd b2 5e 12 be 46 c2 0e be 23 c1 1a 3d
       -0.04306233 -0.14293936 -0.13941297 0.037781846
000190 08 a3 b4 bd b9 bb 2c be 03 e0 56 bd 6e 56 b5 3c
       -0.08820158 -0.16868486 -0.052459728 0.02213594
0001a0 8a b2 96 3d 31 41 34 3d 63 e6 73 bd 69 91 a0 bd
       0.073582724 0.044007484 -0.059545886 -0.07840235
0001b0 b7 89 23 3b d9 3a 8c bd c8 2d af bd 35 1e 06 be
       0.002495391 -0.06847162 -0.08553654 -0.1309746
0001c0 4c e9 be 3d 13 35 3b be e8 f2 11 be b3 30 cc bd
       0.093218416 -0.18281965 -0.14252818 -0.09970226
0001d0 5d 80 60 bd 56 17 49 be 91 e4 ba bd c4 55 81 be
       -0.054809917 -0.19637808 -0.09125627 -0.25260746
0001e0 e5 ad de 3b c7 67 5d be ef ea fd bd c4 e0 75 3d
       0.006795632 -0.21621619 -0.12398326 0.060028806
0001f0 00 6a e2 bd e0 20 8e 3d b9 c7 b6 3d c2 4f 09 be
       -0.11055374 0.06939864 0.08924813 -0.13409331
000200 29 2a 85 3d f2 06 0b be 7f cd d3 3d 9d 8f ba 3c
       0.06502182 -0.13576868 0.1034193 0.022773558
000210 e9 fe 92 bc 5c 21 4f bd 88 b1 5c 3d bd 16 54 3d
       -0.017943816 -0.050568923 0.053880244 0.051779497
000220 df cf 2e be db c7 0c be 80 76 05 3e 4c be 11 3e
       -0.17071484 -0.13748114 0.13033485 0.14232749
000230 88 17 bb 3c 8b 99 cc bd 4b 1e 01 be 15 ba b9 bd
       0.022838369 -0.099902235 -0.12609212 -0.090686955
000240 13 40 1f 3d 1b 87 02 bd 97 ec f9 bd 47 3b 11 be
       0.038879465 -0.031867128 -0.12203329 -0.14182769
000250 25 90 44 be fb de c8 3c 86 e6 a3 3d a1 5e ef bd
       -0.19195612 0.024520388 0.08002953 -0.11687971
000260 56 60 8e bd 42 8f 8d 3d 67 a3 e8 3c eb 12 2d be
       -0.06951968 0.0691209 0.028398229 -0.16901748
000270 5f 2b 46 3d e1 b6 e0 3b aa 90 4f be e6 28 68 be
       0.048381206 0.0068577384 -0.20270029 -0.22671852
000280 f0 13 69 bc f4 37 5f be 8c 23 c7 bc 0c 7f 4d 3b
       -0.014225945 -0.21798688 -0.024308942 0.0031356243
000290 f4 88 ab 3d b0 1c 12 3e 18 58 3c bd 76 ca d6 3c
       0.08375731 0.14268756 -0.04598245 0.026219588
0002a0 c4 47 95 3d 8e 9b c6 bb 88 41 6f 3e fb 88 ce 3c
       0.07289079 -0.006061024 0.23364842 0.025211802
0002b0 e7 0b b9 3d a0 ff 87 3d 1b 6c 24 3e 37 3a 1a 3d
       0.09035473 0.066405535 0.16056864 0.037653174
0002c0 ca d3 95 bd 9b a8 07 be 0d 6d 18 3c c2 5f 0e 3d
       -0.07315786 -0.13247912 0.0093033435 0.03475929
0002d0 96 d2 95 3c 49 b6 2c be b2 1a 09 be 45 88 c1 3d
       0.018288892 -0.16866411 -0.1338909 0.094498195
0002e0 ed 18 35 bb cd df 05 3d f1 0c ad bd ac ee af 3d
       -0.0027633265 0.032684136 -0.08449734 0.08590445
0002f0 45 4b 2f be 4c 6a b9 bb a6 d2 bb bc 36 36 a5 be
       -0.17118557 -0.0056584235 -0.022927593 -0.32267922
000300 8d d3 55 bd ee ab 9b 3d 80 59 58 3d 72 ef 4c bc
       -0.052203704 0.07601152 0.05281973 -0.01250826
000310 24 8d 46 bd 59 2e b9 bd 5c 9a b7 3b ce 71 e0 bc
       -0.048474446 -0.09042043 0.005603118 -0.027398016
000320 52 f3 90 3d d1 96 11 be 9e dd 8b bd 82 44 53 3d
       0.0707766 -0.14217688 -0.068293795 0.051579006
000330 6a 7c f2 bb 43 b7 d8 bd 82 5e 18 3c ef f4 b7 bc
       -0.007400085 -0.105818294 0.009299876 -0.02245566
000340 73 66 f2 3c 33 7c 82 bb 5c 0d 3a be 16 3d 4e bc
       0.029589867 -0.003982091 -0.18169159 -0.012587806
000350 60 5b 3d be 77 52 23 bc eb ab 45 3d 21 d6 de 3c
       -0.18491888 -0.009968392 0.048259657 0.027201714
000360 2a 56 8b 3d f0 3f e5 3d f1 55 2d be 19 2e e9 bd
       0.06803544 0.11193836 -0.16927315 -0.113857456
000370 85 b2 79 be 7b 33 47 be 04 d5 cf 3c de d6 11 be
       -0.24384506 -0.19453232 0.025370128 -0.14242122
000380 a9 b4 fc 3c 37 3a 00 be df 69 10 be aa 72 10 bd
       0.030847864 -0.12522207 -0.14102887 -0.035265602
000390 a5 bc f3 3c db a0 97 bc f6 63 38 3d 3e 6b 78 be
       0.029753039 -0.018509319 0.045017205 -0.2425966
0003a0 96 21 86 bd af 89 63 3d 51 40 b7 3c e2 10 ee 3c
       -0.06549375 0.055551227 0.022369536 0.029060785
0003b0 fb 57 81 be 34 cb 8d 3d 19 9a 02 3d e5 5a 13 3e
       -0.25262436 0.069235235 0.03188524 0.14390142
0003c0 38 a5 86 bd 07 20 d9 bd a7 2c a9 3c 94 d8 5d 3b
       -0.06574482 -0.10601812 0.020651175 0.0033851014
0003d0 24 cc 0a bd 48 f4 61 bc 65 2f 30 3d b6 7a 86 bd
       -0.03388609 -0.013791151 0.04301395 -0.06566374
0003e0 dc 89 0c be 65 54 f5 3d 4a e4 26 3e dc a5 14 bd
       -0.13724464 0.119789876 0.16298023 -0.03629099
0003f0 56 e0 19 3d 88 59 70 3d 23 ef be 3d 6a 66 8d be
       0.03756746 0.058679134 0.093229555 -0.27617198

fc3.bias f4 [2]
000000 79 29 57 3c c4 2c ad 3c
       0.013132446 0.02113951
