checkpoint_critic0.pth (torch, 161055 bytes, 5 tensors)

fc1.weight f4 [256, 24]
00000000: 8f0e 4e3c 9a48 613c 2188 113d 544a 10bd
00000010: 792d babd b2e4 83be 4483 48bc c993 043d
00000020: 631f 39bc ccd6 c83c ae71 56bd 3711 33bc
00000030: cd99 883a 227b d4bd b47f 423d ee23 30bb
00000040: 151b 933c 3894 96bd 86fc 693d 05c3 03bd
00000050: 180c aabd 7cde db3d 8c82 1cbd 95b7 9abb
00000060: 788b c53c c1d2 4a3d 7345 8aba 0271 243d
00000070: 1666 d73b c3c0 0bbd 0fae 323d aed9 9a3c
00000080: b0c2 7bbb e604 df3c 3b83 ee3c 58e0 6f3d
00000090: c912 b83c c4aa 743d f210 e3bb 4a77 673d
000000a0: 4983 153d 2875 673c 1f0e aebc e074 cabd
000000b0: 2948 423d b567 053e 0f6c ad3c a04b 91bd
000000c0: 07fd ac3a 08a8 7cbd 2bf2 0c3c 41d8 6cbd
000000d0: 7588 94bd 170b 05be 6f01 f53c b3e9 35bd
000000e0: e79a 8fbc 742d 78bd 73fe d43c 098c f8bc
000000f0: 24bb 633d 91fd 70bd d242 253d 2343 3d3d
00000100: 8dc0 0e3c da10 2abe ba4b 2e3d 3037 8b3d
00000110: c4de 353e e201 d73d 9cd3 88bc ca3d 903d
00000120: 3c1c 1f3d 4778 7d3d 2381 eb3b 31c4 7e3c
00000130: 4753 b6bc f5dc 823c 09a9 953c 4f7c 123d
00000140: f0ca 563b 5126 0e3e 1864 e7ba d6fa a93c
00000150: 4557 8c3b ac84 12be a0c4 7e3d 6631 69bd
00000160: 3d74 24bd 354d 0e3e 06a9 c73c c7b9 a33c
00000170: 7dea 323c 5f09 8bbe 3265 213d c084 413c
00000180: c509 7a3d 77f3 c7bd c162 abbc b086 163d
00000190: c2cc 023d 046a 91bd f5e9 223d 5094 0bbc
000001a0: b492 24bd e4b4 5cbd 5933 8dbb a95c 83bd
000001b0: e803 af3d 3c8a 833d f902 d6bc 5365 063d
000001c0: d723 3a3d 7705 ffbd e840 cbbb 3143 ab3c
000001d0: e3b1 843d 79fe fe3c 9803 103d 19e6 afbc
000001e0: 90a9 893d da68 783c 3f30 db3c abe5 cebc
000001f0: ff99 9bbd 2a38 343d a6bc 66bc e670 88bd
00000200: ffea 993d 7b0e 2dbd c3bd 243d 78fc 2ebd
00000210: d00a 27bd faa6 5e3d 48b6 7d3c 52cc 87bd
00000220: c34f 293c 2c00 ec3a 68f7 b23a e7b5 3f3d
00000230: 1c77 f0bc daed a53d 7b1b 8b3c f3c8 d6bc
00000240: db36 8a3d 2dda 973d 116c 18bd 5f3c 63bd
00000250: 2830 383c ced6 a53c daf4 5f3b 2518 01bb
00000260: 4829 fe3c b97b 3a3d 2832 053d 53e1 18bc
00000270: 8c90 8abd 9d4d 4bbd b4c5 48bd 6200 66bd
00000280: 304d 3e3d 4587 193d 227a b9bc ccb4 abbd
00000290: b33d 2ebd 788d 25be dcf0 cebc c934 2ebd
000002a0: a99a 023c d4cc fc3d 838d 44bc 1736 dfba
000002b0: 60c0 e8bd 4727 753d 2628 b33c 1c6f ab3c
000002c0: 0a96 393b 9c50 c73d 6fd1 1abd 1d40 2fbd
000002d0: 0bed 15bd 5760 1dbd 2f52 0a3d 6743 dd3c
000002e0: 8c04 52bd c2d2 f93b a39f 89bb f53d cc3c
000002f0: 35b9 8a3d 0388 603b 69ac 8e3c 37f6 2dbc
00000300: 43b2 093d 4fa4 aabc 2737 dfbc 94d5 c43b
00000310: a1c4 8d3d 9c4d bf3d 94e7 c8bb 506c 95bc
00000320: 7fbf 6ebd 8d12 f53c 95db 663c 1837 553d
00000330: b31d e23c 2e78 913b c798 8ebd e399 dabc
00000340: c83f afbc 18dc 24bd ed6b 2ebc 86bc f43c
00000350: a84f a63c 4b64 e2bd 5d3c 0fbc 14bc b03b
00000360: e88f 29bd aa90 10bb ea6c e5bc f2dd cc3c
00000370: cd8d 4dbd 42ab 37bd 92ad 233d a792 8b3c
00000380: f7f4 973d dac4 debb 2cef 363d cdc4 aebc
00000390: 8f5f 00be 152b 61bc e313 c1bc 145d 02bd
000003a0: 0c09 b0bc 1197 b03d 5713 0ebd 164d 003d
000003b0: 2980 4bbe 8b61 d43d b7ae 3c3d 1552 9abb
000003c0: 8d9a 53bd e038 c73d 7494 1b3d 46f0 3fbd
000003d0: b70d 313d c573 48bc a096 cb3c 2c78 163b
000003e0: 3a58 04bd be34 8b3d 2bac 273d 50ab a73c
000003f0: 56a2 583d e102 44be 9337 32bd 1622 093d
0.012576713 0.01375022 0.035530213 -0.035227135 -0.090907045 -0.25760418 -0.012238327 0.0323675
-0.011298987 0.024516486 -0.052354507 -0.010929397 0.0010421813 -0.10375048 0.04748507 -0.0026876885
0.01795725 -0.07352489 0.05712559 -0.032168407 -0.08303088 0.10735795 -0.038210437 -0.0047215917
0.024114355 0.049517397 -0.0010549262 0.040146835 0.006573449 -0.03411938 0.043623026 0.018902626
-0.0038415603 0.027224015 0.02911531 0.05856356 0.022469895 0.059733167 -0.0069295103 0.056510247
0.036502156 0.014127053 -0.021246968 -0.098855734 0.0474321 0.13027842 0.02116969 -0.070945024
0.0013197967 -0.061683685 0.008602659 -0.057823423 -0.072525896 -0.12992512 0.02990791 -0.044412326
-0.017529918 -0.060590222 0.026000237 -0.030340211 0.055598393 -0.05883557 0.040346928 0.046206605
0.0087129 -0.16607991 0.042552687 0.067976356 0.1776076 0.10498406 -0.016702466 0.07043035
0.038845286 0.061882284 0.007187025 0.015549705 -0.022256507 0.015974501 0.018269079 0.03576308
0.0032774769 0.13881804 -0.0017653732 0.02074949 0.0042828643 -0.14308423 0.062199235 -0.056931876
-0.040149916 0.1389664 0.024372589 0.019986046 0.010920164 -0.27155587 0.039403148 0.011811435
0.061044473 -0.09763234 -0.020921113 0.03674954 0.031933554 -0.07100299 0.0397739 -0.008519247
-0.04017897 -0.05388345 -0.0043090996 -0.06414158 0.08545667 0.064228505 -0.026124464 0.032811474
0.045444336 -0.12452214 -0.006202806 0.020906063 0.06479242 0.031127201 0.035159677 -0.021472024
0.067217946 0.015161717 0.026756404 -0.025255999 -0.07597732 0.043998875 -0.014083063 -0.06662159
0.07515525 -0.042250138 0.040220033 -0.04272124 -0.040781796 0.05435846 0.015485354 -0.06630768
0.010333958 0.0018005422 0.0013654055 0.046804335 -0.02935367 0.08102007 0.016980877 -0.026218867
0.06748744 0.074146606 -0.037212435 -0.055477496 0.01124195 0.020244028 0.0034173043 -0.001969823
0.031025544 0.045528147 0.032518536 -0.009331065 -0.067658514 -0.049634565 -0.04901667 -0.05615271
0.04646033 0.03748252 -0.022641245 -0.08384094 -0.04253931 -0.16167247 -0.025261335 -0.04253081
0.007971444 0.12343755 -0.01199663 -0.001702967 -0.113648176 0.05985191 0.02186973 0.020927005
0.002831819 0.09732172 -0.037797388 -0.042785753 -0.036603015 -0.038421955 0.033769783 0.027009679
-0.051273867 0.0076240012 -0.0041999384 0.024931887 0.06773607 0.0034260757 0.017416196 -0.010617784
0.03361727 -0.020830302 -0.027247978 0.006006906 0.069222696 0.09340975 -0.006131122 -0.018240124
-0.058288094 0.029916072 0.014090438 0.052054495 0.027602052 0.0044393754 -0.06962734 -0.026684707
-0.021392718 -0.04024896 -0.010645849 0.029875051 0.020301655 -0.110542856 -0.008742419 0.0053935144
-0.041397005 -0.0022058883 -0.028006036 0.025008176 -0.05018406 -0.04484106 0.03996045 0.017037703
0.0741977 -0.006798369 0.044661686 -0.021334076 -0.12536453 -0.013743182 -0.023569053 -0.031827047
-0.021488689 0.08622564 -0.034686413 0.031323515 -0.19873108 0.10370167 0.04606506 -0.004709492
-0.051661063 0.09727645 0.037983373 -0.046860002 0.04322597 -0.012234633 0.024852097 0.0022959812
-0.032310702 0.06797169 0.040935677 0.02046743 0.05288919 -0.19141723 -0.04351003 0.033479773

fc1.bias f4 [256]
00000000: bc9b 2ebd 6a7c 4dbd 122e 3f3d 67d7 20bd
00000010: 3258 a1bc 67b0 9f3c 889f 313d 5651 933d
00000020: fbb3 9ebd 356d eebc 9df9 513c 7682 85bd
00000030: c2fe 323c 40f9 dbbc ba4a e03b 56a7 cd3c
00000040: 898b aabd 39ef 343d 162f 183d 12ca 4dbc
00000050: 6918 41bc 7fd7 bfbd bd84 f9ba f3b9 9f3d
00000060: 88db a2bd afc2 14bd f751 71bd 9927 563d
00000070: c489 64bc a9ff 9bbc 302a 943c b97e 1fbb
00000080: 814b edbb f3ad 853d d309 55bd ecd0 03bc
00000090: b761 b2bd c3ba 493d e5d6 9fbd 5c1c 3cbd
000000a0: 24e5 6d3c 2e27 d23c 46f6 a03c 7ea8 c3bd
000000b0: da2a b2bc 97ed 86bd adcf fabc 78f9 25bd
000000c0: dc15 2bbd 7ad0 9cbc 9842 b5bc 0d65 a2bc
000000d0: dab7 213d 9636 1b3b a573 abbd 4906 783d
000000e0: 6226 a13c de4d 753d 5db3 c8bc bd46 243d
000000f0: de2b 59bc 85db c33c 1ae4 f43c 367c abbd
00000100: 464b b5bc 0328 00be 197e 033c b20d 13bd
00000110: bbfd d3bc b3f4 52bd e9c3 d43a f378 673c
00000120: 19fa f3bc 6217 2f3c 4d36 8e3c 385f 663a
00000130: 4b69 443d 9e61 403c 3709 513c 5148 b9bd
00000140: 60e9 9d3d b4e1 42bc 5d26 653d 8051 d83c
00000150: 72bf f73b 21a1 03bb d636 803d d171 9c3a
00000160: 8ea4 3bbd f9d2 503d 14c1 cb3c ec66 1fbd
00000170: a4f8 05bd 92d4 85bc bfec 453d ac67 21bd
00000180: e197 813d b2c2 3dbd 037c 1cbd 6f87 5cbd
00000190: 5868 9f3d 5c24 68bd 93ad d7bd 7cfd 183c
000001a0: ec74 953c 0a0a 83bd af93 afbd 5831 6ebd
000001b0: 42f0 1f3c 6774 bb3c 0ec7 aa3c 7851 033d
000001c0: 4dba 96bd 1123 aabc 526b c2bd e6bf 4a3d
000001d0: 7177 ddbd 52fb 3b3d cb86 eb3d 4b32 713d
000001e0: c915 a0bd 3120 fd3c 3bab 40bd 8954 59bd
000001f0: 917d 89bd ed39 ddbd 4cd6 0ebd fc15 bfbc
00000200: 54f9 0dbd d905 2fbd e204 a2bd cb5e e3bc
00000210: 9f4e d33b 175f caba eb35 0a3d 2770 6e3c
00000220: d3cd 933d 5e79 48bc 9f05 e63b 70a4 883c
00000230: 1620 1cbd 1622 d5bb 486b 7d3d 055e 6d3c
00000240: 9e46 4bbd 129f 34bc 104d 993c 056b 7dbd
00000250: 64d9 a93c 6173 1cbc 033c 7ebd 4c99 493d
00000260: ee13 d93c fe64 803a 00bd 6dbd 63ca 1cbd
00000270: 6a4b 3d3b 3ec1 553d a268 c7bc 472d 303d
00000280: 4ae1 cebc f38d 213b c638 23bc 5160 a7bd
00000290: 7453 bfbc 23f1 b43a 4f95 0dbd 295e f1bc
000002a0: 3330 af3c bbd2 8cbc a2d3 34bc ba80 e5bc
000002b0: d896 8aba d524 abbc 677d 2dbd 3afa 2d3c
000002c0: 607b c83c ce96 c7bc c774 82bc 09ae 813c
000002d0: c8df 1cbd 140d 643c 0709 f239 af49 5cbd
000002e0: 7bf2 42bb c56a 4f3c 1989 923d 9948 823b
000002f0: c591 98bd 61b5 ac3c a194 633c caab 7dbc
00000300: 8b51 a6bc e0a9 2bbd f288 e5bb 4b14 aa3b
00000310: 7a34 9bbc cff7 603c 3266 903d 15fd f7bd
00000320: ee73 6e3d 31d6 a5bd aa72 05bd 5535 e9bc
00000330: 375d f1bc 0f59 1cbc 9d1a aa3c 20a2 0ebd
00000340: eef6 88bd b582 93bd dbfa 2bbd 9a0c a0bd
00000350: bd91 aabc db4b 64bd 6e7e 4f3c 909d 7abd
00000360: ab9a 16bc 1513 dbbd 55f0 5c3d 1a2e 393d
00000370: 7ae2 df3c c62a aebc a06b 793d 83f4 efbc
00000380: 9119 e0bc e7aa c6bd d1b4 2fba 8849 3c3c
00000390: 4669 d6bc a183 abbd 87a5 50bd 9fba a6bc
000003a0: 766f 2b3c fd88 7ebc 9f91 403d 9519 873c
000003b0: 7743 3ebd 74c3 3fbd 631e 373d e6b6 8bbc
000003c0: 1d9d 6abc 6885 edbc c08b 09bc d492 64bb
000003d0: 25ad 803d 7c98 42bc ca0b 62bd 0052 abbb
000003e0: 5142 5cbd f6d4 22bd 50b9 ad3c 2915 9bbd
000003f0: 432e 89bd a1a1 c13d b1ca ef3c d447 0d3d
-0.04262899 -0.05016748 0.046674795 -0.039267924 -0.019695375 0.019493295 0.04336503 0.07193248
-0.07749172 -0.029104808 0.01281586 -0.06519024 0.010924997 -0.02685225 0.0068448456 0.025104206
-0.083273955 0.044173453 0.03715428 -0.012560384 -0.011785605 -0.093672745 -0.0019036751 0.07799139
-0.079520285 -0.036318477 -0.05891606 0.052283857 -0.0139488615 -0.019042807 0.018086523 -0.0024337007
-0.007241667 0.06527319 -0.052011322 -0.008045416 -0.08710044 0.049250375 -0.0780466 -0.045925483
0.014519963 0.025653448 0.019648682 -0.09553622 -0.021748949 -0.065882854 -0.030616606 -0.040521115
-0.041768894 -0.019142378 -0.022126481 -0.019823575 0.039481975 0.0023683659 -0.08371667 0.06055287
0.019671623 0.059888713 -0.02449959 0.040106524 -0.013255088 0.023908386 0.029893924 -0.08373301
-0.02213062 -0.12515263 0.0080256695 -0.035901733 -0.025877824 -0.051502895 0.0016232702 0.014127958
-0.029782342 0.010686727 0.017359877 0.00087879924 0.047951978 0.011742024 0.012758545 -0.090469964
0.077105284 -0.011894632 0.05594479 0.02640605 0.007560664 -0.0020085054 0.06260459 0.0011935775
-0.04581123 0.05098245 0.02487234 -0.038916513 -0.032707825 -0.016336713 0.04832148 -0.03940551
0.06327797 -0.046328254 -0.038204204 -0.053840097 0.07783574 -0.0566753 -0.105311535 0.009337779
0.01824423 -0.06398399 -0.0857309 -0.058152527 0.009761872 0.022882653 0.02084687 0.032060117
-0.07359753 -0.020768674 -0.09493126 0.049499415 -0.10813797 0.045893975 0.11500319 0.058885854
-0.07816655 0.03089914 -0.047038298 -0.053059135 -0.06713403 -0.10802064 -0.03487234 -0.023325913
-0.034661606 -0.042730186 -0.079110876 -0.027755162 0.0064485813 -0.0015439716 0.033742826 0.014553106
0.07216992 -0.012235967 0.007019713 0.016679972 -0.038116537 -0.0065043075 0.06186989 0.014487748
-0.049627893 -0.011024253 0.018713504 -0.06186964 0.020733543 -0.009548993 -0.06206895 0.04921846
0.026498761 0.0009795723 -0.058041573 -0.03827895 0.0028884062 0.052186243 -0.024341885 0.04301193
-0.02525391 0.0024651259 -0.009962266 -0.08172668 -0.023355223 0.0013804774 -0.03456622 -0.029463844
0.021385288 -0.017190328 -0.011036785 -0.028015483 -0.0010573519 -0.020891586 -0.04235592 0.010618741
0.024472892 -0.024363901 -0.015924824 0.015830057 -0.038299352 0.013919134 0.00046164563 -0.053781208
-0.002974658 0.012659733 0.071550556 0.0039759395 -0.07449678 0.021082582 0.013890416 -0.015482852
-0.020302555 -0.041910052 -0.0070048505 0.0051904074 -0.018945921 0.013730957 0.07050742 -0.121088184
0.058216028 -0.080974944 -0.032580055 -0.028467814 -0.029463394 -0.009542718 0.020764643 -0.034822583
-0.06687723 -0.07202665 -0.04198728 -0.078149036 -0.020821447 -0.055736404 0.0126644205 -0.06118542
-0.009192149 -0.10696999 0.053940136 0.04520998 0.027329672 -0.02126063 0.060893655 -0.029291397
-0.027355941 -0.09700566 -0.0006702664 0.011492141 -0.026173245 -0.083747156 -0.05093911 -0.02035266
0.010463586 -0.01553559 0.047013875 0.01649169 -0.04645106 -0.046817258 0.044706713 -0.017054986
-0.014319685 -0.028994277 -0.008395135 -0.0034877555 0.06283025 -0.011877175 -0.055187024 -0.005228281
-0.05377418 -0.039753877 0.021206528 -0.07572395 -0.06698277 0.094546564 0.029271455 0.03449233

fc2.weight f4 [128, 258]
00000000: c5c4 753d ca45 3dbc c570 afbb 0c8b c53c
00000010: 57e5 ecbb 233d 103d 8b45 24bd 1a68 9f3d
00000020: eff7 bfbc 4d5a a2bc fabc bbbd db7c 023d
00000030: 38eb cf3c bc79 263d fe72 763d 69ac 54bd
00000040: 3d85 4b3d 301d 83bd 0d46 e23b e6f1 923c
00000050: 937d 60bc 162a 163d 8c5c 3e3d eb28 4ebd
00000060: db89 8d3d 49bd 9c3d 7b84 9e3d 31b7 583d
00000070: 0ed5 7ebd f48b 1f3d 3e25 9c3c bc22 a83d
00000080: a90b 3d3c 8ea6 8e3d 3573 ba3d 1583 bbba
00000090: 5f54 82bd 9999 af3d c361 843d 4844 dd3d
000000a0: 7132 b3bc 2658 4e3c 2844 1dbe 1217 75bd
000000b0: 5bf5 b1bc dfd3 a13d dd8c 8dbd e934 373d
000000c0: 9acb a9ba 5dd8 48bc af48 cbbd c6be 92bd
000000d0: 501b 7abd 9bbc 293c dcb8 abbd 1188 cf3c
000000e0: 5b8d 2c3e edbb 583d 1b8f bbbd 49ac 8ebc
000000f0: a273 7a3c dfc0 5abc 74a3 c6bd 88a0 503d
00000100: f08f 97bc 4c81 ecbc a071 08be 05c5 b83d
00000110: 0514 6d3d c28f 46bd 39f0 9f3c b31c 09bd
00000120: 693d bdbd 7e81 43bd 5a20 f03d 725a c5bd
00000130: 9705 a4bd 9c2f 333d 5b7b 213d c9bf 1ebc
00000140: 7126 b83c d52e ddbd 4ff9 643c ca7c 0ebc
00000150: 8819 32be e5bb 6f3c 8d80 953d 3a5f 11bd
00000160: e1e4 7abd 1cd0 4f3c 35de f23c 2dc7 1cbf
00000170: 750a 5fbd 3797 30bb b15c e4bd 2ec7 01bd
00000180: b4c2 7abe 40cf bc3b fc67 ecbb 938a 34bd
00000190: 8384 63be 0035 a2bd 56d5 6f3c 50fe 893d
000001a0: a047 883d 5841 393d 543f 26bd 68e6 0dbd
000001b0: a8b3 a4bc 485c 203c d5c2 2c3d 66f5 a3bd
000001c0: 52c8 a63d f447 29bd e273 86bd c879 e3bd
000001d0: 63e6 6fbd e6ae 48bc 8a2e ec3c b35c 843d
000001e0: a977 693d 7db2 433d cbd9 75bd c58b e13c
000001f0: cd52 ac3d 0ac6 a1bd 1126 0b3d acd8 3dbd
00000200: d3d4 84bd ab2b 2b3d 73cc 8abc 3425 2dbd
00000210: a993 3c3d 865f 1cbd 992d abbd 13f1 6a3c
00000220: 9af7 f7bd b1b7 5bbd c0da 8fbd 3494 14bd
00000230: adc7 1d3d b15c 563d 9e82 213a 43c3 653d
00000240: c98c 0c3b aa2b 49bf c0db b83c f1e3 e93c
00000250: 3d5c 5a3d 8f89 1b3d 55fa 81bd 5fb7 8c3d
00000260: ba98 273d 14fe 99bc b184 a8bb 59d7 cc3d
00000270: c2ad 3b3d 6b7c 47bd f65b 2f3d 0e9a eabd
00000280: 3fdc 2cbe fc19 0abc 8348 e63b 5368 b0bd
00000290: 0e1a 6e3c 1869 aabd 197a 1cbe f3da d2bc
000002a0: 3812 5f3d 1dd6 f53d 696a 0d3d 9f9e 6fbd
000002b0: 6d05 a9bd 1c92 e13b 8cbe 893d 7cb8 6e3d
000002c0: aaca 37be 1347 6ebd 0f3e 02bc 8cdd 103d
000002d0: 43b8 09bd d1e4 513c 982a 8ebd a843 37bc
000002e0: 115a 613d 0c3a 85bc 11d3 913d 28ee 2f3d
000002f0: 0cf7 9ebb 6f90 51bd d940 e63c dd26 02bd
00000300: cd7e c3bc e687 28bd 1818 023e 8cce 14bd
00000310: b627 473d c917 7bbc f09d 33bd ec0a 9bbd
00000320: f535 b03c 8520 74bd 0acb 82bd b415 acbd
00000330: adcd a3bb a320 4b3d 9e9d 1bbd 1c65 093d
00000340: 331b b5ba 5753 0a3d 1307 adbd e4f6 3bbb
00000350: 88dd 883c 700e 34bb 862f a8bc 03b2 59bd
00000360: dd32 bf3d 1bd7 9bbd b198 82bd d180 593c
00000370: d382 4fbf f654 5d3d 5b45 2b3d 8c48 393d
00000380: 7b41 923c e2cb bbbc d8f0 85bd 8578 9bbf
00000390: 3f6b 37ba 1af7 39bd ad51 a83d f679 bb3d
000003a0: 9599 d23c db78 673d 37ed 3abd fc81 35bb
000003b0: ce1b 9a3c 389e bfbd d62d 8b3d efd3 85bd
000003c0: dd05 7cbb 2d16 633c 44ca e2bc d491 e03b
000003d0: 59b3 42b9 2870 a33d 5eca cbbb f6b8 813d
000003e0: cbc5 ff3c d7f5 2fbd dec6 f33b 5603 d73b
000003f0: 5668 b7bd c727 7ebd 7192 9f3c 13e3 fd3c
0.060002107 -0.011552284 -0.0053540193 0.024114154 -0.007229488 0.035214555 -0.040105384 0.07783528
-0.023433654 -0.01981845 -0.09166904 0.031857353 0.025380716 0.04064344 0.06016826 -0.051922236
0.049687613 -0.064020514 0.0069053234 0.017937612 -0.013701814 0.03666123 0.04647498 -0.05033199
0.069110595 0.07653291 0.077401124 0.05290908 -0.062214904 0.03895183 0.019060727 0.0820975
0.0115384245 0.069653615 0.09104005 -0.0014306033 -0.06363749 0.08574218 0.06463959 0.10804039
-0.021874638 0.012594258 -0.15358031 -0.059836455 -0.02172344 0.07901739 -0.06911633 0.044728193
-0.0012954355 -0.012258616 -0.09925973 -0.071652934 -0.061061203 0.010359908 -0.083848685 0.025333436
0.16850798 0.052913595 -0.091581546 -0.017416136 0.015286358 -0.013351648 -0.09699145 0.050934345
-0.018501252 -0.028870247 -0.13324594 0.090219535 0.05788042 -0.048476942 0.019523727 -0.033474635
-0.09240229 -0.047730915 0.117249206 -0.09636392 -0.08008879 0.043746576 0.03942428 -0.00968928
0.022479268 -0.10799948 0.013975455 -0.008696744 -0.17392552 0.0146322 0.0729991 -0.035491206
-0.061253432 0.0126838945 0.029646972 -0.6124142 -0.054453332 -0.00269456 -0.11150492 -0.031684093
-0.24488336 0.005762011 -0.0072145443 -0.044077467 -0.22218518 -0.07920265 0.014638266 0.067379594
0.066542864 0.045228332 -0.04058774 -0.03464356 -0.020105198 0.009787627 0.042177994 -0.080057904
0.08143677 -0.041328385 -0.06565072 -0.11107212 -0.058569323 -0.01224873 0.028830785 0.064629935
0.056998882 0.04777764 -0.060022157 0.027532468 0.084142305 -0.07899101 0.03397185 -0.046349213
-0.064859055 0.041789692 -0.016943192 -0.042271808 0.046039257 -0.038177036 -0.083583064 0.014339703
-0.12107773 -0.05364198 -0.07024145 -0.03627415 0.038520504 0.05233449 0.0006161126 0.05609442
0.002144622 -0.7858225 0.022565722 0.028551074 0.05331062 0.037972983 -0.06346575 0.06870913
0.040917136 -0.018797912 -0.005142771 0.10002012 0.045820005 -0.04870264 0.04281231 -0.11455165
-0.16880892 -0.008429047 0.007027687 -0.08613648 0.014532579 -0.08320826 -0.15280952 -0.025739169
0.054460734 0.120037295 0.03452531 -0.058500882 -0.08252988 0.0068838727 0.06725797 0.058281407
-0.17948404 -0.05817325 -0.007949366 0.035367534 -0.03362299 0.012810902 -0.06941718 -0.011185564
0.055017535 -0.01626303 0.07120336 0.042951733 -0.0048512276 -0.051163133 0.028107094 -0.031775344
-0.023864174 -0.041145228 0.12704504 -0.03632979 0.048621856 -0.015325495 -0.043851793 -0.075704426
0.021510104 -0.059601326 -0.06386383 -0.08402577 -0.0049988837 0.04959167 -0.037992112 0.03354369
-0.001381731 0.033770885 -0.08448615 -0.0028681094 0.016707197 -0.0027474426 -0.020530473 -0.05314828
0.09335873 -0.076093875 -0.0637678 0.013275341 -0.81058997 0.054036103 0.04181419 0.0452352
0.01785349 -0.022924367 -0.06540078 -1.2146155 -0.0006996877 -0.04540167 0.082187034 0.091541216
0.025708 0.05651174 -0.045636382 -0.0027695885 0.018812086 -0.0935635 0.06795852 -0.06534564
-0.0038455643 0.013860268 -0.027684338 0.0068533216 -0.00018568094 0.079803765 -0.0062191924 0.063341066
0.031222245 -0.04295906 0.0074394783 0.006561677 -0.089554474 -0.062049653 0.019479008 0.030992066

fc2.bias f4 [128]
00000000: 5d0b 473d 4b68 583c a18a ea3c c279 5cbc
00000010: b4d1 363d 4d55 833d aa93 a73c bede 6fbc
00000020: 4446 853c ab8c eabc cb9c 4fbd 60ea 8dbd
00000030: 3626 263d a786 98bc 81a5 1fbc a7ab 49bc
00000040: 7a49 55bd 23fe 1b3d 2501 7a3d 91bb 19bd
00000050: 3e62 6a3d 37da 9fbd fb60 aa3d 187b b4bd
00000060: 8dc5 27bd fb84 32bd ed01 0f3c 90ab 60bd
00000070: 8fde 5ebd 07ce 6dbd 1616 243d f48b 923d
00000080: 1691 ab3d 7224 13bc 76d8 493d 6712 9abd
00000090: d998 d83c a4a8 0e3d ab01 c3bd 339a 91bd
000000a0: daf8 1a3d af61 7cbd 8625 c9bb 0aba 953c
000000b0: 9def a93d fe1b b43d e4b9 9cbb f04f 1fbd
000000c0: 1f1f b2bd 2353 f73c e416 c8bd 4bda 92bd
000000d0: 5a9b 90bc f2d4 2c3d bc0c 9ebd d629 7a3d
000000e0: f05b 103d 86fc a63b 41d0 26bd a8b4 70ba
000000f0: dfea 9abd a3c8 07bc 26ae 2dbd 3069 74bd
00000100: aadf d53c aede 6b3d 4d8f 683d 4b4d bb3c
00000110: 31d0 8cbd 4835 92bd 4a9f 8d3d 4a79 84bd
00000120: d5f3 ab3d 8fff 383c 29b6 d7bc b0aa 66bd
00000130: 5494 11bd 98dd 6b3d 71a2 4fbd b0da 013d
00000140: bbfe 17bd 9887 8dbd 17b5 4f3d 012e 9a3d
00000150: 5bdd 47bd 97cc 9a3c d565 a43d afa9 7f3d
00000160: ca6f ce3c c828 5e3d 68ca c3bd 238b b3bd
00000170: dd3a 823d d8cd 1cbe 43fd b5bc 3059 01bc
00000180: 0127 85bc 8076 8dbd eaf5 88bd a4aa c63c
00000190: 0b10 a23c fc67 223d bdad 903d c8b7 33bd
000001a0: 73ff db3d 285b 14bc ee09 283c 7793 55bc
000001b0: 020f 59bc f4c0 73bd e87c a0bd 7f4f 33bc
000001c0: f25c 973d b69c 873d 0714 aebd cb8c 1b3c
000001d0: dffc c3bd 4deb 473d 89a2 85bd eb39 853d
000001e0: 5feb bdbc 4312 3b39 bdb9 393d e5b5 dd3d
000001f0: efe7 bebd fe6b 473d c1b0 84bd a606 333d
0.04859482 0.013208459 0.028630557 -0.013456764 0.044633582 0.06412754 0.020456154 -0.014640508
0.016268857 -0.028631529 -0.05068664 -0.06929469 0.040563785 -0.018618895 -0.009744049 -0.0123089915
-0.052072026 0.03808416 0.061036248 -0.037532393 0.057222597 -0.07805293 0.08319279 -0.08812541
-0.040959883 -0.04358385 0.0087284865 -0.054851115 -0.054411467 -0.05805781 0.040060125 0.071556
0.08377282 -0.008980857 0.0492787 -0.07523041 0.026440071 0.034828797 -0.095218025 -0.07109489
0.03783498 -0.061616596 -0.0061385063 0.018277187 0.08297656 0.087944016 -0.004782902 -0.038894594
-0.08697342 0.03019101 -0.09769991 -0.07170542 -0.017652202 0.042195268 -0.07717273 0.061075054
0.03524393 0.005096021 -0.04072595 -0.00091821933 -0.07564329 -0.008287582 -0.04240241 -0.059670627
0.026107628 0.05758541 0.056777287 0.022864005 -0.06875647 -0.07139069 0.069151476 -0.064684466
0.08396117 0.011291399 -0.026331978 -0.056315124 -0.035541847 0.057584375 -0.050692026 0.031702697
-0.037108164 -0.06910628 0.05070981 0.07528306 -0.048795085 0.018896384 0.080272354 0.062417682
0.02519979 0.05423811 -0.0956009 -0.087667726 0.063588835 -0.15312898 -0.022215491 -0.007894799
-0.01625395 -0.06907368 -0.066875294 0.02425129 0.01978304 0.03964995 0.07064388 -0.04387644
0.107420824 -0.0090549365 0.010256274 -0.013035647 -0.013248207 -0.059510186 -0.07836324 -0.010944246
0.07390775 0.06621687 -0.08499914 0.009494017 -0.09569716 0.048808385 -0.06525142 0.065051876
-0.023183523 0.00017840513 0.04534315 0.10825709 -0.093215816 0.048686974 -0.06479026 0.043707512

fc3.weight f4 [1, 128]
00000000: 01c5 e13c 9c5c a73d 167a c23c cf0a 7cbc
00000010: 63b7 c3bc 5d3f 00bd da61 72bd 0860 b5bc
00000020: d447 f53c a17b 5a3d 7533 4c3c 93d4 36bd
00000030: 4d1e 253d 6bd9 8cbd ab1b 10bd 3fda bb3d
00000040: c4ec 6ebd 68ec 843d 41a4 553d 21ef 543d
00000050: 8d6c 3b3d 0fc2 5fbd 88e8 86bd 4063 c63c
00000060: dd11 40bd 14c6 ab3c 0aac 63bd 9d9c 9f3c
00000070: 7fe2 b5bb 6402 d43c 555b 953c 42eb 2f3d
00000080: 1e18 d33c cec1 55bd 86e5 64bd 5472 813c
00000090: 0a05 773c 8bbd efbc dfbb 4e3d d426 8fbd
000000a0: e0b4 cdbc 7c5f 453b 1d6c 4ebd 658f 4b3d
000000b0: 6121 1cbc a361 cbbd a9ba 94bd 9bd9 b7bb
000000c0: 467f 373a 563d bd3c d416 33bd cafd 0e3c
000000d0: 9c57 a83c 91d9 c43c efcb d03c 1e99 8d3d
000000e0: 5b3b bc3c 179c 353d 2c2f 813c 3d8a 683c
000000f0: f0a5 cf3d 5b65 5b3d 177b e4bd 54c1 1dbe
00000100: 250b e2bc 4cf7 d83c 6635 ef3c 287b 25bd
00000110: 1ff3 8bbd 9132 173d 2283 0fbe eea7 b9bc
00000120: 5664 0d3d 04a4 4dbc 6120 86bc d368 91bd
00000130: b8a0 7abd b9c3 2dbd d583 0ebd 4269 30bc
00000140: 05da f73c b5ad e73c 07ea 0bbd 185e a93c
00000150: 562b 363d fea1 953c 7b94 96bc d007 0f3d
00000160: 5a69 a3bc 2f27 a5bc 6c0b 19bd 0544 9a3c
00000170: 39ab 2c3d 9d2e 4ebd 0f86 04bd 7dc7 eb3c
00000180: 81a6 fe3c 259f 0dbd a75f f6bc 93d5 4ebc
00000190: ccd7 1dbd afb3 133d de0a 71bc 29a8 903c
000001a0: 4430 693c 0cfe 5f3c 5627 8dbc 15a5 b0bc
000001b0: 0b3b a9bc 6c15 133d faa6 3a3b 2cc1 40bd
000001c0: 868d a93c 642e 783c e0e0 1fbc d9ad 1f3d
000001d0: 0718 07bb 108c bc3d ce78 b3bd fe67 a83c
000001e0: ac05 c6bc f9a9 94bc 26a3 e03c acaf f43c
000001f0: 2f47 893b 33ea ec3c 15e1 81bd e79d 2abd
0.02755976 0.08171961 0.023739856 -0.015383436 -0.023891157 -0.031310428 -0.05917535 -0.022140518
0.029941477 0.053340558 0.01246344 -0.04463632 0.0403121 -0.06877407 -0.035182636 0.091724865
-0.058331266 0.064904034 0.052158598 0.051985864 0.04575782 -0.054628428 -0.065873206 0.024217248
-0.046892036 0.020968474 -0.05558399 0.019483859 -0.005550682 0.025880046 0.018232027 0.04294897
0.025768336 -0.05218678 -0.055882953 0.015801586 0.015076885 -0.029265186 0.050472137 -0.06989828
-0.025110662 0.0030116728 -0.050396074 0.0496973 -0.0095294425 -0.09930732 -0.07262165 -0.0056106574
0.0006999861 0.023100536 -0.043722942 0.0087275 0.020549588 0.024029525 0.025487868 0.069139704
0.022977522 0.044338312 0.015769564 0.014193115 0.10139072 0.053563457 -0.1115629 -0.1540578
-0.027593205 0.026485108 0.029200267 -0.040400654 -0.06833481 0.03691346 -0.14014867 -0.022663083
0.034519516 -0.012551311 -0.016372861 -0.07100072 -0.06118843 -0.042422984 -0.034793694 -0.010767283
0.030255327 0.028281072 -0.034158733 0.02067475 0.044474922 0.01826572 -0.018381348 0.03491956
-0.019947696 -0.020160286 -0.03736441 0.018831262 0.04215548 -0.050337423 -0.03235441 0.028781647
0.031085255 -0.0345756 -0.030074907 -0.012624162 -0.038535878 0.03606003 -0.014712064 0.01765831
0.014232699 0.013671409 -0.01723067 -0.021563092 -0.020658037 0.0359091 0.0028480873 -0.047059223
0.020697366 0.015147779 -0.009758204 0.038984153 -0.0020613687 0.09206402 -0.08763276 0.0205574
-0.024172626 -0.018147456 0.027421545 0.029868923 0.004189394 0.028920269 -0.06341759 -0.041654494
