checkpoint_actor0.pth (torch, 160543 bytes, 6 tensors)

fc1.weight f4 [256, 24]
00000000: 4be6 9a3c 0b2f 52bd 18c8 d2bb 40e6 02be
00000010: 3e2a 0bbd c786 8e3d 7977 f7ba 9a2a 50bd
00000020: c3aa 6cbd 8ada 27bb 20df a93c 9920 05be
00000030: 5c7a be3d 6dc9 d0ba 548e a93d 414e 9dbd
00000040: c247 6dbd 24c0 68bd 4a2f 363d 5847 2abc
00000050: 18e2 373e 800f c0bc 100a e13d f893 63bd
00000060: e6d7 e4bc 4e50 eebd 847c e1bd 2c8e b33d
00000070: 856b 55bd a5b4 bb3d f00a d0bd 0085 a6bb
00000080: 291c f4bc 10c9 17be ab58 6c3d 8d71 f5bd
00000090: 0188 aebd f3ec c43d 1773 283c 95d6 e0bd
000000a0: 2ba2 13bd bb52 35be 4a5e 5ebd a2a9 38bb
000000b0: 916d a0bd 16f3 fd3d 70b0 14bc 1d7c 28bd
000000c0: bee6 acbd 4fa5 7abd c122 5a3d c230 b4bd
000000d0: 80d2 143d f0ca 073e e4bb f1bc 5859 11be
000000e0: 089a 833c a71b efbc e94c 51bd 9237 2abd
000000f0: 1192 673d ffce 7e3d 29b9 02bd 96f0 b1bc
00000100: bed8 113d 979b 11bd b4cc 773d 0f17 913d
00000110: 2986 603d ce23 b13c 37e3 da3d c778 153e
00000120: 154c 8cbd d3cf 963d ea40 183d 4d2c 9c3c
00000130: e167 b53d f1f0 223c b6d1 793d cd4d 463c
00000140: fc51 a8bd 3439 943d ac08 d83b 45d7 f13b
00000150: 8cfc 733d 8086 9bbb 4a7d 383d 7541 a23d
00000160: f3a7 57bc 3347 c73d a05d b3bc afb5 d4bc
00000170: 9e37 2ebd 89d3 d13d dec0 983d 3c6c 6b3b
00000180: fa79 8cbd b77c d83c 1c9e fe3c a74c 4ebc
00000190: 57e0 b73d b8bb 32bc 80e8 98bd 62b9 adbd
000001a0: c523 7cbd 863b 6a3d 07f9 6b3d 74c0 24bd
000001b0: e99a 183e 2c0b 383d eb01 a33d 8ee9 dd3c
000001c0: ac51 783d acfe 003e c22a 8c3d 6d41 45bd
000001d0: f4c4 093e 81bd eabc 1f4f db3d 759f a43c
000001e0: ec0d 623b 2a66 773c 6208 64bc dcbd 97bd
000001f0: b770 0abb 27ac 883d b6ad 833d bbd1 64bd
00000200: 23db f1bc d322 9b3b 2fb9 97bd 427a 0ebe
00000210: e258 69bd 2ca2 353d 1da5 d4bb f6c1 e7bd
00000220: 79e4 323d 69d0 e7bd 18b1 c93d eb93 3abd
00000230: 3705 cf3d d842 663d 1e92 da3d 21f0 92bd
00000240: 7845 d9bd 6cd2 b63d e55d a6bc 560f 213d
00000250: 6b47 cc3d 56e6 c8bd 8dea e93b 5bf3 033e
00000260: 288a 08bd bbe0 563c d9d4 3e3d 0461 023e
00000270: 8af6 283c 4c8b 9d3d 9aa1 cf3c 1ed0 0a3e
00000280: 9bbd b0bd 6988 673c e8b8 31bd 56b0 2f3e
00000290: 4ee2 9b3c cc75 033d ee21 3abd 6031 4f3e
000002a0: 7885 1ebd 1f7e 5abd 949d a7bc b872 b93d
000002b0: 5519 103c b2ff c3bb f823 f43b 1b40 373d
000002c0: be72 31bd 74a1 46bc 227a 38bd bb02 73bd
000002d0: 5f79 b9bd 6003 6d3d 328b 01bd 8f42 54bd
000002e0: f2cc 21bd 3245 9cbd 9946 e53c f6ea 61bd
000002f0: a1c5 d2bd 5dad c43d 9816 d63d abde 98bd
00000300: 9af5 06be ba95 9b3c 8af0 8c3d e964 613d
00000310: 345c 69bc 433a ce3d 2af7 913d d001 f33c
00000320: 0120 a0bc e5d7 253d 0778 6d3d 17a4 e6bc
00000330: 1552 de3c 4ede 8f3d da21 a03d f3a0 5fbb
00000340: ef50 3f3d 7239 e53c e6cf e53b 3e4a f33c
00000350: 8aea 903c 43fb ad3c 63ba 90bd 6ece 15bd
00000360: 8ef4 c03c d0dc 57bd ddf1 133c d692 c53d
00000370: 3d64 81bd 086b c43c 3220 603a 1699 e93d
00000380: 1b46 d1bc cf63 72bd a308 0d3d e585 b9ba
00000390: cc78 00be ce67 203c f98d 31bc 89de 92bd
000003a0: 14b8 eabb a137 39be 9fcb 56bd 811d 3e3d
000003b0: 18a2 64be 550e 713c 4753 363d cc3d a63c
000003c0: ebea 283d 12de 5f3d 9ce1 233d 8b4a 853d
000003d0: a014 6cba 37f8 3abd 2b32 1bbb b181 f73d
000003e0: 17b3 cd3d 64e0 2d3d 4888 81bd a2ec 0c3e
000003f0: a0e6 df3c 1ee8 14be 143f d6bd 34ec 223e
0.01890864 -0.051314395 -0.0064325444 -0.12783146 -0.033975832 0.069593005 -0.001888021 -0.050821878
-0.05778004 -0.0025612437 0.020736277 -0.13000716 0.09300682 -0.001592917 0.082791 -0.076809414
-0.05792976 -0.056823865 0.044478692 -0.010392986 0.17957342 -0.023444891 0.109882474 -0.055561036
-0.02793498 -0.11636411 -0.110100776 0.087673515 -0.05210449 0.091653146 -0.10158336 -0.005081773
-0.029798584 -0.14822793 0.057701748 -0.11984549 -0.085220344 0.09615507 0.010281346 -0.10978428
-0.036043327 -0.1770734 -0.05428914 -0.002817728 -0.07833398 0.123998806 -0.009075269 -0.04113399
-0.08442448 -0.061192807 0.0532558 -0.08798362 0.03633356 0.13261008 -0.029508539 -0.14194238
0.016064659 -0.02918799 -0.051098738 -0.041556902 0.056535784 0.062209126 -0.031914864 -0.021721166
0.035607092 -0.035548773 0.060497954 0.07084476 0.054815445 0.021623518 0.10687869 0.14596854
-0.06850449 0.07363858 0.037171282 0.019064093 0.08857704 0.00994514 0.06099101 0.01210351
-0.08218762 0.07237473 0.0065928306 0.0073803985 0.05956702 -0.0047462583 0.04504136 0.07922641
-0.013162601 0.09730377 -0.02189523 -0.02596554 -0.04253351 0.10245425 0.074586615 0.0035922667
-0.06859203 0.026426656 0.031081252 -0.0125915175 0.08978336 -0.010909013 -0.07466221 -0.084826246
-0.06155755 0.057185672 0.057610538 -0.0402226 0.14902844 0.04493253 0.0795935 0.027088907
0.060624763 0.1259715 0.06844093 -0.048158098 0.13454038 -0.028654816 0.107084505 0.020095566
0.0034493161 0.015100041 -0.013918014 -0.0740926 -0.0021124312 0.066734605 0.06429617 -0.055864077
-0.029523438 0.004734376 -0.07408368 -0.13913825 -0.05696953 0.044344112 -0.0064894096 -0.11316292
0.04367492 -0.11319048 0.09848231 -0.04555122 0.101084165 0.05621609 0.10672401 -0.07174707
-0.10608953 0.089268535 -0.020308444 0.039321266 0.099745594 -0.09809558 0.0071385563 0.12885801
-0.03333488 0.013115103 0.046589706 0.12732321 0.010312686 0.076925844 0.025345612 0.13555953
-0.086299144 0.014131644 -0.04338923 0.1715711 0.019028809 0.03209476 -0.045442514 0.20233679
-0.038701504 -0.053342935 -0.020460881 0.09055084 0.008795102 -0.005981409 0.007450577 0.04473887
-0.043322317 -0.012123454 -0.04503835 -0.059328776 -0.09056353 0.057864547 -0.031626888 -0.051821288
-0.03950209 -0.076303855 0.027987765 -0.055155717 -0.10291601 0.09603379 0.10453528 -0.074643455
-0.13179627 0.018992294 0.06881817 0.055027876 -0.014243174 0.10069706 0.07127221 0.02966395
-0.01954651 0.040489096 0.057975795 -0.028154416 0.02713875 0.07024823 0.07818957 -0.0034123033
0.046708044 0.027981494 0.007013309 0.029698487 0.017689962 0.021237975 -0.070668004 -0.03657382
0.023554113 -0.052700818 0.009029833 0.09647147 -0.06317947 0.023976818 0.00085497194 0.11406152
-0.025546124 -0.059177216 0.034432065 -0.0014154284 -0.1254608 0.009790374 -0.010837072 -0.071713515
-0.007163057 -0.18087627 -0.052440282 0.046414856 -0.22327459 0.01471289 0.044513013 0.020293139
0.04123966 0.054655142 0.04001008 0.065083586 -0.0009005759 -0.045646872 -0.0023681025 0.120852835
0.10043924 0.042450324 -0.06324822 0.13762143 0.02733165 -0.1454167 -0.1046125 0.15910417

fc1.bias f4 [256]
00000000: 30f4 783c 4d17 bb3b 6ba6 90ba aabf 0f3c
00000010: 9507 19bc e29c 22bc 38fb 683d ba13 f13d
00000020: 7b97 e9bc 15bd f93d 084b babd 0381 95bd
00000030: f880 81bc 1c71 153c e59b 5d3d 1d8a d03d
00000040: 3e24 d33c 9df1 413c c181 823d 40da a3bd
00000050: c151 0a3b 61db 423d d751 d5bc fc6e d43d
00000060: c1a9 aebd bd28 dfbb fceb 69bc e762 96bc
00000070: 9706 293d 20d9 0fbd e367 743d f474 edbc
00000080: 1f02 763d c1b9 0bbb f7cf d73d 5869 ebb9
00000090: 0a6c c53b 85b9 89bd fe19 eebc e829 e93c
000000a0: 8f20 5dbc 0867 1fbd 3714 823d 608a 30bd
000000b0: 59af 253d f8e6 893d 444f 27bc 6dbd 5f3d
000000c0: ed1e 543d bd7e 2bbd a6a1 f0bc c6b8 81bd
000000d0: d300 06bd 6bff 33bd 923a 043d 3803 a5bc
000000e0: c733 4dbd 9e70 c33b 9ac2 fabc 4323 d1bd
000000f0: c3b1 f5bd ec2b 25bd 16a3 0d3d 39a5 f63c
00000100: fad6 fabc 4e21 283d 69fb 7b3d a456 c23b
00000110: d7de 8cbd 8b91 bc3d b067 8ebc c6fe 66bc
00000120: 4e2c eabd d479 113d ee72 33bd 6c64 313c
00000130: 444b 00bd 044c 2abd 28b0 8a3c 8345 a9bd
00000140: a6d9 033d a086 8dbd 3a05 eebd 3732 9c3d
00000150: d747 823c 2f5e 8ebd 9e20 13be c2dc 85bc
00000160: 469e 36bd f709 c1bc 36b0 b3bc d91a e5bb
00000170: ec9d 9abd d8e6 8cbc 99db a0ba fc51 bbbc
00000180: 1280 873d 1051 09be 4478 8f3d b589 a7bd
00000190: b155 903b b6ca 8cbc e117 d1bc 8ae5 f83c
000001a0: d408 173d e2a0 6439 0eb1 183d c7ab 063d
000001b0: 819c 913c 309b 703d ffdf a8bd e8c0 a3bd
000001c0: 9f90 9c3c c45a 97bc c9ff 8c3d 527f a3bc
000001d0: 8338 283d cdcd 853d 53a7 cabc 485d 613d
000001e0: 4139 05bc e82b 2cbd b891 12bd 7329 0b3b
000001f0: a0ad f2bc 7dd4 0bbd 42c8 663d 8b71 35be
00000200: 8911 67bd 6cb5 943d b73d 84bd 6555 b93d
00000210: 0f24 54bc 615f 943d 375e 9a3d 759d 82bd
00000220: fae7 d0bb e009 983d 29e2 9abd a927 f5bb
00000230: 19f6 84bc 031d bb3d a971 b43c 59b4 b0bd
00000240: 747c f1bb 8375 213d 8368 223d 07b6 0b3d
00000250: ed17 4cbc 84dc b53c 8151 0e3d c44f 4ebd
00000260: 015a 2dbd 8d49 b3bd 8e54 913c 0a28 13bc
00000270: a39e 323d 8e4c 72bd 3f50 2a3d fdb2 a53d
00000280: d9fc 1e3c ac5c cebd 68b4 883d 5587 9e3d
00000290: fdb2 043d b5aa 1bbd aeb8 e13c 22e2 aabb
000002a0: e2b4 023d c54e 513c c868 33bd 5136 12bd
000002b0: d5ef bfbd 94d1 01bd 79a4 2c3d ebfa 79bd
000002c0: 80a9 473d 2cba 9ebd 2363 013d 7fe0 dc3d
000002d0: 9fab 203d eeb5 73bc f6b6 0f3d 518d b6bc
000002e0: 38c7 9239 1026 ba3d f1d3 b03d 4aec 0dbd
000002f0: 44bb 0e3d 64ed d23d ba57 50bd 718f 79bc
00000300: 5e83 8bbd cb79 babd 1a92 313d 260e 7bbb
00000310: d063 813b ddcc 66bb c4bf a43b 11ab 55bd
00000320: 0c1a 0a3d 0861 123d b100 653d a5f1 783d
00000330: b843 b73c 10d1 983d 65d5 25bd d32b d23c
00000340: a664 55bc 0192 803d c11d 1c3d 54e3 103d
00000350: 53e8 243d 2015 833d 1a07 c73c 7cca 6cbc
00000360: f228 3db9 5c92 213d 4458 1dbd 533b e5bd
00000370: 4111 9ebc cae1 6a3d 27cc 723d 20b6 113e
00000380: 5736 0b3d 4d15 d43c e12a a1bc dccd 123c
00000390: e760 babd 5eed 2bbd 29da d4bb 0bf1 773d
000003a0: 1fcc f4bd 52b2 133d 1918 b8bd df51 db3c
000003b0: 79d0 27ba 2aa7 4c3d 5ecb a0bd d513 a6bd
000003c0: 1e39 533d cc53 c3bc e0c1 5e3d 1462 d2bc
000003d0: 2ffa 09bd 605d c23d 07ea 533d 6740 463c
000003e0: 1651 6f3d 6285 e5bc f68c 273c caca a5bc
000003f0: 5e85 c83c 25a1 203c a6ff 2c3b d6b1 edbd
0.015194938 0.005709565 -0.0011035925 0.008773724 -0.009340187 -0.009925099 0.056880206 0.11771341
-0.028514614 0.12194268 -0.09096342 -0.07299998 -0.015808567 0.009121206 0.05410375 0.10182593
0.025774118 0.01183739 0.06372405 -0.08000612 0.0021105858 0.047572497 -0.02604 0.10372731
-0.08528472 -0.0068102763 -0.014277454 -0.018357707 0.04126605 -0.035119176 0.059669387 -0.028986432
0.060060617 -0.0021320435 0.10537713 -0.0004490118 0.006024842 -0.06724838 -0.029065128 0.028462365
-0.013496532 -0.038916618 0.06351512 -0.043100715 0.040450428 0.06733507 -0.0102117695 0.05462401
0.051787306 -0.041868914 -0.029373955 -0.06334071 -0.03271563 -0.043944757 0.03228242 -0.020143136
-0.050098207 0.0059643527 -0.030610371 -0.10211804 -0.11996796 -0.04032509 0.03457936 0.030108081
-0.030620087 0.041047387 0.06151906 0.0059307385 -0.06878441 0.092074476 -0.017383426 -0.014098829
-0.11434232 0.035516575 -0.043810777 0.010827165 -0.03132178 -0.0415764 0.016929701 -0.082652114
0.032189988 -0.06910443 -0.11622091 0.07626765 0.015903397 -0.06951558 -0.14367911 -0.016340617
-0.044584535 -0.023564322 -0.02193461 -0.006991726 -0.075496525 -0.017199919 -0.0012272476 -0.022866242
0.06616224 -0.13409829 0.07005361 -0.081805624 0.0044047465 -0.017186504 -0.025524082 0.03038289
0.036873654 0.00021803708 0.037278228 0.032878663 0.017774822 0.05874175 -0.08245849 -0.07995778
0.01911193 -0.018475898 0.06884725 -0.019958172 0.04106952 0.06533394 -0.02473799 0.0550206
-0.008131326 -0.04203406 -0.0357835 0.0021234422 -0.029623806 -0.03413819 0.056343324 -0.17719094
-0.056413207 0.07261166 -0.06457084 0.09049491 -0.01294805 0.072447546 0.07537501 -0.06377689
-0.00637531 0.074237585 -0.07562668 -0.0074815345 -0.01623063 0.09136393 0.022026854 -0.086281486
-0.0073695723 0.03941871 0.03965045 0.03410914 -0.012456876 0.022199877 0.034745697 -0.05036904
-0.042322163 -0.08754263 0.017740514 -0.008981714 0.04360832 -0.05915504 0.041580435 0.0809078
0.009703838 -0.100762695 0.06675035 0.07740656 0.03239726 -0.038004596 0.027553882 -0.0052149454
0.031910785 0.012775128 -0.0438011 -0.03569633 -0.09371916 -0.03169401 0.04214904 -0.06103031
0.048745632 -0.07750353 0.031588685 0.10785007 0.03922617 -0.014874918 0.035086595 -0.022284182
0.0002799572 0.09089291 0.086341746 -0.03464917 0.03484656 0.10299185 -0.050864913 -0.015231953
-0.06812166 -0.091052614 0.043352224 -0.0038307994 0.003948666 -0.0035217323 0.005027743 -0.052165095
0.033716246 0.035737067 0.055908863 0.060777325 0.022371158 0.074617505 -0.040486712 0.025655663
-0.013024485 0.06277848 0.038114313 0.035373047 0.040260624 0.06400514 0.024295378 -0.014452573
-0.00018039698 0.03944622 -0.038414255 -0.11192956 -0.019295337 0.057344235 0.059276726 0.14229631
0.03398737 0.025889063 -0.019673767 0.0089602135 -0.09100514 -0.041974418 -0.0064957333 0.06053261
-0.119529955 0.03605873 -0.08988971 0.026772438 -0.0006401609 0.049964108 -0.07851289 -0.081092514
0.051568143 -0.023843668 0.054384112 -0.025681533 -0.03368586 0.09490466 0.051736858 0.012100316
0.05842694 -0.028017703 0.010226479 -0.020238299 0.024477657 0.009804045 0.0026397496 -0.11606185

fc2.weight f4 [128, 256]
00000000: 0aae 96bd afd0 94bd eed0 653c 377e ffbc
00000010: 6eb2 103d bd2d 9e3c 4ccc 263c 4ff9 923d
00000020: 277c 2dbd 84ee aab9 10b0 db3d 5f13 ef3b
00000030: 68f8 2dbd 4c3a a23d 3e20 b8bc 691f bb3c
00000040: c63a 75be 2f6c 2f3d abc3 49bd 4151 ae3d
00000050: de1c 82bb 7f5a eebd 4bf5 ed3d b3d3 af3d
00000060: 23ac db3d 6c5f 4fbb 2a70 c03c f8ea d33d
00000070: d1b2 0f3e d0e2 ad3c 7e6c 453e 8529 383c
00000080: df8d d73d 3206 3d3e f269 90bd d9c8 993d
00000090: de45 75bd 8dd7 23be fbbd 96bd 6cb3 0c3e
000000a0: e470 cebd aa9b 953d 63bc 71bd 78a9 373e
000000b0: 67bd 383d 72ff a0bd e376 c83b 59b5 ec3d
000000c0: 6ac1 e23d 109d 083e 47b9 0a3d b9a0 dabc
000000d0: 6800 8a3c 68d8 453b d1e8 8f3a ca75 4dbc
000000e0: f554 573d 2cb3 94b8 b528 3dbd 5993 19bd
000000f0: 9525 a7bc 70b2 2a3e a1c8 043d 0e2e 293c
00000100: 4411 5c3d 02c9 7c3d c25f 463d 9eae e23d
00000110: f4d3 a23d cb69 303e dcc7 95bd 9e1b c03d
00000120: 4c1e ef3c 00c9 3a3d f89a 8a3d 6c93 da3d
00000130: a2e6 5cba a9c6 e83d 91cc 9c3d 6e78 353d
00000140: 526a 283d 01dc 2d3d 91ef a5bd 28b3 1c3e
00000150: 91ab 1a3d 38d6 813d cf89 0e3d 5148 d63c
00000160: 09d2 8cbd 81f6 b6bb b951 a13d dc68 8a3c
00000170: 5d83 03bd a8bb c93c 13b7 8f3d 1024 1abd
00000180: b2fd 8ebd d497 87be 36f6 58bc 0556 73bd
00000190: 9f26 1bbd 6b81 72bd d8c4 ddbc 701d 173e
000001a0: 3803 5c3d b1e5 ab3c 6d8d 703d b614 0d3d
000001b0: 202b dabd 50e7 843d 0f06 d83d cd3a 29bc
000001c0: a1ba 053d 40b5 383c 44a3 603d 765c f73d
000001d0: 6e63 04be cc79 81bd a513 0fbe 8f87 aa3c
000001e0: 6385 0a3d 3a54 8e3d fa45 12bc 8c74 173d
000001f0: d1fd 043e 6e24 a03d 8994 673d 6d4c a73d
00000200: 4d6d 0e3d 236c 66bd 8bdd e93d 8fa5 c83d
00000210: ddc5 283e 040e eabc df48 b03d c12d 5cbe
00000220: ed51 ad3b 36e7 29bd 1548 fc3d cc89 b8bc
00000230: 0cda d9bb b401 cb3d cc9f b4bc 44f1 8e3d
00000240: 3c9e a5bc d3d3 513d a08b a93d 2828 b5bd
00000250: 4931 d63d dc6d 903d de0c e7bd 4787 dd3d
00000260: c081 353e dc97 f03d 6f4c 3f3d 281b b1bd
00000270: ebdd 103e 9f07 d0bc f7e0 173e 5c44 dbbc
00000280: 3684 65bd 011d 6a3d 095b e93c af2a 0dbe
00000290: f68a ce3d 0608 213d 0aa5 fb3d e6e5 3cbb
000002a0: a0f4 903d eea0 353c b4f6 cbbb cc07 f7bd
000002b0: d5e2 02bd eec0 37bc b9a0 ec3d b3e3 b43d
000002c0: 3c14 1dbd f7b7 c6bd 5642 1dbd 02e8 a9bd
000002d0: f47b 803d 5e4d 5dbd a887 643d 2fe3 893d
000002e0: a756 d03d 10e7 7cbd 5f0c 5cbd 3f31 9cbc
000002f0: 0653 62bd 84ff 96bc 94e3 6e3d c5c3 16be
00000300: 4c1e f6bd d922 303d 1cb3 673d a028 e33d
00000310: aa9b babd b021 f1bd 681d 4d3d 8927 12bd
00000320: 71fc 0fbe f329 2c3e c1fc 77bd a18d fdbc
00000330: 4ef7 14bd 022b 99bd 086a 22bd 4169 f53a
00000340: dd33 d8bd d2c7 673d 1b77 c63d 1508 06be
00000350: 016f cb3c d1b9 9d3d d311 c4bd 4dc6 023e
00000360: 2e0a e93c 6ddb 8b3d 1e34 36bd e0dd a5bd
00000370: 89fd cd3d 105f 7f3d 36fb 46bb af0b 5d3c
00000380: c7ef e83d 8b39 06bd f6f2 ddbd d216 21bd
00000390: e8f6 123c e84c 943d 0100 c53d 32b6 173e
000003a0: 6b46 2c3d 33de b4bd 70ad 1cbd 0781 d2bc
000003b0: f179 173e 347e 0f3e 91f8 77bd 8045 e73d
000003c0: 0863 5abd e86f 28be ec67 59bd 890f 423c
000003d0: be86 003e 0e32 c53d 7c94 bd3d 6d0a a03d
000003e0: 852e 773d 1cee a7bc 6dc1 c6bc 0757 413e
000003f0: f379 e9bd 5ecc 743d e104 d3bc cc3f d6bc
-0.07357414 -0.07266366 0.0140268635 -0.031188114 0.035326414 0.01930892 0.010180544 0.07176458
-0.04235473 -0.00032602635 0.10726941 0.0072960104 -0.042473227 0.079212755 -0.022476312 0.022842126
-0.23948202 0.04282778 -0.04925887 0.08511592 -0.0039707264 -0.116383545 0.116190515 0.085853
0.10726192 -0.003164257 0.023490984 0.10347551 0.14033057 0.021226317 0.19279668 0.011240368
0.10525107 0.18459395 -0.070514575 0.07509012 -0.059881084 -0.16000195 -0.07360455 0.13740319
-0.10080126 0.07305081 -0.05901755 0.17935741 0.045102503 -0.07861222 0.006117688 0.11558027
0.11072047 0.13341165 0.0338681 -0.026687967 0.016845897 0.0030188803 0.0010979419 -0.01254029
0.052571256 -7.090563e-05 -0.0461814 -0.037494037 -0.020403663 0.16669631 0.032417897 0.010325922
0.053727403 0.061715133 0.048431166 0.11068462 0.07950583 0.17227857 -0.07313511 0.093802676
0.029189251 0.045601845 0.06767839 0.1067265 -0.0008426701 0.113660164 0.076562054 0.044304304
0.04111702 0.04244614 -0.08102334 0.15302718 0.037761275 0.06339687 0.034799393 0.02615753
-0.068759985 -0.005583585 0.078769155 0.016895704 -0.0321077 0.024625614 0.070173405 -0.037632048
-0.06981982 -0.26483023 -0.013242295 -0.059408206 -0.03787863 -0.059205454 -0.027071401 0.14757323
0.053714007 0.020983549 0.058728624 0.03444358 -0.10652757 0.06489432 0.105480306 -0.010328961
0.032648686 0.011273682 0.054843202 0.120781824 -0.12928554 -0.06322059 -0.13972338 0.020816592
0.033818614 0.06949659 -0.0089278165 0.036976382 0.12987448 0.078194484 0.05653814 0.08168874
0.034772206 -0.05625547 0.11419209 0.09797203 0.16481729 -0.028571136 0.08607649 -0.21501829
0.0052893073 -0.041480266 0.12318436 -0.022526644 -0.0066483077 0.09912434 -0.022048853 0.069796115
-0.020217054 0.051227402 0.082785845 -0.0884555 0.10458619 0.07052204 -0.11281751 0.10816818
0.17725277 0.11747715 0.046703752 -0.08647758 0.14147155 -0.025394259 0.14831911 -0.026765995
-0.05603429 0.057156567 0.028485792 -0.13785814 0.100850984 0.039314292 0.12287338 -0.0028823554
0.070779085 0.011085732 -0.0062244777 -0.12062034 -0.031954605 -0.011215432 0.11554093 0.08832493
-0.038349375 -0.09703057 -0.03839334 -0.08296205 0.06273642 -0.05402886 0.055793434 0.06732785
0.101727776 -0.061743796 -0.053722735 -0.019066451 -0.05525496 -0.018432386 0.058322504 -0.14723118
-0.120174974 0.043001983 0.056567296 0.11091733 -0.09111722 -0.117740035 0.050076872 -0.035682235
-0.14061143 0.16812877 -0.06054378 -0.030951323 -0.03636866 -0.07478906 -0.0396519 0.0018723385
-0.10556767 0.056587048 0.09690686 -0.1308902 0.024833204 0.07701457 -0.09573712 0.12770958
0.028447237 0.068289615 -0.044483297 -0.0809896 0.100581236 0.062346518 -0.0030362136 0.013491555
0.11373859 -0.03276972 -0.10837357 -0.039328404 0.00897 0.07241231 0.09619141 0.14815596
0.042059343 -0.08831444 -0.03825134 -0.02569629 0.1479261 0.14012986 -0.060539786 0.11292553
-0.0533171 -0.16448939 -0.053077623 0.011844524 0.125514 0.09628688 0.09256837 0.078144886
0.0603471 -0.020499282 -0.024262154 0.18880855 -0.11400213 0.059765212 -0.025759162 -0.026153468

fc2.bias f4 [128]
00000000: 6715 9bbd 7dde 513d 77cb c63d a155 c6bd
00000010: 24bf 193d da55 0b3e 1838 7fbb e434 f43d
00000020: 5e57 8bbd 43be 413a 480e 07bc 22cc b93c
00000030: 642b 1a3d cfae 513c cb55 9fbd 966f a03c
00000040: 692e 04bd f978 713d 73df 01bd 7d5e 8ebb
00000050: 6401 44bd f82a 663d 80dd 82bc 4988 0b3d
00000060: ca35 1a3d c002 53bc fab0 33bb 4171 97bc
00000070: 9987 1ebc 4b3f 243d f9a8 873d fd7b 963a
00000080: 1ff1 03bd 51e6 c13c 8a7a 933d 0633 ae3d
00000090: 7b05 d0bc 6078 9b3d 0829 ff3c 77e0 c53d
000000a0: 6191 b43c 8917 0c3e 5074 633d 712c cbbc
000000b0: 2949 4d3c 5c6b 5f3d d4f6 8cbc 8f9b 95bd
000000c0: ed42 b23d c745 28bd 6b7f 25bd b9e2 e63d
000000d0: ad59 5ebd 8ddd ceba 5d34 b33c c923 43bd
000000e0: 145a 04bd 86ff e13d 0664 b43d 2d05 bfbd
000000f0: d6f5 d53d ecbc 15bd be0a de3d 822d ee3d
00000100: da76 42bd 1360 cabb acce a7bd 4fac c83d
00000110: 2200 91bd 7726 4e3d df6a a63d 63e8 fbbc
00000120: 6506 e93d 658d 4fbd f31c 943d e28a efbc
00000130: 016d f3ba ec71 8bbc 39c9 e2bd 5c44 473d
00000140: 5fc8 253a 7b0d 863c a8f2 e73d ad94 aa3d
00000150: 6528 c83d d71e cdbc d6eb 433c 31c1 d53d
00000160: ce18 da3b 9dcb b73d 1f14 443d 4276 983d
00000170: 50c2 9d3b 96e4 40bc efa5 c4ba d8f3 853d
00000180: 9f1b 40bc bd65 a03d 20dd d8bc c07a dc3d
00000190: 41ec 463c 3e09 993b e652 523d 3883 7f3d
000001a0: 3cc1 71bd fea5 a53d 8dae ce3d 2691 de3d
000001b0: 404d d93b 73f3 a2bd cd4d 8e3c 264e c5bc
000001c0: bbf7 42bc b6cc aa3d bc38 6e3d 5c62 bc3d
000001d0: a4af dcbc 1c7c edbc d59e e13d 0390 593d
000001e0: caa4 ba3d 4b96 e6bc 0294 133d fb61 b8bd
000001f0: 2852 c5bd 815d 5d3d a087 e03d bb0f 913d
-0.075724415 0.051237572 0.097067766 -0.09684301 0.0375358 0.13606969 -0.0038943347 0.119241506
-0.06803773 0.0007390717 -0.008243151 0.022680346 0.037639037 0.012798025 -0.077800356 0.019584458
-0.032270823 0.05895326 -0.03170724 -0.00434476 -0.04785289 0.056193322 -0.01597476 0.03406552
0.037648953 -0.012879074 -0.0027418719 -0.01848662 -0.009675884 0.040099423 0.06624026 0.0011481043
-0.032212373 0.023669394 0.07201107 0.08505826 -0.025393238 0.07591319 0.031147495 0.09661954
0.022041978 0.13680853 0.055530846 -0.024801465 0.01252965 0.054545745 -0.01720754 -0.07305061
0.08704171 -0.04108217 -0.04040472 0.11273713 -0.05428474 -0.001578258 0.021875555 -0.04764155
-0.032312468 0.11035065 0.088081405 -0.09327159 0.1044728 -0.036557123 0.10841893 0.11629774
-0.047476627 -0.0061760037 -0.081937164 0.0979849 -0.070801035 0.05032965 0.08125853 -0.030750459
0.11378173 -0.050671954 0.07232084 -0.02924103 -0.0018571914 -0.017022096 -0.110735364 0.048649177
0.0006324108 0.01636385 0.1132558 0.08329139 0.0977333 -0.02503912 0.011958083 0.10437239
0.006655789 0.08974383 0.04787075 0.07444431 0.0048144236 -0.011773249 -0.0015003065 0.0654065
-0.011725335 0.07831905 -0.026472628 0.107656 0.012141288 0.004670291 0.05134859 0.062381
-0.059022173 0.08088301 0.10091887 0.108675286 0.0066315234 -0.079565905 0.017371083 -0.024085116
-0.011899884 0.08339827 0.058159575 0.09198448 -0.02693922 -0.028989844 0.11016623 0.053115856
0.09113462 -0.028147837 0.036029823 -0.09003063 -0.09634811 0.05404425 0.109633684 0.070830785

fc3.weight f4 [2, 128]
00000000: 5795 8fbd 6b78 bebd 8e7d db3d b11a c23d
00000010: 51a2 1bbd 4be5 2dbd fa50 67bd fe3a dabd
00000020: 0dce 7ebd 49ec e53d a81c 053e 3e83 f33d
00000030: cd41 ffbd f9ed 75bd ff50 c53d 80f5 a73c
00000040: 3f52 edbb cbf7 02be db93 e13d 72fb 48be
00000050: 2e5b 563e 8f67 d1bc 164b 13be eedd de3d
00000060: 6e86 a2bd a8f8 a73d 0746 54bd ddc6 61bc
00000070: 737f f43d dfa6 b43d 8a89 d4bd 6320 a23d
00000080: 4c67 663c b6a5 2b3e ed94 e63d 9098 2dbd
00000090: 0a30 a7bd 7226 91bd f290 51bd a0c2 b9bd
000000a0: ecf3 84bd 5de5 77bd 3aa7 d9bd affe 9cbd
000000b0: 5f1c af3d d066 7dbd 2c94 643d 7574 113e
000000c0: 0ffd 8e3d 6ace 0f3e c094 b33d 1f14 713d
000000d0: 7ac6 013e 6693 10be 62d8 fbbd 533f 1d3e
000000e0: 8168 a7bd a9fc 5ebd df94 54bc 22f7 d23d
000000f0: 3ff8 cdbd 2623 4dbe dc9e 9cbd 070c 923d
00000100: badc 04be b9af 83bd 0089 af3d 2034 54bd
00000110: 24e2 f9bd 7954 6dbd cd49 9ebd 9581 8f3d
00000120: 68de 94bd 623f 923b b757 a83d 1fed 12be
00000130: b6f8 7b3d 0b9b ec3d af19 af3b e2cc 80be
00000140: 8781 d63d 5610 bfbc 160b 40be 8761 b13d
00000150: 8dce 1ebe a8f3 b63d dda6 a7be b44e a23d
00000160: 2fbc f8bd b828 d2bd 3292 053e b46f 8f3d
00000170: e488 fa3d cd48 5f3d 1a34 3c3e 8872 973d
00000180: fc9e 85be 54e0 bf3d d677 573d 4a35 b43d
00000190: 20d9 61be b393 98bd b5c0 04bb b341 44bd
000001a0: c28b c33d 8c29 1dbd 7d73 bfbd f745 fbbd
000001b0: 7515 df3d 138d 033d e33e 8cbd f071 a5bd
000001c0: 9405 6fbe a285 483d e966 60bd 0ff9 9cbd
000001d0: 1100 c13d f3e7 37be 520b 0abe eb25 81bd
000001e0: 6152 9dbd 0cc4 7a3e 2f33 123e 618d 84bd
000001f0: 88ec 1dbc 8f1a cbbd 458a d53d 4db3 ae3e
00000200: ac75 75be d322 83bd 7642 333e df0b 623d
00000210: f2a7 2dbe fa59 0a3e ad51 4e3d 9202 a93c
00000220: 9f7d 58be ead8 fabd 1eab 233e 22cd 15be
00000230: ad72 69be 4490 02be 9190 c03d 72f2 89be
00000240: 0fd8 32be 7b89 8fbd 5160 d53c 98be 353c
00000250: 0bce 653d fa2a 6fbe ff25 143e f939 febd
00000260: ae26 4bbc a78a 0d3d 5d4e 103d 8290 a1bc
00000270: 5595 323d 8c6b 8cbc 35ee 09be bd15 843c
00000280: b2d7 4fbe 398c 1a3d a158 47be fcd2 9ebe
00000290: 5cfe 2cbd 242a b0bd 5087 b5bd bff6 f6bd
000002a0: ab59 01bc d76c 003d 6490 003e 481c a03d
000002b0: 3d11 05be b2e7 363d d1fa 323e b0a1 5cbd
000002c0: 001f dd3b 3863 bb3c c017 a2be 0968 3dbe
000002d0: fada 93bd 28f9 22bd bf35 05be c085 e6bd
000002e0: fe25 f3bd 0451 813d 28cc 37be 5517 af3c
000002f0: d445 acbd 6eb9 03be 5b97 5c3d 1ec4 a6bd
00000300: b56e 6aba 987a 923d c6d6 3ebe 6bbb d4bc
00000310: 62ef e1bc 37e1 8e3d 98dd 89bc bd2f 90be
00000320: af10 313d 3830 97be dc3e afbd 6d04 d6bd
00000330: 3e68 9ebd 99f8 f2bd 07db 18be e8bc 55bd
00000340: 0ccf 703b a864 acbe 4ee9 0bbe 4afe 40be
00000350: 795c f0bd 2b47 533d 49d6 26be e6af 543d
00000360: 055c 23be 0899 063e 6cbb 80bc 36b5 593e
00000370: 29be 97bd da48 373e 41fa 283d b9e9 0cbe
00000380: abd7 e4bd 02ef 573a 1a5b a83c e078 34be
00000390: 9c02 a3bd f8b9 81bb 2baa 5dbe 2091 1bbe
000003a0: 8eb5 08bd 984d 33bd 43f2 b9bd 600a f43c
000003b0: 9f17 143d 114f 72be 15d8 043c d30b 69bb
000003c0: 2ea5 393e 05b0 4d3e 3d51 143d d5f3 20bd
000003d0: 8944 65be 8fa9 2abc 70ac f2bd fd6f 923d
000003e0: 40f7 31be 9e2e 92bd e464 643d b209 98be
000003f0: 167e b3bd 8a4a a4bd 0d77 2c3e a98f b3bd
-0.07010906 -0.09300312 0.10717307 0.09477747 -0.037996594 -0.042455 -0.05647371 -0.10655783
-0.062208224 0.112267084 0.12999213 0.11890267 -0.124637224 -0.0600414 0.096345894 0.020502806
-0.0072424705 -0.12789838 0.11014529 -0.19627169 0.2093322 -0.025562076 -0.14384112 0.108821735
-0.07935797 0.08201724 -0.051824596 -0.013780323 0.119383715 0.08820891 -0.10377796 0.079163335
0.014062714 0.16762432 0.11258874 -0.042381823 -0.081634596 -0.07087411 -0.05116362 -0.09070325
-0.06491837 -0.060521472 -0.10627599 -0.076657645 0.08550333 -0.061865628 0.05580537 0.14204581
0.06981861 0.14043584 0.08768606 0.05885708 0.12673369 -0.14118728 -0.12297131 0.15356188
-0.081742294 -0.054440174 -0.012974947 0.10301043 -0.10057115 -0.2003294 -0.076474875 0.071312
-0.12974826 -0.06430001 0.085710526 -0.051807523 -0.12201336 -0.057941888 -0.0772892 0.07007138
-0.07268983 0.004463122 0.08219855 -0.14348267 0.061516486 0.115530096 0.005343638 -0.25156313
0.10473924 -0.02332322 -0.18754229 0.0866118 -0.1550848 0.089331925 -0.32744494 0.07925168
-0.12145268 -0.10261673 0.1304405 0.070037276 0.12233141 0.054512788 0.1837925 0.07394892
-0.26097858 0.09368959 0.05260452 0.087992266 -0.22055483 -0.074500464 -0.0020256464 -0.04791422
0.09548141 -0.0383697 -0.093481995 -0.12269204 0.108927645 0.03211696 -0.06847932 -0.080783725
-0.23341972 0.048955567 -0.054785643 -0.07664692 0.09423841 -0.17959575 -0.13480881 -0.063060604
-0.07681728 0.24488848 0.14277337 -0.064722784 -0.009638913 -0.09917175 0.104267634 0.3412117
-0.2397067 -0.064031266 0.17505822 0.055187102 -0.16958597 0.13510886 0.05037086 0.020631108
-0.2114167 -0.12248404 0.15983245 -0.14629033 -0.22797652 -0.12750345 0.09402574 -0.26942784
-0.17465232 -0.07008644 0.026046904 0.011092804 0.0561047 -0.23356238 0.1446762 -0.12413401
-0.012399359 0.034556057 0.035230983 -0.019722227 0.043599445 -0.017141126 -0.13469775 0.016123647
-0.20297125 0.037731383 -0.19467403 -0.31020343 -0.042234764 -0.08601788 -0.088636994 -0.12058782
-0.007894914 0.031353798 0.1255508 0.07817894 -0.12994857 0.044654556 0.17478491 -0.053865135
0.0067480803 0.02287446 -0.31658745 -0.18496718 -0.07219501 -0.039788395 -0.13008784 -0.112559795
-0.11872481 0.06314281 -0.17948973 0.02137343 -0.08411756 -0.12863705 0.05385528 -0.08142875
-0.0008942888 0.07152289 -0.18636617 -0.025968274 -0.027579967 0.0697655 -0.016829297 -0.2816142
0.0432288 -0.29528975 -0.08556911 -0.10450063 -0.07734726 -0.118638225 -0.14927302 -0.05218211
0.0036744503 -0.33670545 -0.13663217 -0.18847004 -0.11736388 0.051581543 -0.16292681 0.051925562
-0.15953071 0.13144314 -0.01571437 0.21260533 -0.07409317 0.17898884 0.041254286 -0.13761033
-0.11173948 0.0008237214 0.020551253 -0.17624235 -0.07959482 -0.003958937 -0.21646945 -0.1519208
-0.03337627 -0.04377517 -0.09079411 0.029790103 0.03615534 -0.23662974 0.008108159 -0.0035560026
0.18129417 0.20086677 0.036210287 -0.039295036 -0.22389425 -0.0104164025 -0.11849296 0.07150266
-0.17379475 -0.07137798 0.05576028 -0.29694897 -0.08764283 -0.0802203 0.1684229 -0.087676354

fc3.bias f4 [2]
00000000: e950 25bd 9872 a63d
-0.040360365 0.08127326
